Marius_folder/MNIST_weights.pth (torch_old, 127488 bytes, 6 tensors)

0.weight f4 [32, 1, 5, 5]
00000000: c73e 4f3e 3be7 523e aadd 4e3c cb72 c93d
00000010: 88d1 dabb 61ee 553d 6825 ba3c 6ca2 f13d
00000020: 4beb d33d 16dd c3bd 144f c03d c156 d63d
00000030: f7ae 213e ea0b ba3d e474 9f3d bf9d 35bd
00000040: 409b ee3d 8f5f 633d fcb6 17bd 966b 003c
00000050: eec9 d9bd 06e2 a93c be14 d9bc d3bc ef3c
00000060: 1257 f7bd f125 17bd 3562 8bbd f25e 9bbd
00000070: c173 95bd 85d3 69be 3aab c73d c367 c5bc
00000080: c50a 093e 10c0 77bb 6dc0 21be 8e0d d73d
00000090: 8cd1 e73d c8fc 4f3e 4c77 833d 7bf1 d8bd
000000a0: ebeb 98bc 7e83 0cbd 8fe6 fc3d 2873 323e
000000b0: 53af 473d 8d2a dbbd 56b7 46bc a8f4 513c
000000c0: e870 f03d 447f fe3b 2b93 2cbe fdbe fabc
000000d0: da0e d53c 5537 823e f855 c73d 05cf 41bd
000000e0: 532b 0f3e 2bda 703e 8419 5e3e ef5f 48be
000000f0: 6bda 883d da64 503e aa6b b73e 53d7 07bd
00000100: cf0b 88be 22b7 0b3e 25bc e03e f693 c23d
00000110: a5c0 78be 55d4 debe 3956 a93e 62f6 7f3e
00000120: c43c 933d 4992 c3be bae0 debe f39d 0dbe
00000130: e5f1 39be 75f0 5cbd 69b5 973d 9b4f 493e
00000140: e9f7 3fbe f2e5 1cbe b8f9 553d 5f7b 5f3d
00000150: f592 433e c9ba 6dbe 168b 0bbd 1141 173c
00000160: 7fe2 f33d 71f3 f63d 2b18 1fbe 0ce0 ebbc
00000170: 29e6 653e 7cb2 653e 2bec c8bd 8463 5ebd
00000180: 714f 5e3e bf96 ac3d 4aad 8abc 5e2e 40be
00000190: 4346 213c 77e9 20be 8180 c0be 228f b3be
000001a0: 6d1f 27be 160b 803e 34b6 1fbd d59c aebe
000001b0: 3277 ccbe 6b45 90be 3e74 f93e 757a c93e
000001c0: 13c7 563d 08cd 9abe 6857 8fbe 0f15 503e
000001d0: c01a c33e 0a5c 023e 2988 d1bd df50 48be
000001e0: 13bb 3a3e 3cd8 933e 7bc3 833e 6083 14ba
000001f0: 9108 c6bd e96a 633c 623a 313d eb3b 2abe
00000200: beec fabc 3e3e 6ebc dc13 c63d 301e fcbd
00000210: 877c 95be 667a 593d 9b1f 123d f21f 20be
00000220: 3b73 bebe 2d65 1dbe 07dc 6f3e afa8 aa3d
00000230: 01b6 3ebd 5e7d fbbd 9713 973e da23 403e
00000240: 8535 14bd 5667 113e 0d16 993e d842 9d3e
00000250: 4e30 e33d fd9a 58be f5c5 fa3b 7131 c1bc
00000260: e6b4 9e3c 9586 a3bd 785a 643d 64c5 83bd
00000270: 1a19 1b3e f425 f93d 9209 3fbc 1843 f5bd
00000280: 10c2 f73d 613d 1c3e ff92 c43d 44bf 33be
00000290: d7aa f5bd b2b3 c4bd 62f1 cf3b 6dbb 503e
000002a0: ca4a 80bd 53a7 46be aa8c 34be eae7 3c3d
000002b0: 11aa 433e bb16 42bd 70d9 28be 9657 6dbd
000002c0: 1b5f 55bd 5008 f33c fa25 2c3d 2ff4 f1bd
000002d0: ae38 123d 4c70 c63d bbad 853d 9c64 0dbd
000002e0: 2c1b 37bc bf9f 933d 57d0 983d 29f4 3f3d
000002f0: 897f 17bd bfcd 32bd ab6b 18bd ad63 1fbc
00000300: 8fde 183e 9386 fc3d 957f 1fbd 9a63 82bd
00000310: a96a 97bc 0fad 993c 71fe 873d dfdb 183d
00000320: fff0 edbd 1b73 23bd d109 843e bbb2 b73e
00000330: 5f65 843e 7894 e9bd a82c dfbe aef4 dfbe
00000340: fa15 e2bd b931 463e b371 683e e3eb 1abe
00000350: a304 f3be 8a15 cfbe 29bc 20be 8a5a a73e
00000360: d165 5d3e ff42 cbbb 876a bcbd a256 4dbe
00000370: bae9 59bd cc3d a33e 2798 523e f0e8 1a3e
00000380: 75c1 cbbd 2f8d 773d bd90 2a3e dc3e 303e
00000390: 4918 a13d ff56 a43c 93b2 723c b339 863e
000003a0: f0a5 503e 0dd0 653e ae62 e83d fc87 423e
000003b0: 588e 8c3d 1c72 f3bd 470f 19be f158 0cbe
000003c0: 75a3 943d 88cb 48be 3156 83be 5831 53be
000003d0: 3745 f5bd 0c13 12be 9252 4bbe 6fff 5fbd
000003e0: 388b d0bc fee0 963d 0d5f 79bd 3d91 31be
000003f0: 78d7 19be 18a6 06be 5a9d 8fbd cd57 68be
0.20238791 0.2059602 0.012626091 0.09836348 -0.00667781 0.05222929 0.022722915 0.11798558
0.10347613 -0.09563653 0.09390083 0.10465766 0.157894 0.09084304 0.07785967 -0.04433989
0.11650705 0.055511054 -0.037039742 0.0078381505 -0.10634218 0.02073766 -0.026499148 0.029264843
-0.12077154 -0.036901418 -0.06805841 -0.07586469 -0.07297469 -0.22834595 0.09749456 -0.024097329
0.13383015 -0.0037803687 -0.15796061 0.10500632 0.11319265 0.20311272 0.064192384 -0.10592934
-0.018667182 -0.03430509 0.12348663 0.17426741 0.048751187 -0.10701475 -0.012128672 0.012814678
0.11740285 0.007766636 -0.16853015 -0.030608648 0.026008058 0.2543284 0.09733194 -0.04731657
0.1398137 0.23520724 0.21689421 -0.19567846 0.06682285 0.20350972 0.3582433 -0.033164334
-0.2657151 0.13644078 0.43893543 0.095008776 -0.24292238 -0.4352137 0.33073595 0.24996331
0.071893245 -0.38197544 -0.43530828 -0.13829784 -0.18158682 -0.053940255 0.07407648 0.19659273
-0.18746914 -0.15322092 0.052240103 0.054561015 0.19099028 -0.23215784 -0.03406819 0.009231822
0.11908435 0.120581515 -0.15536563 -0.028793357 0.2245108 0.22431368 -0.098106705 -0.054294124
0.21709992 0.0842719 -0.016928334 -0.18767688 0.009843412 -0.1571406 -0.3759804 -0.3507014
-0.16320582 0.25008458 -0.03899212 -0.34104028 -0.3993469 -0.28177962 0.48721498 0.3935124
0.052435946 -0.3023455 -0.27996373 0.20320533 0.38106346 0.12730423 -0.102310486 -0.195621
0.18235426 0.2887591 0.25735077 -0.00056653284 -0.09669603 0.01388047 0.04326857 -0.1662442
-0.030630466 -0.014541207 0.096717566 -0.12310445 -0.2919657 0.053095244 0.035674673 -0.15637186
-0.3719729 -0.15370627 0.23423778 0.08332955 -0.04656029 -0.12279771 0.29507133 0.18763676
-0.036183853 0.14199576 0.29899636 0.3071506 0.11093198 -0.21152873 0.007652993 -0.023583146
0.019373368 -0.07984654 0.05575034 -0.06434134 0.15146294 0.12165442 -0.011659997 -0.11975688
0.12097561 0.15257789 0.0959835 -0.17553431 -0.11995476 -0.09604587 0.0063459137 0.20383997
-0.06264265 -0.19399767 -0.17631784 0.046119608 0.19107844 -0.04738496 -0.16489196 -0.057944857
-0.052092653 0.02966705 0.042028405 -0.118141524 0.035698585 0.09689388 0.06527277 -0.034519777
-0.011175912 0.072082035 0.07461613 0.04686371 -0.03698686 -0.043653246 -0.037212055 -0.009728354
0.1492865 0.123303555 -0.03894003 -0.06366654 -0.018483477 0.018759279 0.06640328 0.03731906
-0.11618232 -0.039904695 0.2578874 0.35878548 0.2585859 -0.11405271 -0.43588758 -0.43741363
-0.11039348 0.19354905 0.22699623 -0.15129046 -0.47464475 -0.4044612 -0.15696777 0.32686263
0.21620871 -0.006203055 -0.09200006 -0.20052579 -0.053201415 0.31883085 0.20565854 0.15127921
-0.099490084 0.060437378 0.16656776 0.17211479 0.0786596 0.020061014 0.014813083 0.26215896
0.203758 0.22442646 0.11346947 0.18997186 0.068630874 -0.11886999 -0.14947234 -0.13705803
0.072577395 -0.19608891 -0.25651696 -0.20624292 -0.11976092 -0.14265078 -0.19855717 -0.05468696
-0.02545701 0.073671326 -0.060881663 -0.1734056 -0.15023601 -0.13149297 -0.07012434 -0.22689743

0.bias f4 [32]
00000000: c398 d2bc 3dc0 92bc 5fd4 48be e328 063b
00000010: f2fe f4b9 38bb 0cbd e32a 2fbc d493 75bd
00000020: 68e9 013e 4918 d9ba 1507 f1ba 8964 463e
00000030: 6d85 a1bc 6c32 533e 33ca 0a3d 0dd0 47bd
00000040: bb12 2e3e 101b 7cbc 5fa3 acbc 6e3b 7ebc
00000050: aa3b b43d 6e71 89bd f43f 43ba de00 b7bc
00000060: 7f9a e9bc 852f abba ea30 6abd 184c afbd
00000070: acd7 edbc 4569 70bc 7512 dc3d 5a30 69bd
-0.025707608 -0.017913932 -0.19612263 0.0020471148 -0.00046729256 -0.034358233 -0.010691377 -0.059955433
0.12686694 -0.0016563024 -0.0018388951 0.19374289 -0.019716943 0.20624703 0.03388424 -0.048782397
0.16999333 -0.015387312 -0.021073995 -0.015517099 0.088004425 -0.06711088 -0.00074481894 -0.02233928
-0.028516052 -0.0013060427 -0.057175554 -0.085594356 -0.029033504 -0.014673536 0.10745708 -0.056930877

3.weight f4 [32, 32, 5, 5]
00000000: 9ba5 f5bc b436 debc d79f 98bc 9cfb 9dbb
00000010: e5f9 35bd fc67 93bc d105 3fbc 77b3 b43a
00000020: 25b7 eb3c 891f 1ebd e8a2 49bc d204 d1bc
00000030: 84f9 44bc 81ba e93c 8326 c33b d75a 4ebc
00000040: 5fbb 733b a17e b6bb 49e6 553c b305 953c
00000050: d366 91bc 27ec 00bb 521b 60bc a242 a23c
00000060: 7ebe 153d 73f1 05bc c4e2 223c 96ae 133d
00000070: f2ac 503c e976 c0bb 889a fa3b e230 a0bc
00000080: d321 c63c d483 903d a42b 863c 7305 1ebb
00000090: 7772 b2bc 138a f1bc 049b 193d ae0e 0f3b
000000a0: cf10 183a d2a7 0b3b 1c82 07bd 0fde cd3c
000000b0: 314f 9c3b bd7a 8f3c 9b1e 0c3d 0248 8839
000000c0: 91a8 b53b eacd efbb 9115 a0bc 528d c4bc
000000d0: 0dad 633c 68f4 c33d 213d a83a 7161 c43c
000000e0: 2f8d 8bbb e63c b5bc ee25 263d 1f0b 823b
000000f0: c65f 443d f804 903c fc26 c1bc 24e3 743d
00000100: 928b 59bc 610b 1abd fb4c dbbc 1e22 05bc
00000110: fec8 8ebb 5c25 02bd bf01 8cbd fb31 8bbd
00000120: 7111 9abc ea77 51bd 7d0c 5abd 222a 15bc
00000130: d9fc 00bb 39d6 11bb 0cca 14bc bf76 c9bb
00000140: f26f 0c3c dca3 003d 9b57 5cbc fa2a 57bc
00000150: 2165 2dbb 54c8 9e3c b36f 903c e9f9 173c
00000160: 824b 023a ea4c 733b b493 4b3c 4ec4 eabc
00000170: 243f 893c 606e 3f3c 7d0c 6ebc 8ca9 deba
00000180: c64f 41bd 11b6 a7bc 6e17 623c a8e1 d2bc
00000190: af84 30bd 4a13 01bd 0917 083d 2c6a e73c
000001a0: f5ed 83bc a16b 44bd d9e4 2abd fda6 3dbc
000001b0: 5c9b d83d 2e3e ad3d 444b 6dbd b5f7 26bd
000001c0: 91ac 47bd e850 223d 5413 793d 7404 b3bc
000001d0: abe5 56bb 8d2e 50bd a116 debc e8be 1bbb
000001e0: 0ff3 16bd d499 debc 4e64 3bbc c72c babc
000001f0: d499 edbc 00e9 083c c367 fb3c 31d6 513c
00000200: bbdc 2a3d 4a5a 393d 6ad3 853c 0ef2 a73d
00000210: 8775 20bc 86c2 c73c 1e67 c5ba 4a85 c23c
00000220: 9c8e c23c b494 ca3b 91d6 61bb 5924 b8bb
00000230: 99a7 aa3c b37c a93c 56bf 433d 3a10 67bc
00000240: e1cd 753c 4533 1abd f466 2abd afc1 9abb
00000250: 26a2 86bc 6261 89bd 3f1b 9dbc 5d31 97bc
00000260: 8bb4 de3c a0fa e83c ba1a fbbc f16d 3a3b
00000270: 085b 10bc d515 83bc b71d a63d 394b 4cbc
00000280: b0b3 da3c 822a f13b 1f9a 1f3b 6d5d 8e3d
00000290: f074 3ebb 4b38 d4bb 3e3d 253c 1df2 bdbb
000002a0: d651 313d 5944 fd3c 6744 46bc f543 4c3c
000002b0: 7660 1a3c ace9 ed3b 18f2 23bb 9e9e 32bc
000002c0: b31d b8bb c777 e73c 8e3a 373b a4ff 81bc
000002d0: 12de e2bb 6802 6bbc 2fee 463c 03ca 0f3d
000002e0: 1aed d4bb fbfa 993b e2fd 3ebb 1d01 9f3b
000002f0: effb 303c 83f4 f1bb e23b b439 2bb2 f83b
00000300: df6e 4bbc fb1b 023d 3c2c 6b3c 929c 2e3a
00000310: 86c1 553c f5eb 5f3b bac2 023c 3b35 8fbc
00000320: 8f30 49bc d1b0 5cbb 763e c53c 8f41 f03d
00000330: a9e6 3a3d 8de0 9cbc 01f3 2d3c 2215 6dbb
00000340: e340 5f3d b037 083e 9d3c a1bd 236f 3fbd
00000350: 5499 2a3c 4c6e 07bd 92bd 353d 9e3a ecbb
00000360: 8d29 55bb e8ed a4bb a4a6 80bd 3d8f 163d
00000370: 0432 203d 981d ea3c a9b1 9f3d 90ab 573d
00000380: f9c1 99bc 5197 763b 1750 3bbc 9b7e ccbc
00000390: f187 43bc db76 aa3c 3637 463d 0fa0 2c3d
000003a0: 05e7 b33c 7aff 77bc a6f9 52bc 9642 3c3c
000003b0: fa64 00bc 911c b5bb 388d f0bc e13d e6bb
000003c0: 36d6 e0bc 94b3 48bc ea45 cdbc 3904 d23b
000003d0: a078 ba3a 72db c03b a060 283c d698 bc39
000003e0: 46a0 623c eac8 433c 7e83 7ebc 2351 e939
000003f0: 2469 be3c 7c94 f73c ce55 7d3c 0b09 c93c
-0.029986193 -0.027125694 -0.018630905 -0.004821254 -0.04442777 -0.01799392 -0.011659102 0.0013786395
0.028773854 -0.038604293 -0.012306906 -0.025514994 -0.01202238 0.028531315 0.0059555187 -0.0125949
0.003719054 -0.0055692946 0.013055393 0.018191194 -0.017749226 -0.0019672008 -0.013678389 0.019807164
0.03655862 -0.008175242 0.00994176 0.03605517 0.012736546 -0.00587355 0.007647816 -0.01955456
0.02418605 0.07056394 0.016378231 -0.0024112135 -0.021783097 -0.029484784 0.03750135 0.0021828818
0.00058008445 0.0021309745 -0.033083066 0.0251303 0.0047701825 0.01751458 0.034208875 0.0002599359
0.0055437763 -0.007318248 -0.019541534 -0.023993168 0.013896239 0.09568101 0.0012835601 0.023972245
-0.0042587738 -0.022123765 0.040563516 0.003968611 0.0479429 0.017580494 -0.02357816 0.05978693
-0.013277905 -0.037608508 -0.026770106 -0.00812581 -0.004357456 -0.03177391 -0.068362705 -0.067966424
-0.018807145 -0.05113975 -0.053234566 -0.0091042835 -0.001968196 -0.002225293 -0.009081375 -0.006148189
0.008571612 0.03140627 -0.013448621 -0.013132805 -0.0026457983 0.019382633 0.017631387 0.009275892
0.0004970358 0.0037124702 0.012425352 -0.028658058 0.01675374 0.01168403 -0.014529345 -0.0016987785
-0.04719522 -0.020472558 0.013799531 -0.025742367 -0.043095287 -0.031512536 0.033225093 0.028248869
-0.016104678 -0.047954205 -0.041722152 -0.011575458 0.105765074 0.084591255 -0.057933107 -0.040763576
-0.048748557 0.03962794 0.06080945 -0.02185271 -0.0032790701 -0.050825644 -0.0271104 -0.0023764912
-0.036852892 -0.02717296 -0.011437489 -0.02272643 -0.029004015 0.008356333 0.030689126 0.012807415
0.04171441 0.045252122 0.016336162 0.08200465 -0.009793646 0.024384748 -0.0015060639 0.023745198
0.023749642 0.0061822776 -0.0034460167 -0.0056195674 0.02083187 0.020689344 0.047789894 -0.01410299
0.015002699 -0.03764655 -0.04160209 -0.004722796 -0.01643474 -0.067080274 -0.019178031 -0.018456155
0.027185699 0.02843982 -0.030652393 0.0028446878 -0.008810766 -0.016001621 0.081111364 -0.012469106
0.02669701 0.0073598037 0.0024353338 0.06951413 -0.00290614 -0.006476437 0.010085402 -0.0057966844
0.043290935 0.03091638 -0.012101269 0.012467374 0.009422412 0.007260522 -0.0025016125 -0.010902075
-0.005618775 0.028255356 0.0027958485 -0.01586897 -0.0069234455 -0.014343835 0.012141748 0.035104763
-0.0064979913 0.0046991087 -0.0029143025 0.0048524276 0.010802253 -0.0073838844 0.00034376892 0.0075895987
-0.01241657 0.031764966 0.014353808 0.0006660904 0.013046628 0.003416774 0.007980997 -0.017481437
-0.012279644 -0.0033674727 0.024077635 0.11731254 0.04563013 -0.019150043 0.010617019 -0.0036175926
0.05450524 0.13302493 -0.07872889 -0.046736848 0.010412533 -0.03306417 0.04437024 -0.007209136
-0.0032525987 -0.0050332434 -0.06281784 0.036757696 0.0391102 0.028578565 0.07797558 0.05265385
-0.018769251 0.0037626813 -0.011432669 -0.024962714 -0.011934266 0.020808628 0.048392497 0.04214483
0.021960745 -0.015136594 -0.012876904 0.011490485 -0.007836575 -0.005527087 -0.029364213 -0.0070264195
-0.027445894 -0.012249846 -0.025057752 0.006409195 0.0014226623 0.005885535 0.010276943 0.00035972026
0.0138321575 0.011949757 -0.01553428 0.00044501675 0.023243494 0.03022217 0.015462352 0.024540445

3.bias f4 [32]
00000000: ee43 f0bc cdfb 513d 1103 c03b fd5c f8bc
00000010: c9af ec3b dd96 87bb 4a40 0fba ca94 d3bc
00000020: 70a6 d3bc 1f3d 773c fc22 f7bc c782 7d3c
00000030: a319 c73a 1ad6 8dbc 9ad0 4a3c 3e2b 413c
00000040: ec5e c7bb 92db 04bd e8ca 853a 527c 8dbc
00000050: 310c 59b6 b540 4dbd 0df5 4e97 4c8c 86bc
00000060: 0109 8dbc e6ca 1bbd 4b96 d7bc bee5 4bbc
00000070: ea98 9ab8 3b0e 3abd 6be7 c1bc ceed 9fbc
-0.029329266 0.051265527 0.0058597405 -0.030317778 0.0072231037 -0.0041378574 -0.0005464597 -0.025827784
-0.0258362 0.015090256 -0.030168049 0.015473074 0.0015190135 -0.017314006 0.012378836 0.011790095
-0.0060843136 -0.03243596 0.0010207566 -0.017271195 -3.2342616e-06 -0.050110538 -6.6871487e-25 -0.01642432
-0.017216207 -0.038035296 -0.026316782 -0.0124449115 -7.371775e-05 -0.045423727 -0.023669919 -0.019522574

7.weight f4 [10, 512]
00000000: 23ac 9ebc 7c03 1b3d 3865 333c 0a3e 7b3c
00000010: f055 023c abad 123d a755 3f3d 07b3 303c
00000020: f65d 54bb 3ede 4c3c 4134 9bbb bd91 16bc
00000030: 8894 bb3d 143e 423d 9c1c 91bd b21a 94bd
00000040: 3ef8 993c 2a47 523c fe2b 51bb 1353 123c
00000050: 73ac 913d bec7 003c 509a a9bd b623 babd
00000060: 95cb 523d e522 5fbd 913a 343c 7ff2 95bc
00000070: 5da0 19bc 17f3 6f3d 19f1 dc3c 5209 9fbd
00000080: bdf0 91bd 38b5 7fbd 7a6a 6b3d d1fe 353d
00000090: 8b32 b6bd b618 b93d 8fdc ea3d 33ae 483d
000000a0: e353 003d d823 c33c f4e8 4dbc 6afe e03c
000000b0: 9c00 ea3d bc93 633b 1b7c 9cbd d807 25be
000000c0: 921d a7bd 48b9 f4bd 820d b93d e49a 133e
000000d0: db8b 9b3b a10e 8dbd 73b9 4a3d b505 123d
000000e0: 6f6d 75bd 308b f0bd 39fb d0bc 1302 9f3d
000000f0: 3819 b2bd edf5 88bd dd96 893d 916b 833d
00000100: dfc9 373c fe94 bf3c 681b f2bb dc70 203d
00000110: d07e 48bd e3f0 22bd 246a 7fbd 0c77 023a
00000120: 11da a33c 1bf6 b6bd 7f3c 85bd f5af 54bd
00000130: 2bc8 bb3d fd58 953d 4fa0 863d 081d 10bd
00000140: 5cc5 75bd 975a a4bd d04f a3bb d573 d2ba
00000150: 66fa 39bd 381a 26bd e2c1 e9bd e418 643d
00000160: 3083 60bd b912 03bd a9cf 64bc 5f7a 2ebd
00000170: 22d5 483d 611a 9a3c fb6e c93d 98fe 79bb
00000180: 01bc adba 9146 c9b9 f7ac 22b9 ec1b 82b7
00000190: a107 6cb9 e1c7 feb9 83b1 c5b9 7e4a 12ba
000001a0: 6fc5 21ba 2ef4 35ba 4edc a2b9 2257 3bba
000001b0: 3ece e2b8 5eb3 05ba c40b 6338 01a0 9fb9
000001c0: 6137 76bc 54a5 4dbc e813 81bd 92ae b73d
000001d0: 80fd 0e3c b798 93bc e1e0 0bbd 2d7f cb3d
000001e0: f212 553d aed5 23bd 2ab8 33bd 29c5 a33d
000001f0: 759b b23d 450d 18be 64ae 30be e37f bbbc
00000200: f646 d3ba c01d 79bd 5199 f53c ab7a f33d
00000210: 4ef2 2cbe 969e cebd 4661 103d 41ed c73d
00000220: 2c3b babb 8c30 31bd 7fca 13be c7dd 6abd
00000230: 447e 983c 9e33 813d 58b8 08bd 2dba 26be
00000240: 8309 2abd 37d0 08bd f300 d4bc 32de fa3c
00000250: c642 2cbe 2c08 f5bc bf5e 9c3c 4364 0abd
00000260: dab7 83be ffd7 e4bb 708c 933d b447 4f3c
00000270: 40dc 6bbd fb1c 0c3e 783b 673e 40ae 083e
00000280: d18b 713c 8177 513d cb25 7dbd 8c81 c4bc
00000290: e52f fb3b 8409 293d ffd1 4cbd 0bf7 203d
000002a0: 6fb4 c13d 5fdc a1bd cadd de3c f9d8 38bd
000002b0: ab92 abbd 1028 28be 46e1 3fbd a57f 9bbc
000002c0: 8657 b6bb 40a2 dc3c 5b39 63bc a8e2 46bd
000002d0: df91 883c 1fcc 143d ce9c f93c d159 a33d
000002e0: f89c 1f3c 22ff 8e3c 63fa e03d c23d 1ebd
000002f0: 2c55 fabd 5ed4 83ba 3d5f b33d d494 8ebd
00000300: a05b bdbd 40ad 86bd 5b2b 833d 069d 583d
00000310: 07cf ddbc 6af0 0dbd 040f f3bc d914 b73d
00000320: d858 f1bd 26f2 ebbd 5cf5 9f39 8745 1e3d
00000330: dc10 e0bb 2784 edba 1f03 033d 01d2 723d
00000340: 6d09 ddbb f0cb 993d 57be 003d 3889 d83d
00000350: 4adc acbc c949 89bc 3935 57bc 7a04 96bd
00000360: 29eb 1cbd 8aa0 03bd 8275 09be 1eaf 3cbe
00000370: 5689 f93c 29af 433c a4dd ff3c 4909 eebd
00000380: 7015 6ebd 41c5 893c 939a 163d ac4a 10bd
00000390: d936 47bc 9620 d9bc 1dcc ce3b bf96 d0bb
000003a0: f513 b3bd 526f c3bc fdb6 843c 53b8 1fbc
000003b0: 74a2 df3c d55f b53d dfab d83d 9e66 16bd
000003c0: 396b 053d 63da 103d 33a8 f83c ace6 85bd
000003d0: ea3f 323b b92c 103d a26b b6bd 8454 523c
000003e0: c023 0b3c 98e2 14bd a78d 15bd a84e 773d
000003f0: 345a 143c cd3e 28be 758d 17be 2c97 cb3d
-0.01936919 0.03784512 0.010949425 0.0153346155 0.007955059 0.035810154 0.046712544 0.010784871
-0.0032404638 0.012504159 -0.0047364538 -0.00919002 0.091591895 0.047422484 -0.07085535 -0.07231654
0.018795129 0.01283435 -0.003191709 0.008930939 0.0711297 0.007860122 -0.08281386 -0.090888426
0.051463682 -0.054476637 0.011000291 -0.018304108 -0.0093766125 0.058581438 0.026970433 -0.077654496
-0.07125995 -0.062428683 0.05747459 0.044432465 -0.08896359 0.09037916 0.114678495 0.048994254
0.03133 0.023820803 -0.012567747 0.027465064 0.114258975 0.0034725508 -0.07640859 -0.16116273
-0.08159937 -0.11949402 0.090357795 0.14414555 0.0047468967 -0.06887556 0.049493264 0.035649974
-0.059918817 -0.11745298 -0.025510417 0.077640675 -0.08696216 -0.066875316 0.06718228 0.06417001
0.011217563 0.023386475 -0.007388521 0.03917013 -0.048949063 -0.03978051 -0.062357083 0.0004976846
0.020001443 -0.0893366 -0.06505679 -0.05192562 0.091690384 0.07292364 0.06573545 -0.035183936
-0.06000267 -0.08025091 -0.0049838796 -0.0016056249 -0.045404814 -0.040552348 -0.11413933 0.0556878
-0.05481261 -0.032000277 -0.013965526 -0.04259717 0.049031384 0.018811407 0.09835621 -0.0038146134
-0.0013254882 -0.00038390284 -0.00015513958 -1.551021e-05 -0.00022509556 -0.00048595577 -0.00037707025 -0.0005580558
-0.00061710825 -0.00069409877 -0.00031063188 -0.00071464677 -0.000108149354 -0.0005100275 5.4131975e-05 -0.00030446055
-0.015027852 -0.012551624 -0.06302625 0.089688435 0.008727431 -0.018017156 -0.034150008 0.09936366
0.05202002 -0.039998703 -0.043876804 0.0799659 0.08721057 -0.14848812 -0.17254025 -0.02288813
-0.001611917 -0.060819387 0.029980334 0.118886314 -0.16889307 -0.100888416 0.035249017 0.097620495
-0.0056833234 -0.04325919 -0.14432715 -0.05734041 0.018614896 0.06308673 -0.03337893 -0.16281958
-0.041512977 -0.033401694 -0.025879359 0.03062353 -0.16822347 -0.029911123 0.019088147 -0.033787023
-0.25726205 -0.0069837566 0.07204521 0.012651373 -0.057583094 0.1368293 0.2258128 0.13347721
0.0147428075 0.05113936 -0.06180362 -0.023987554 0.0076656216 0.04126884 -0.050004955 0.0392981
0.09458243 -0.079033606 0.027205367 -0.045128796 -0.08377584 -0.16421533 -0.046845697 -0.018981764
-0.005564633 0.026932836 -0.013868655 -0.048556 0.01667112 0.036327478 0.030470278 0.079761155
0.009742014 0.017455641 0.109852575 -0.038633116 -0.122232765 -0.0010057797 0.087584 -0.069619805
-0.09245992 -0.065760136 0.06404754 0.052884124 -0.027076257 -0.034653105 -0.029670246 0.08939523
-0.11784524 -0.115207955 0.0003050965 0.038640525 -0.0068379473 -0.001812105 0.0319854 0.059282307
-0.0067455084 0.07509601 0.031431522 0.105730474 -0.021101136 -0.016758816 -0.013135248 -0.073250726
-0.038310204 -0.032135524 -0.13423732 -0.18426177 0.030460995 0.011943617 0.031233616 -0.11622865
-0.058125913 0.01681769 0.036768507 -0.035227463 -0.012159073 -0.026504796 0.0063109533 -0.0063656266
-0.08744041 -0.023856793 0.016200537 -0.009748536 0.027299143 0.08856169 0.10579657 -0.036718957
0.03257296 0.03536452 0.030353641 -0.06538138 0.002719874 0.0351989 -0.08907248 0.012837533
0.00849241 -0.03634891 -0.036512043 0.060377747 0.009054709 -0.16430207 -0.14800055 0.09940943

7.bias f4 [10]
00000000: de62 c8bb 3a36 6f3d f1fc a1bc 8990 e3ba
00000010: 905e 35bc ab5a 41bc 24c8 573c 50cf 48bc
00000020: 5cc9 963c 3327 413c
-0.0061153015 0.058401324 -0.019773932 -0.00173618 -0.011069909 -0.011801402 0.013170276 -0.012256458
0.018406563 0.011789131
