Moritz_folder/different_seeds/MNIST_weights_seed=6.pth (torch_old, 127500 bytes, 6 tensors)

0.weight f4 [32, 1, 5, 5]
00000000: 202d ca3b 6296 da3d 87d1 853e ce6c 6c3d
00000010: 13f7 42be 8cfc 7bbc 0954 1b3e 4135 443e
00000020: fd78 aabc 8fa4 93be 3c36 75bd 6286 9f3d
00000030: 41c2 133e 883d 623d b037 7dbe f2d4 333d
00000040: fd37 253e 0ff6 f53d 20f2 7bbc d321 29be
00000050: 2277 0bbe 7f30 17bd 9c8b c93c dba0 e03d
00000060: 3051 0cbd 0ac9 9c3c 640a 01be 3b34 04bc
00000070: 8723 15be 3078 2bbd 321d fcbc 7083 60be
00000080: 7a65 873c 4e6b bfbd b16c 203e d92e 4e3d
00000090: 3b4c a0bd 2448 eebc de86 6d3e 7fe5 e63c
000000a0: 0b4d 453e c6b8 c93d 03e9 893e 9788 493e
000000b0: 3f00 a7bd 33de c73c 8bc0 da3d 5145 2b3e
000000c0: 0b7a 3e3c cd14 f4bd 59e7 c3bc 2b41 943c
000000d0: 7367 583e 09c9 de3d 226c 0fbe 2976 d2bd
000000e0: b75a 753c 5b37 523e b37f 0e3d 7eb4 19be
000000f0: 0018 1e3d b868 663e f60d fc3d 197f ec3c
00000100: 6c1d 3abe e7d4 593d bb45 583e 6bf3 0c3d
00000110: a148 cebd 625e 4abe 1602 8a3d 4649 d1bc
00000120: a1f4 403e 6e7f 113d e531 80be af20 8e3c
00000130: 8fd7 fa3d 9966 8fbd 0e08 8abd 5f28 553e
00000140: c596 d1bd 753c 6bbd 3695 973b 78b8 3c3d
00000150: 1f1d 6a3e 2bcd 993d 2c8f 8dba aa4e 053e
00000160: b4b3 673d dc03 b5bd 9868 263e 73ce 0d3e
00000170: 6639 143e 26db bfbd a58f a2be c2c5 a23e
00000180: 043c 9d3e bd08 eebd 675e 7bbe 5410 87be
00000190: 00c2 313e b4ca 593e 640f 363e c966 243d
000001a0: 4761 b83d 9882 4e3e eb2a 483e 05d2 a33e
000001b0: 922d 693e 30d7 8fbc 66a7 f3bd 64fd c53d
000001c0: 090b dc3c f03e 1a3d 3ff0 423e 7bdc 3cbe
000001d0: e8b6 8bbe d51f 3ebe 3e73 d9bd 55c3 74bc
000001e0: 12d9 18be e780 52be ce76 f1bb 1466 4dbd
000001f0: e791 9fbd 1c74 c5bd 1d5c b0bd a76a a23c
00000200: 3fa8 ccbd dcba 5b3b 027f d93d 010a 63bd
00000210: 2407 69bd 576d 64bd 1b26 483e 467c 503d
00000220: 01f8 2cbc 0f29 15bd 0f92 693e ac65 113e
00000230: 51fb 1c3d 2d46 053e b5d2 5c3e ef18 e53d
00000240: 8aec 4abe 2c9e 4cbd f534 d2bb b7a7 4e3e
00000250: d10d 603d b5a8 48be 129b a93d 9721 6c3d
00000260: f3fe 963e 6650 943d a5fe c53d 3333 f83d
00000270: 009d 513e 175c d93d 6914 6d3e ee6c 9a3d
00000280: 7b39 0ebe f776 24be 4096 d73c 442e 873d
00000290: bb4d f6b8 5135 80be 34a4 1fbd 4cb1 8abd
000002a0: 0f9e 5fbc 64f9 69bd 3fa1 64be 3d3b 52be
000002b0: 4dba de3d 5895 1e3e 171b 02be c623 a2bd
000002c0: 6958 a83d 3279 593d b9e8 2ebe 5da5 95be
000002d0: 3fab 3e3e 2db5 813d 10bc 003e d3a2 5bbe
000002e0: e811 42be 52a2 d73d de75 f13d 0f6b e8ba
000002f0: 3d1f b9bd 46bf cd3d 63be 9f3d 0aed ec3d
00000300: aa4a 5d3e 3f4f b13d 5cb7 553e bcb4 09bd
00000310: a8e8 4f3e b39d d73d f452 b1bd c294 c9bd
00000320: 6797 77be a0a7 943d 2b84 3a3e b505 803e
00000330: d1e9 adbd 785c 05be 6de0 7dbd 63f7 7c3e
00000340: 2a71 633d 0683 32be 40b8 92bd f898 283e
00000350: 6ef1 873e b64d 86bd 37fd e2bd 6ebe 41bd
00000360: 3f90 3e3e 5123 cd3d f426 0abd a067 21bd
00000370: 2397 c73d 5934 ac3d 5176 11be 3446 22be
00000380: 9bd6 73be 6aa5 163e d199 ec3d 62ae 443e
00000390: 6574 0a3d 9c90 963e 4501 c93b 8d97 113e
000003a0: 74a9 ba3e 4733 733e 4374 9c3d 9155 82be
000003b0: ba8a f3bc 4d65 03be c4b9 1c3e 1e8b 213e
000003c0: 695c ecbe a9fd abbe 51a1 88be 56a1 b6be
000003d0: 549d acbe 1fb3 aebd a668 9cbe 36b5 c0be
000003e0: 2147 abbe a3c2 5fbe 4851 12be b048 183d
000003f0: 4274 fdbd 6841 913d 27d2 70bd 37ba 6abd
0.00616993 0.106732145 0.2613642 0.05772095 -0.19039564 -0.015380036 0.15168776 0.1916094
-0.020809645 -0.28836486 -0.059866175 0.07789303 0.1442957 0.055234462 -0.24728274 0.043904252
0.16134639 0.120098226 -0.015377551 -0.16516809 -0.13619664 -0.036911484 0.024602704 0.10968181
-0.034257114 0.019138832 -0.1260162 -0.008069093 -0.14564334 -0.041862667 -0.03077564 -0.2192514
0.01652788 -0.093466386 0.15666462 0.050337646 -0.0782704 -0.029087134 0.23195979 0.028185604
0.19267671 0.09849696 0.26935586 0.19681011 -0.08154344 0.024397945 0.10681256 0.16725661
0.011625777 -0.1191803 -0.023914026 0.01809748 0.21133213 0.10878188 -0.14006093 -0.102764435
0.014975241 0.20528929 0.034789752 -0.15010259 0.038597107 0.22500885 0.1230735 0.028869199
-0.18175286 0.053181555 0.2112035 0.03441183 -0.100724466 -0.19762567 0.06738679 -0.025547635
0.18843319 0.035521917 -0.25038067 0.01734957 0.12248146 -0.07001991 -0.067398176 0.20816182
-0.10233835 -0.057430703 0.0046259416 0.04607436 0.22862671 0.07509836 -0.0010800115 0.13018289
0.056567863 -0.08838627 0.16250837 0.13848285 0.14475021 -0.09367971 -0.31750217 0.31791502
0.3070985 -0.116227604 -0.2454773 -0.26379645 0.17359161 0.21268731 0.17779309 0.040137086
0.09002929 0.20167005 0.19547622 0.3199617 0.2277129 -0.017558664 -0.11897163 0.09667471
0.02686073 0.037657678 0.19036959 -0.18443482 -0.27287984 -0.1856683 -0.10617684 -0.014939149
-0.14926556 -0.20556985 -0.007368899 -0.050146177 -0.077915005 -0.09641287 -0.08611319 0.019826246
-0.09993028 0.0033528125 0.10619928 -0.055429462 -0.056891575 -0.055768337 0.19545786 0.050899766
-0.010557176 -0.03641611 0.22809623 0.14198941 0.03832561 0.13015051 0.21564753 0.11186396
-0.19816795 -0.049955532 -0.0064150044 0.20181166 0.054700676 -0.19595607 0.082815304 0.05764922
0.29491386 0.07241897 0.0966771 0.121191405 0.20470047 0.10613268 0.23152317 0.07540308
-0.13889115 -0.16061006 0.026316762 0.06600621 -0.000117446725 -0.25040677 -0.038974956 -0.06772098
-0.013648524 -0.057122603 -0.22327136 -0.2053041 0.10875378 0.15486658 -0.12705646 -0.079169795
0.08219988 0.053094096 -0.17080964 -0.29227725 0.18620013 0.06333385 0.1257174 -0.21448831
-0.18952143 0.10529007 0.117900595 -0.0017732101 -0.09039161 0.10046248 0.07799985 0.11568649
0.21610513 0.08657693 0.20870727 -0.033619627 0.20303595 0.105281256 -0.086584 -0.098428264
-0.24178849 0.072585344 0.1821448 0.25004354 -0.084918626 -0.13023555 -0.061981607 0.24703746
0.055527844 -0.17432794 -0.07164049 0.16464603 0.26551384 -0.06557791 -0.11083453 -0.04730075
0.18609713 0.10016502 -0.033728555 -0.039405465 0.09745624 0.08408422 -0.1420529 -0.15847093
-0.23812334 0.14711538 0.11552776 0.19207147 0.03380241 0.29407203 0.0061341845 0.14217968
0.36457407 0.2375003 0.07639363 -0.25455907 -0.029729236 -0.12831612 0.15305239 0.15775725
-0.46164253 -0.33591965 -0.26685575 -0.35669965 -0.33713782 -0.085302584 -0.3054859 -0.37638253
-0.33452705 -0.21851592 -0.14288819 0.037178695 -0.1237569 0.070925534 -0.058794167 -0.057306495

0.bias f4 [32]
00000000: df6b 30bb e553 95bc 3d8f a8bb 8cba 50bd
00000010: 2e73 373b f6fa cdbb 6b3f cdbc ac3c 4a39
00000020: 0d7d c5bc 098d 793e 4910 62bb 47d4 d23c
00000030: 0980 f3bd 9e35 cc38 b697 203c c17d cb3c
00000040: 8b96 83bc 66e6 56bd 1c78 15bc cf65 a03a
00000050: 7e76 253d 0734 1a3d 6a9d 813b 69b9 1f3b
00000060: 9bce 8c3a ba92 7f3e 9024 0f3d 1314 b7bd
00000070: d764 7abb faa6 7cbc c3d6 b6bd 73d0 a1bc
-0.0026919765 -0.01822848 -0.0051440285 -0.050959155 0.0027992236 -0.0062860204 -0.025054654 0.00019286823
-0.02410748 0.24370207 -0.003449457 0.025735987 -0.11889655 9.737465e-05 0.009801796 0.024840238
-0.016062995 -0.05246582 -0.009122875 0.0012237373 0.040396206 0.037647273 0.003955533 0.0024371988
0.0010742726 0.24958315 0.034946978 -0.08939376 -0.0038207078 -0.01542067 -0.08927681 -0.019752717

3.weight f4 [32, 32, 5, 5]
00000000: 3351 abbc c363 75bc b037 1a3d 0efc 063d
00000010: f3e5 1fbd 1982 eabc 4c80 33bc af6e c43c
00000020: 4a29 c1ba 77b0 dfbc 537a 32bc 4a66 2f3d
00000030: 9bd2 dfbc 7476 393c 2e62 cf3c edb3 193c
00000040: 149a 403d 2219 cf3b 4158 6f3c cdf7 b83b
00000050: 24f4 9dbb 4a4f fd3b 30c1 c13b 1672 3c3b
00000060: 37c8 013d 06b0 bcbb 8a3e cc3c 3af2 1e3c
00000070: 30c9 d7bc f15d 0bbd 498c 28bc 1855 ce3c
00000080: 11c8 97bc 2a66 82bc 8461 f83c 1093 653c
00000090: eaa6 f2bb 543a 82bc d3ad 0ebc 7cbd 043d
000000a0: 15ce 0d3d d8a2 223c 79b9 0f3d 19e2 073d
000000b0: e8e3 c53c 6b60 53bc 06ba 1dbd 8909 9b3c
000000c0: bcab 163b caa9 47bb 37a6 9cbc 15b5 353b
000000d0: 9e59 193d 33a3 353c 94c6 e1bc 0604 b5bc
000000e0: 4a11 d23c b9be b73c 43c1 1e3a b927 033b
000000f0: aa61 a2bb 856f 693d a3e0 32bc a97b 17bc
00000100: 7205 803c eea7 e63b 31f8 963c 36d5 c4bc
00000110: 5f22 f63c 0ca3 133d 1fcc d9bb 209e 07bd
00000120: e07f dcbc 385b 0b3d a2aa 3bbb 0bbf 85bc
00000130: d62a e7ba b3a5 0b3d 0d38 563c a7a1 fbbc
00000140: 7d97 abbc 8bcb e33c 158e 683c 572c 94bc
00000150: 577b da3c e733 26bd 31ab db3b fb16 3cbc
00000160: ed17 b4bc d440 a83c 6cc8 a8bc 6d54 03bd
00000170: 9609 16bb 2397 b03c aebd 323c 67c1 ad3c
00000180: 949a 99bc cf56 68bc 0416 0eb9 18a7 41bc
00000190: b6c8 12bd 3b1e cfbc c323 b23a 6a98 01bd
000001a0: 1179 62bd 91c6 cfbc 8e6f d5bc bb9e 9e3b
000001b0: c524 bbbc 743c 60bd c7cc 54bd c611 33bd
000001c0: 3882 66bc 3e97 1cbd 7e52 40bd 4ec3 40bd
000001d0: fcf2 09bc 4d27 06bd 2a26 47bd 834d c2bc
000001e0: 2d41 bf3c 4e7b 1b3d 5b61 823d e886 a63b
000001f0: e04d 343d 8dc4 83bc 39a5 103d 2906 a03b
00000200: 33e9 12bc 6200 bebc 6836 08bc 9110 a63c
00000210: 3610 40bc e181 51bc aeda 2e3c 26d0 0dbc
00000220: 7f39 dc3b 27d4 013a 80c1 7f3b eeef 443d
00000230: 8098 2c3c 8517 333c 2e3f 023c 91ea 8d3c
00000240: 4d76 2e3c 6b06 22bb 0134 cbbc 3aa5 df3c
00000250: b1b9 183d d13b b43c 5785 15bd 1e22 5b3b
00000260: e1d0 353c 2144 debc 8bac 79bd 2b13 0c3b
00000270: c6aa 3b3c 2e74 b33b 80ed a9bb a705 02bd
00000280: d658 a4bc ba1a 7fbc 6820 12bd ea7f e4bb
00000290: 0599 34bc c0ce 2bbd e056 94bc 339d 2abd
000002a0: cac4 1b3c da35 6abc 3287 383c 253c 063d
000002b0: bf75 f83c 2777 2d3c a454 133d 4cf1 99bc
000002c0: 249f 99bc 3e5d 833b aba9 5cbc ada5 05bc
000002d0: 42bd b9bc 339b 0cbd 41fb 153c 66c7 2a3c
000002e0: 287e 1d3d d966 99bc 61c7 073c 2148 e33b
000002f0: 4e0e f4bc 0a9c 0bbb 7322 0a3d 59fd b53c
00000300: c3b3 423b aa10 d53b fe49 093d 3104 253c
00000310: 395b bf3c 3d8b a63c a227 d93c dba9 6a3c
00000320: 3989 f6bc fae2 113b 41e1 553d 01ae 013d
00000330: 4e1b 05bd 835c 70bc 62b0 073d e3b8 fe3c
00000340: 49e4 62bc a30b 69bc b380 0dbc 5f1f f43c
00000350: 1a99 fa3b 56de 3abc a490 d03c c18e e83b
00000360: 169e 1a3d 379e c2bc b1ca 853c bf6d 7d3c
00000370: 76d7 ecbb 3b25 d3ba e85b a6bb 5ba9 333d
00000380: 27c6 6e3a d60a 5dbc 1dae 30bd 09e4 a4bd
00000390: 7ff8 9bbd a4ee 25bd 9ec0 dabc d274 a7bc
000003a0: 3670 8ebd ef4d 97bd 0c9e 70bd 09b9 cdbc
000003b0: 68d8 52bd 3b82 8ebd eadd 61bd 7c3b 19bd
000003c0: a379 50bd 509b 76bd de38 a2bd a9c0 d4bd
000003d0: 5b78 8fbd e252 cb3c f011 5b3d c8a0 fa3b
000003e0: 5c9c 4abd 8a83 84bc 0774 3fbc 26ca 543b
000003f0: bbbb 483c 1abb dabc 7b9b 92bc 508b 00bc
-0.020912742 -0.014977398 0.037650764 0.03295522 -0.039037656 -0.028626489 -0.010955881 0.02397856
-0.0014737037 -0.027305825 -0.010893422 0.04282216 -0.027322104 0.011319745 0.02531537 0.009381277
0.04702194 0.0063201347 0.014608444 0.0056447745 -0.0048203636 0.0077303993 0.0059129223 0.0028754524
0.03168508 -0.0057582883 0.024932165 0.009701306 -0.02634105 -0.034025136 -0.010287353 0.02518706
-0.018528016 -0.015917856 0.030319937 0.014012113 -0.0074051516 -0.015896954 -0.008708435 0.03240727
0.034620363 0.00992652 0.03508899 0.033174608 0.024156526 -0.012901406 -0.038507484 0.018925445
0.0022990545 -0.0030466192 -0.019122226 0.0027726342 0.03743898 0.011086273 -0.02756051 -0.022096645
0.02564301 0.02242981 0.000605602 0.002001269 -0.00495549 0.05699112 -0.010917815 -0.0092457915
0.015627597 0.0070390617 0.018428894 -0.024027448 0.030045686 0.036044165 -0.0066466476 -0.033109784
-0.026916444 0.03402254 -0.002863564 -0.016326448 -0.0017636667 0.03409357 0.013074887 -0.03071673
-0.020946259 0.027807018 0.014194031 -0.01808755 0.026670141 -0.04057684 0.006703757 -0.011480088
-0.021984065 0.020538725 -0.020603381 -0.032062937 -0.0022893897 0.021556443 0.010909481 0.021210385
-0.018750466 -0.014180853 -0.00013550377 -0.011819623 -0.035835944 -0.02528297 0.001359098 -0.031639494
-0.05529124 -0.025363239 -0.02605417 0.0048406995 -0.022844682 -0.054745153 -0.051953103 -0.043718122
-0.0140691325 -0.038230173 -0.04695367 -0.047061257 -0.008419748 -0.032752324 -0.04862038 -0.023718601
0.023346508 0.03795939 0.06366225 0.005082 0.04401958 -0.016084934 0.03531382 0.004883547
-0.008966732 -0.023193542 -0.008313753 0.020271571 -0.011722615 -0.012787313 0.0106722545 -0.0086555835
0.0067207213 0.00049525726 0.0039025247 0.048080377 0.010534406 0.0109309 0.0079496335 0.017323764
0.010648322 -0.0024723064 -0.02480507 0.027300466 0.037286464 0.022001179 -0.036504116 0.0033437083
0.011097164 -0.027132096 -0.060955565 0.002137373 0.01145429 0.005476496 -0.005185783 -0.03174367
-0.020061892 -0.015570337 -0.035675436 -0.0069732564 -0.011022811 -0.04194522 -0.018107831 -0.041653823
0.009507367 -0.014295066 0.011262702 0.032772202 0.030329583 0.01058749 0.03596939 -0.018791817
-0.018752642 0.004008918 -0.013468186 -0.008157176 -0.022673253 -0.034327697 0.009154142 0.010423517
0.03845039 -0.0187258 0.008287282 0.0069360887 -0.029791977 -0.0021302723 0.03372426 0.022215532
0.0029709197 0.0065022307 0.03351783 0.0100718 0.023358928 0.020330066 0.026508156 0.014322723
-0.03009473 0.0022260533 0.052216772 0.031660084 -0.032496743 -0.014670494 0.033127196 0.03109402
-0.013848373 -0.014223966 -0.008636641 0.029800115 0.0076476457 -0.011405548 0.025459595 0.0070970957
0.03774842 -0.023757083 0.016332002 0.01546806 -0.0072278334 -0.0016109118 -0.005076874 0.04386268
0.00091085065 -0.013491353 -0.043134797 -0.08051307 -0.07615756 -0.04051079 -0.026703175 -0.020441446
-0.06954996 -0.073879115 -0.058744475 -0.025112646 -0.051475912 -0.06958433 -0.055143274 -0.037410244
-0.05089725 -0.06020671 -0.07921003 -0.103883095 -0.07005378 0.024819795 0.053483903 0.007648561
-0.049465522 -0.016176004 -0.011685378 0.0032469123 0.01225179 -0.026700545 -0.017896404 -0.007845715

3.bias f4 [32]
00000000: a792 44bd a55b 0f3d b8d4 14bd 7f4c 7cbb
00000010: f85e e93b 39d4 de3c 24e8 b03a a023 543c
00000020: 6d19 2a3d 3f5e cebb 2be3 b3bc 1425 333c
00000030: 0e24 d0ba 61cd 86bc 7b03 c63c 1815 0f3c
00000040: c8e5 edbc da6e f83b 0af8 95bb 930a 11bc
00000050: 63dd 023c 8da2 5abc fe96 7dbb b191 c6bc
00000060: 087e 0dbd b769 2dbd 3b3e 37bc a67f 77bc
00000070: 2c92 2fbb 967c 03bd bd7d 23bd 42ef 23ba
-0.04799142 0.03499951 -0.036335677 -0.0038497744 0.007121917 0.027200805 0.0013496918 0.012947947
0.041528154 -0.006297856 -0.021958908 0.010934133 -0.0015879886 -0.016455354 0.024171581 0.0087330565
-0.029040232 0.007581574 -0.0045766877 -0.008852619 0.007987353 -0.013344419 -0.0038694735 -0.024239393
-0.03454402 -0.042337146 -0.0111842705 -0.015106117 -0.0026790006 -0.032101236 -0.039914835 -0.0006253609

7.weight f4 [10, 512]
00000000: bc82 b1bc 0704 6cbc ffb1 d03c 22f0 cd3c
00000010: fce0 143c 70cd 3ebc 9ac7 e13c 31ca debc
00000020: 0ae9 f63b f3b2 71bd 5401 d8bc 1a7c 3fbc
00000030: b256 b93d c75c 543d 8b20 d53c 9973 053d
00000040: 887c babd 1288 1f3c 557f 9539 96d3 1a3d
00000050: 67a3 d8bd 8096 d1bc ccb2 d8bc 7457 3fbb
00000060: b34b 90bd 9ea0 36be 10f4 cdbc 6d02 b9bc
00000070: 5f61 b63c c49f aebc f962 453c d79a b73c
00000080: ba4e 023d dbf7 ac3d d91a e33c ff67 d9bc
00000090: a7c5 e43c c749 dc3c cf47 16be 2568 a2bd
000000a0: 0ca7 e3bd 0bb9 85bd 7958 adbc e7ff 573d
000000b0: dc5b fabd 26e2 5dbd 5adc b0bc 1535 8d3d
000000c0: 5216 17bd e08f 9fbb e7bf 633c 4ffb 3b3d
000000d0: e2fc 3e3d 0518 6d3d ae2a 16bc d91f 113d
000000e0: 1653 8f3d dea3 cf3b ea04 ee3b 59c2 cabb
000000f0: 68c8 a73c 2ac1 e1bd ce4d 62be 7a95 28be
00000100: fd59 483d 12ce 873c 20ab 0a3c 37f6 d63c
00000110: e5b4 933c cd6c a6bc 01e4 82bd 93d5 c8bc
00000120: f393 acbd ffad 963b 15ff 38bc 7a19 4bbe
00000130: 6e15 2a3c 7371 7d3d e7d4 95bc fa63 c4bd
00000140: 0aed 24bb 2975 07bd 7f7c ccbb fbc4 0b3d
00000150: 3a59 eabc 7b39 debc 6133 c63d 3b16 2a3e
00000160: bfb8 97bc 96a9 0dbe eedf 743d 4a7f 1c3d
00000170: 7f4b c23d 4b39 18be 590a fabd d672 b8bd
00000180: fed4 45bd 47ee 76bb d8aa 903c bc31 3abd
00000190: 5c48 a2bd 2b48 e6bd 6186 21bd a632 953c
000001a0: 6c72 7fbd 6514 efbd c1bf 72bd 6b8f 36bc
000001b0: 6f11 46bd 829d 263d 8bc9 7c3d 7289 6e3d
000001c0: 675f 073d c726 943b 5e7e 4f3c 7fbe b13c
000001d0: d1a8 493d b5cc 533d 36a9 813c 3533 b9bc
000001e0: 5bbb 753c cd65 933d 7a99 41bd cc59 3bbd
000001f0: 1963 a43c cdb7 483d 66e7 3dbd 1d7a de3c
00000200: 381f f23b f750 273d a4d4 19bd 4323 56bd
00000210: 0508 673d 1b34 9d3c 62bf 1cbd fef8 583d
00000220: 0788 6b3b 0281 dbbc d9e8 f1bb 438e 6fbc
00000230: b2ac 573d a6f7 b1bd c1a0 f6bd 9505 dbbc
00000240: e3e8 cebc f23c 1d3d e955 82bd de0e edbc
00000250: bc1b 473b 2c51 8abd 49a4 6d3c 663b 22bd
00000260: b1bb 09bd a69a 5bbd b374 ebbc 022a dfbd
00000270: 740b debc 6436 2cbd 8700 a73c 05c9 833d
00000280: 3f9c 063d e220 1dbd 732c 40bd 4582 20be
00000290: 6853 bd3d 49ac 373d 79f2 1bbd a88c 833d
000002a0: 0d30 453d da86 8c3c cdcb 553d 0b49 633c
000002b0: 2849 5ebd 0072 00be 3470 85bc b0b5 003d
000002c0: fb8b d2bc f73f e33c 3170 6b3d 7c68 f23c
000002d0: c214 94bd f3fc c43a 6485 973b 1fd1 a13b
000002e0: 9de9 8abc 3546 1cbd 866b 79bd 2b9c f93c
000002f0: 32c6 a23d 6f2a db3c a9d3 65bd fa46 2e3d
00000300: d0b1 16bd 22a0 87bc 2af9 3abd 9ffa 96bd
00000310: 0962 563d d56a 093d 8b90 cfbc e92b 743d
00000320: 62ae 193d 8a8a e23b 169b 233d 0ae8 453d
00000330: 7fab 573b eaea 29bc 28e2 84bc e38f 323a
00000340: b178 6ebd 26eb fcbc 73f1 8b3c 39fd 0e3d
00000350: 9c16 19bd 2b71 fdbc 8322 013d ac4f 913d
00000360: 42aa b03c 9397 3abd d8c4 e8bc 497a 363d
00000370: 9f06 c13c 7a1f 23bd eeb5 1f3c fd85 19bd
00000380: e1d4 d33d eec6 6c3d 7718 c83d ac7b 11bd
00000390: b2ce 61bd dea4 16bd efa8 acbd 3bd8 d0bd
000003a0: 3189 a3bd 48d0 dfbb ad2f 893c 62c3 20be
000003b0: 43fc 97bc eca3 5d3d cf28 63bc 1717 82bd
000003c0: 30c1 9abc d2e8 e83b 3308 4b3b d3ba aa3d
000003d0: caca 6fbb 77d8 c2bc d268 0a3d 7aef a13d
000003e0: 2858 f83c 842c 2dbd 45f9 4a3d d444 19bc
000003f0: 258b 963d cb92 d1bc 7bc4 48bd fd0e 3cbd
-0.021668784 -0.014405257 0.0254755 0.025138918 0.009086844 -0.01164566 0.027560998 -0.027196022
0.0075351046 -0.05900855 -0.02636782 -0.011687303 0.09049739 0.051846292 0.026016494 0.032580946
-0.09105784 0.0097370315 0.00028514364 0.03779944 -0.105780415 -0.02558446 -0.026452444 -0.0029196413
-0.070456885 -0.17834708 -0.025140792 -0.022584165 0.022263227 -0.021316417 0.012047523 0.0224127
0.03181336 0.08445712 0.027722763 -0.026538847 0.02792628 0.026890649 -0.1467583 -0.0793002
-0.11115846 -0.06529435 -0.021160351 0.052734282 -0.12224552 -0.05417075 -0.021589447 0.0689489
-0.03688652 -0.004869446 0.013900734 0.045893963 0.046627887 0.057884235 -0.009165449 0.035430763
0.06998269 0.006336673 0.0072637694 -0.006187719 0.020481303 -0.11023171 -0.22099993 -0.16463271
0.048913945 0.016577754 0.008463651 0.026240451 0.018030593 -0.020315552 -0.063911445 -0.024515903
-0.084266566 0.0045983787 -0.011291285 -0.19833937 0.010381086 0.06187577 -0.018289996 -0.095893815
-0.00251657 -0.033070717 -0.006240427 0.034123402 -0.028607 -0.027127018 0.096777685 0.16610043
-0.018520711 -0.13834223 0.05978387 0.03820733 0.09487056 -0.14865606 -0.12209005 -0.09006278
-0.04829883 -0.0037678645 0.01765959 -0.045457587 -0.07923958 -0.11244234 -0.039434794 0.018212628
-0.06236498 -0.11673812 -0.059264902 -0.011142592 -0.04835647 0.040677555 0.061715644 0.058236547
0.033049967 0.004521224 0.012664406 0.02169728 0.04923326 0.051708896 0.015827756 -0.022607425
0.014998282 0.07197151 -0.047265507 -0.045739934 0.020066785 0.04900341 -0.046363257 0.027157838
0.0073889755 0.0408487 -0.037556306 -0.052279722 0.056404132 0.019189885 -0.038268454 0.052971832
0.0035939233 -0.026794914 -0.007382494 -0.01462132 0.05265493 -0.08689813 -0.1204238 -0.02673606
-0.025257533 0.0383882 -0.06364042 -0.028937753 0.0030381521 -0.067537636 0.014504501 -0.039607428
-0.033626262 -0.05361428 -0.02874217 -0.10896684 -0.02710507 -0.04204406 0.020385994 0.06434826
0.03286385 -0.038361438 -0.04691739 -0.15674694 0.09244424 0.04484204 -0.038073037 0.064233124
0.048141528 0.017154146 0.052196313 0.013872395 -0.054268986 -0.12543488 -0.016288854 0.03142327
-0.025701514 0.027740462 0.05748004 0.029590838 -0.07230522 0.0015028998 0.0046240557 0.0049382593
-0.016957099 -0.038152892 -0.060893558 0.030469975 0.07947959 0.026753632 -0.056110058 0.042548157
-0.03679067 -0.01655585 -0.045647778 -0.07372021 0.052339587 0.03354915 -0.025337478 0.05961219
0.03751982 0.006913488 0.039942823 0.048316993 0.0032908616 -0.010370949 -0.016221121 0.0006811602
-0.05822057 -0.030873846 0.017082905 0.03490946 -0.037375078 -0.030937752 0.031527054 0.07095274
0.02156556 -0.04555471 -0.028414175 0.044550214 0.023562727 -0.03982494 0.009747965 -0.037481297
0.10343338 0.0578069 0.09770291 -0.035518333 -0.05512876 -0.036778323 -0.08430659 -0.10197493
-0.079851516 -0.006830249 0.016746366 -0.15699533 -0.018552905 0.054111406 -0.01386471 -0.0635206
-0.018890947 0.0071078325 0.003098023 0.08336415 -0.0036589378 -0.02378486 0.03379137 0.07907005
0.030315474 -0.04227878 0.04955413 -0.009354789 0.073507585 -0.025582692 -0.049015503 -0.04591273

7.bias f4 [10]
00000000: 720d aebc 8641 233c 2071 843c 1f3c debc
00000010: 50af ddbc 4e10 61bc 9036 2bbc e10e 0abd
00000020: 59f7 423c 6f73 d0bc
-0.021246646 0.0099643525 0.016167223 -0.027128277 -0.027061135 -0.0137367975 -0.01045002 -0.033705596
0.011899793 -0.025445668
