Moritz_folder/Notebooks/trained_weights/EMNIST/EMNIST_weights_seed=7.pth (torch_old, 127426 bytes, 6 tensors)

0.weight f4 [32, 1, 5, 5]
0	0x3cf42912	0.02980474
1	0xbda7b4be	-0.08188771
2	0x3d4d2835	0.050087173
3	0x3c8483c4	0.016176112
4	0xbe153264	-0.14570004
5	0x3cc3bda2	0.023894135
6	0xbda7fe69	-0.08202822
7	0x3c3ec109	0.011642703
8	0xbdafef50	-0.08590567
9	0x3d71eb1b	0.059062105
10	0x3e43bf3f	0.19115923
11	0x3cef1be1	0.029188098
12	0xbde21921	-0.11039949
13	0xbdfe7120	-0.12423921
14	0xbd30eb5c	-0.043193206
15	0x3d4953bd	0.049152125
16	0x3df16054	0.11785951
17	0xbdeb243e	-0.11481522
18	0x3e2aea84	0.16691023
19	0xbdfecab9	-0.1244101
20	0x3e373f50	0.17895246
21	0x3d203f77	0.039123025
22	0x3e1e2b1b	0.15446131
23	0x3e082113	0.13293867
24	0x3cd4947d	0.025949711
25	0x3d9b30a0	0.07577634
26	0x3e393a3d	0.18088622
27	0x3da14afd	0.07875631
28	0x3dd357c2	0.10319473
29	0xbe10c397	-0.14137112
30	0x3e443787	0.19161807
31	0x3de2a44e	0.11066495
32	0x3d547a5e	0.05187451
33	0x3ce42142	0.02784789
34	0x3d75722b	0.059923332
35	0x3e467100	0.19379044
36	0xbd3bbe94	-0.045836046
37	0xbdfbd239	-0.12295956
38	0xbca389aa	-0.019963104
39	0xbdb9723f	-0.09054994
40	0x3db696a7	0.089154534
41	0xbddcc770	-0.10780227
42	0xbdd781de	-0.10522817
43	0x3e39c2e1	0.18140747
44	0x3e267639	0.16256036
45	0x3c39cd79	0.011340492
46	0xbcf65b1b	-0.03007274
47	0xbafec9e1	-0.0019438827
48	0x3dea7fed	0.11450181
49	0xbe2db056	-0.16961798
50	0xbe090c33	-0.1338356
51	0x3e93a0c6	0.28833598
52	0x3eb4152f	0.35172412
53	0x3d8480f2	0.06469907
54	0xbe509c37	-0.20372091
55	0xbe323d82	-0.17406276
56	0xbd8b812f	-0.06811749
57	0x3e3433f9	0.17597951
58	0x3e8513f8	0.25991797
59	0x3e1b2c9c	0.15153736
60	0xbe8c2183	-0.27369317
61	0xbdad2a45	-0.08455328
62	0x3e376c3e	0.17912385
63	0x3d6f7407	0.05846026
64	0x3dbd83fc	0.0925369
65	0xbe4b8b08	-0.19877255
66	0xbe742ebb	-0.23845951
67	0xbd6ef408	-0.058338195
68	0x3e3083cd	0.17237778
69	0x3e749c73	0.23887806
70	0xbe162976	-0.14664254
71	0xbe78cbe9	-0.24296536
72	0x3a972346	0.0011530898
73	0xbd80bcec	-0.06286034
74	0x3db4d3e8	0.088294804
75	0x3e4ac4c0	0.19801617
76	0x3d482a09	0.048868213
77	0xbcbc108e	-0.022957113
78	0xb9bda91f	-0.00036174894
79	0xbdafc6c0	-0.085828304
80	0x3e514e96	0.20440134
81	0xbda14ef0	-0.07876384
82	0xbc6dcde5	-0.014514421
83	0xbcfc8cb8	-0.030828819
84	0xbdcc614d	-0.09979496
85	0xbcca64df	-0.024706302
86	0x3e3b2f2b	0.18279712
87	0x3e4b5f0b	0.19860475
88	0x3d78384d	0.060600568
89	0x3dfeef57	0.12447994
90	0xbe4555ab	-0.19270961
91	0xbdba2b54	-0.090902954
92	0x3e2cf18e	0.16889021
93	0x3d42d52a	0.04756657
94	0xbe419394	-0.18903953
95	0xbe649515	-0.22322495
96	0xbe108568	-0.1411339
97	0x3e4104e3	0.1884952
98	0x3df7c379	0.1209783
99	0x3de34f75	0.110991396
100	0xbc340056	-0.010986408
101	0xbc45b541	-0.01206714
102	0xbc2592ee	-0.010105832
103	0xbc0130ea	-0.007885197
104	0xbbfac827	-0.0076532545
105	0xbc464db6	-0.012103489
106	0xbc704930	-0.014665887
107	0xbc69438e	-0.014237298
108	0xbc54084d	-0.012941432
109	0xbc57b262	-0.013165088
110	0xbc5b6698	-0.0133911595
111	0xbc87a0a0	-0.016556084
112	0xbc810ef2	-0.015754197
113	0xbc61dc45	-0.0137854265
114	0xbc593763	-0.013257834
115	0xbc8c45ee	-0.017123189
116	0xbc8e39ce	-0.017361548
117	0xbc8a5d0c	-0.016890071
118	0xbc55dd76	-0.013053289
119	0xbc2424a3	-0.0100185005
120	0xbc575022	-0.013141664
121	0xbc71e93a	-0.014765078
122	0xbc6db0e4	-0.014507506
123	0xbc1a5846	-0.00942046
124	0xbb9ec7f5	-0.004845614
125	0xbd868e97	-0.065701656
126	0xbe8502bf	-0.25978658
127	0xbdf7d4e7	-0.12101155
128	0x3e43fe6a	0.1914002
129	0x3e5b314d	0.21405526
130	0xbe703731	-0.23458554
131	0xbe55f31b	-0.20893519
132	0xbdfd201e	-0.123596415
133	0x3e807cc7	0.25095198
134	0x3e9280eb	0.28613982
135	0xbe198d4f	-0.14995311
136	0xbe56177f	-0.209074
137	0x3e49e37d	0.19715686
138	0x3e9c94e3	0.30582342
139	0x3cfbf130	0.030754656
140	0xbe3585eb	-0.17726867
141	0x3d567e11	0.05236632
142	0x3e0d13a4	0.13777024
143	0x3d44d3e3	0.048053633
144	0xbe0f2bd7	-0.13981567
145	0xbe2e0f7f	-0.16998099
146	0x3d7e049b	0.06201611
147	0x3da00761	0.078139074
148	0x3e482625	0.19545801
149	0x3c1bb612	0.009503858
150	0xbe0c4ad7	-0.13700424
151	0xbe9df7dc	-0.30853164
152	0xbe015324	-0.12629372
153	0x3e684dc6	0.22685918
154	0x3ea556c4	0.3229276
155	0xbe3e2df9	-0.18572225
156	0xbe9bd758	-0.30437732
157	0x3e036d96	0.12834772
158	0x3e9e72f5	0.3094708
159	0x3cf5f777	0.030025227
160	0xbe496069	-0.19665684
161	0xbd879a11	-0.06621183
162	0x3bdea47a	0.0067945095
163	0x3c3f9ca8	0.011695065
164	0x3e6e0328	0.23243392
165	0xbe87a074	-0.26489604
166	0xbdbbc372	-0.091681376
167	0x3b2bc42d	0.002620946
168	0x3e920791	0.28521398
169	0x3e130a90	0.14359498
170	0xbd1e7a5a	-0.038690902
171	0xbe1372f3	-0.14399318
172	0x3e7b9af9	0.24570836
173	0x3e090cda	0.13383809
174	0xbcc5b8d2	-0.02413598
175	0xbd2a8cc4	-0.04163815
176	0xbe191952	-0.14951065
177	0xbba1f2af	-0.00494226
178	0x3e14207e	0.1446552
179	0xbcb8551a	-0.022501517
180	0x3e19fbcf	0.15037464
181	0x3d91381e	0.07090782
182	0x3d1db515	0.03850277
183	0x3e080f2e	0.1328704
184	0x3b5801a8	0.0032959972
185	0x3b5290f0	0.0032129847
186	0xbd31d6ae	-0.043417625
187	0x3e49f668	0.19722903
188	0x3e351860	0.1768508
189	0x3d64adf2	0.05582995
190	0x3e290632	0.1650627
191	0x3e87f56d	0.26554433
192	0x3e7950ec	0.24347275
193	0xbe0170f5	-0.12640746
194	0xbc434cb2	-0.011920141
195	0x3d2e4fdd	0.042556632
196	0x3e023299	0.12714614
197	0xbb18a1d9	-0.0023289828
198	0xba4a7900	-0.0007723719
199	0xbe6db6f6	-0.23214325
200	0x3e367668	0.17818606
201	0x3e78800b	0.24267595
202	0xbc2a37e8	-0.010389306
203	0xbe1249fc	-0.14286035
204	0xbe2e9f3b	-0.17052929
205	0x3d553a5d	0.052057613
206	0x3db5fa6a	0.08885653
207	0x3daf168a	0.08549221
208	0x3da21c7b	0.079155885
209	0x3e17fa2c	0.14841527
210	0xbc1ef6e8	-0.009702422
211	0x3dc5e427	0.09662657
212	0xbc5eb26c	-0.013592344
213	0x3e82138d	0.2540554
214	0x3dfc11f4	0.12308112
215	0xbd1d61f1	-0.038423482
216	0x3df8d271	0.121495135
217	0x3dbcd68e	0.092206106
218	0x3da0a84f	0.07844602
219	0xbc445749	-0.011983701
220	0xbc2b586c	-0.010458093
221	0xbbec1d1d	-0.007205619
222	0xbdd3f2b1	-0.10349024
223	0x3c4552d1	0.012043671
224	0x3d3e7d50	0.046506226
225	0xbd9f53fc	-0.077796906
226	0x3d5d926f	0.054094728
227	0xbba3a556	-0.004994075
228	0xbdd7e2cf	-0.10541307
229	0xbde88da1	-0.113551386
230	0xbda4af14	-0.08041206
231	0x3e02dbc6	0.1277915
232	0x3e830118	0.25586772
233	0x3e9e1c71	0.30881074
234	0x3e8b7ae4	0.27242196
235	0x3da97423	0.082741044
236	0x3de22d45	0.11043791
237	0x3d49da82	0.04928065
238	0x3e841fa1	0.2580538
239	0x3d5636ec	0.05229847
240	0xbdeaecef	-0.11470973
241	0xbe2e255f	-0.17006443
242	0xbe6ab38e	-0.22920057
243	0xbe417b71	-0.18894745
244	0xbc9f34db	-0.019434383
245	0x3c2c2d50	0.01050885
246	0xbe8585f6	-0.26078767
247	0xbeb312e1	-0.3497534
248	0xbe2ff064	-0.17181545
249	0x3df8eeb2	0.121549025
250	0x3d880d66	0.066431805
251	0x3de93ba3	0.11388328
252	0x3dd2fcbc	0.103021115
253	0x3e3cd243	0.18439583
254	0xbe4b71c5	-0.19867618
255	0x3e1fb9b7	0.15598188

0.bias f4 [32]
0	0xbc922899	-0.017841624
1	0xbc43da84	-0.011953954
2	0xbe296ee8	-0.16546214
3	0xbca323d6	-0.019914549
4	0xbcb5e33e	-0.022203084
5	0xbb089592	-0.0020841104
6	0xb94f59d0	-0.00019774516
7	0xbd75deed	-0.06002705
8	0xbdae3db3	-0.08507862
9	0x3def8605	0.11695484
10	0xbb58b39e	-0.0033066045
11	0x3e20b56c	0.15694207
12	0x3e1efd1f	0.15526246
13	0x3d7f0129	0.062256966
14	0xb932caf0	-0.00017051003
15	0xbe0e289a	-0.13882676
16	0xbbc5208d	-0.0060158432
17	0x3b297457	0.0025856697
18	0xbcde6ba5	-0.027150938
19	0x3cb79651	0.022410544
20	0x3e37d988	0.17954075
21	0xbcc7fa4c	-0.024411343
22	0x3d41738a	0.047229327
23	0x3e848b22	0.258874
24	0xbd080200	-0.033205032
25	0xbcb58504	-0.022158153
26	0x3e9a9a9f	0.30196092
27	0xbdb40188	-0.087893546
28	0x3db3eea6	0.08785753
29	0xbd9b1387	-0.07572084
30	0xbc81803f	-0.015808223
31	0x3c8a1048	0.016853467

3.weight f4 [32, 32, 5, 5]
0	0xbc82e1af	-0.015976755
1	0xbd5f99cf	-0.054590043
2	0xbcead2e7	-0.02866502
3	0x3c6c64ca	0.014428327
4	0x3cdbb5a2	0.026820008
5	0xbca3d209	-0.019997614
6	0xbd116fb7	-0.03550693
7	0xbd1a5534	-0.037678912
8	0x3cddc257	0.027070208
9	0x3d61b498	0.05510387
10	0xbc630a04	-0.013857368
11	0xbd086a9c	-0.033304796
12	0xbd0a4bdb	-0.033763748
13	0x3d25ebe5	0.04050817
14	0x3d625cc9	0.055264268
15	0xbd2d1ded	-0.042264868
16	0xbd59ddbd	-0.05318998
17	0xbd00c790	-0.031440318
18	0x3d142de3	0.036176573
19	0x3c9d1282	0.019173864
20	0xbbac4410	-0.005257137
21	0xbbd782de	-0.00657688
22	0xbcb4b88e	-0.022060659
23	0x3c397d15	0.011321326
24	0x3c2553b9	0.010090762
25	0xbdbeb5fa	-0.09312053
26	0xbdb3350f	-0.087503545
27	0xbd464aa4	-0.048411027
28	0x3c55a91f	0.01304081
29	0x3d833e5f	0.06408381
30	0xbd5284a3	-0.051396023
31	0xbd71f6de	-0.05907332
32	0xbc72f38a	-0.014828572
33	0x3d079cbe	0.033108465
34	0x3d651104	0.05592443
35	0xbd239a71	-0.03994221
36	0xbd255402	-0.04036332
37	0xbd0d8e07	-0.034559276
38	0x3d4a9183	0.049455177
39	0x3d90bf2b	0.070677124
40	0xbd436e3b	-0.047712546
41	0xbd8c413a	-0.068483785
42	0xbd47db5b	-0.048793178
43	0x3b316f2d	0.0027074323
44	0x3d62e23a	0.055391528
45	0xbd7baa02	-0.06144143
46	0xbd86d38f	-0.0658332
47	0xbcab7977	-0.020931942
48	0x3c95bf5f	0.01827973
49	0x3d210818	0.03931436
50	0xbd2c8521	-0.04211915
51	0xbce48e3e	-0.027899858
52	0x3c11512a	0.008869449
53	0x3c46fb22	0.012144836
54	0xbc146ad8	-0.009058677
55	0xbd217498	-0.039417833
56	0xbbca1671	-0.006167226
57	0x3cc6c9c6	0.024266135
58	0x3c1e4e93	0.009662288
59	0xbcc55316	-0.02408747
60	0xbd2b7749	-0.041861806
61	0x3c2a2bd8	0.01038643
62	0x3dcab23e	0.09897278
63	0x3ce61773	0.028087353
64	0x3b5575b8	0.0032571387
65	0xbd59daa0	-0.053187013
66	0x3c8e3e2f	0.017363636
67	0x3df4051c	0.11915037
68	0x3dd6b503	0.10483744
69	0x3d0290fb	0.031876545
70	0xbdb9b33c	-0.09067389
71	0xbc391abf	-0.011297881
72	0x3dadc534	0.08484879
73	0x3dec8765	0.11549262
74	0x3c9ca368	0.019120887
75	0xbd9e8536	-0.07740252
76	0xbd47c4fc	-0.048771843
77	0x3c80aeee	0.015708413
78	0x3cdc4cc2	0.02689207
79	0x3d4159aa	0.04720465
80	0xbd6cd292	-0.057818003
81	0xbd3530f3	-0.044236135
82	0x3bd1c398	0.0064014904
83	0xba1f9553	-0.00060876197
84	0x3c97759d	0.0184887
85	0xbcaad342	-0.020852689
86	0xbd10fe54	-0.035398796
87	0x3cc5c1a6	0.02414019
88	0x3cd5bb7c	0.026090376
89	0x3d458e30	0.048231304
90	0xbd0daeba	-0.03459046
91	0xbce68054	-0.028137363
92	0x3c45029b	0.012024547
93	0x3c81dec1	0.015853288
94	0x3d703780	0.05864668
95	0xbd3d7ee0	-0.046263576
96	0xbd100ae6	-0.035166644
97	0xbd10ee39	-0.035383437
98	0x3d1ed5f1	0.03877825
99	0x3d326560	0.04355371
100	0x30909427	1.0519486e-09
101	0xb4e253a9	-4.215665e-07
102	0xb7827bde	-1.5554888e-05
103	0x361c40ac	2.3283455e-06
104	0x3652d182	3.1414388e-06
105	0x329a6a43	1.7976282e-08
106	0xb41aee55	-1.4429072e-07
107	0x36225a75	2.4192534e-06
108	0x37c3ee48	2.335677e-05
109	0x3684cbe3	3.957642e-06
110	0x3372dc80	5.654556e-08
111	0x36024cc2	1.9416188e-06
112	0x3822cd0a	3.8814767e-05
113	0x38711a6c	5.7483485e-05
114	0x3715af29	8.921875e-06
115	0x33c58280	9.197265e-08
116	0x37000a67	7.6318165e-06
117	0x38afb988	8.379208e-05
118	0x38d9487f	0.0001036087
119	0x37864687	1.6006887e-05
120	0x363e8aee	2.8393074e-06
121	0x380db2f0	3.378367e-05
122	0x38c0ff89	9.2028706e-05
123	0x38da0b6d	0.00010397178
124	0x383b54c7	4.466323e-05
125	0xbd4c99de	-0.049951427
126	0x3cb424eb	0.02199026
127	0x3d99605b	0.074890815
128	0x3df62f0f	0.120206945
129	0x3dcce302	0.10004236
130	0xbd61e03a	-0.05514548
131	0xbc39f671	-0.01135026
132	0x3dc694cb	0.09696349
133	0x3df8c5e5	0.121471204
134	0x3d4955e9	0.049154196
135	0xbdc3a920	-0.095537424
136	0x3bcc1a7c	0.006228743
137	0x3decc14a	0.115603045
138	0x3dd4179d	0.103560664
139	0xbbfd3819	-0.0077276346
140	0xbdef5863	-0.1168678
141	0xbc764b69	-0.015032628
142	0x3da15aa8	0.078786194
143	0x3ce69d64	0.028151222
144	0xbc958ba8	-0.01825507
145	0xbdb3216c	-0.08746609
146	0xba9d2181	-0.0011988134
147	0x3da7bcc0	0.08190298
148	0x3cc689e7	0.024235679
149	0xbcfab4c5	-0.030603776
150	0xbcea6c5b	-0.028616121
151	0x3cb74c02	0.02237511
152	0x3db985ee	0.09058748
153	0x3dc09a96	0.09404485
154	0x3d9ecc82	0.077538505
155	0xbd9e50d9	-0.07730264
156	0x3c6543d7	0.013993225
157	0x3e0ae128	0.13562453
158	0x3de00a18	0.10939425
159	0x3d16bcc6	0.036801122
160	0xbdc8332b	-0.097753845
161	0x3cf1dbd8	0.029523775
162	0x3e07ba57	0.13254677
163	0x3d8eef5f	0.0697925
164	0xbccf7127	-0.02532251
165	0xbddf44ec	-0.10901818
166	0x3d31acbf	0.043377634
167	0x3e0667c1	0.13125516
168	0x3d8b72ab	0.068089806
169	0xbd042754	-0.03226407
170	0xbda2ec99	-0.07955284
171	0x3ce3457c	0.027743094
172	0x3dc1bc12	0.094597
173	0x3d6a919d	0.057267774
174	0xbd86e474	-0.06586543
175	0xbd9db01a	-0.07699604
176	0xbddd12b0	-0.1079458
177	0xbd2e2659	-0.04251704
178	0x3d0f6730	0.035010517
179	0x3d8f4d3e	0.06997155
180	0xbd8043b2	-0.06262912
181	0xbdc712f4	-0.09720412
182	0xbd362f9a	-0.04447899
183	0x3d932519	0.0718481
184	0x3d4e5540	0.05037427
185	0xbd6eee72	-0.058332868
186	0xbd697bec	-0.057002947
187	0xbd1c5b42	-0.038172968
188	0x3d2951cd	0.041337777
189	0x3d2712be	0.04078936
190	0xbd8dfc53	-0.06932893
191	0xbd78714d	-0.060654927
192	0xbc76fe94	-0.015075345
193	0x3cc6306c	0.024193011
194	0x3d6652a0	0.05623114
195	0xbd3b3be3	-0.04571141
196	0xbd3146c1	-0.043280367
197	0xbc8c0b65	-0.017095277
198	0x3b8c4658	0.0042808466
199	0x3d008c71	0.031383935
200	0xbdc5a7db	-0.096511565
201	0xbd9bc962	-0.0760677
202	0xbd5a21ca	-0.05325488
203	0x3cda6407	0.026659025
204	0x3d2a440f	0.041568812
205	0xbd8373da	-0.06418581
206	0xbd323cab	-0.04351489
207	0xbd03d327	-0.032183792
208	0x3d16cad8	0.03681454
209	0x3d9236ad	0.07139335
210	0xbd0004ed	-0.031254698
211	0xbd6d6839	-0.057960723
212	0xbad3ac12	-0.0016149303
213	0x3d0cbf8c	0.03436236
214	0x3d20be4c	0.03924398
215	0xbd9b3d53	-0.07580056
216	0xbd9746a5	-0.07386521
217	0x3ce5a7dd	0.028034145
218	0x3d6a5576	0.05721041
219	0x3d027497	0.03184947
220	0xbd8f06b7	-0.06983703
221	0xbd90ee87	-0.070767455
222	0xbd019351	-0.031634632
223	0x3d20f20a	0.039293326
224	0x3c625683	0.013814571
225	0xbcdeffea	-0.027221639
226	0xbc8888c7	-0.016666783
227	0xbbe28beb	-0.006913652
228	0xbd0b84c7	-0.034062173
229	0xbceaa7a1	-0.028644385
230	0x3a5ca852	0.00084174157
231	0xbbe673e4	-0.007032858
232	0xbd55d999	-0.05220947
233	0xbd1a843a	-0.037723757
234	0xbd87d20f	-0.06631862
235	0xbd315697	-0.04329547
236	0x3c7a06c0	0.015260398
237	0xbc24db46	-0.0100620445
238	0xbd0e79d8	-0.034784168
239	0xbd917198	-0.071017444
240	0xbcca9cba	-0.024732936
241	0x3cf96063	0.030441469
242	0x3cfd5be0	0.030927598
243	0x3c8ac537	0.016939742
244	0xbb893864	-0.0041876305
245	0xbd31d573	-0.04341645
246	0xbc26f4ca	-0.010190198
247	0x3c28258c	0.010262858
248	0x3ce661b9	0.02812277
249	0xbd238718	-0.039923757
250	0xbd6b6cb7	-0.057476725
251	0xbd5a3220	-0.05327046
252	0xbd1cab83	-0.038249504
253	0xbd3092b8	-0.043108672
254	0x3d748519	0.059697244
255	0xbc6998ad	-0.014257592

3.bias f4 [32]
0	0xbc63569e	-0.013875632
1	0xbcf8754a	-0.030329365
2	0xbd2b3322	-0.04179681
3	0x3c64e674	0.01397096
4	0x3b901c2d	0.00439789
5	0x3ca33b68	0.019925788
6	0xbc57fdaa	-0.013183037
7	0xbd189c96	-0.037258707
8	0x3c7cb058	0.015422903
9	0xba202499	-0.0006108969
10	0xb7803433	-1.5283096e-05
11	0xbcdc4322	-0.02688748
12	0xbc956be5	-0.018239925
13	0xbc39e9db	-0.011347259
14	0xbd41df99	-0.04733238
15	0x3bacd23d	0.005274086
16	0xbd3043a0	-0.043033242
17	0x3cb7d00f	0.022438077
18	0x3d560129	0.0522472
19	0xbce0030c	-0.027345203
20	0xbca08077	-0.019592507
21	0xbd03d828	-0.032188565
22	0xbc962cd2	-0.018331919
23	0x3daea5b0	0.08527696
24	0xbd2f6d9c	-0.04282914
25	0xbcdaddaf	-0.026717035
26	0xbd2630cf	-0.04057389
27	0xb40eaa61	-1.3286764e-07
28	0xbcc7f81e	-0.024410304
29	0xbd59a4a4	-0.05313553
30	0xbc8ef07b	-0.017448654
31	0xbb3a8fa5	-0.0028466966

7.weight f4 [10, 512]
0	0x3dcc8130	0.09985578
1	0x3d9c8b4b	0.076437555
2	0xbdef83fb	-0.11695095
3	0xbdc52466	-0.09626083
4	0x3dd3d6a3	0.10343673
5	0x3d2e5e4b	0.042570394
6	0xbdb4af0c	-0.0882245
7	0x3c04736f	0.008084162
8	0x3db86c3b	0.09005018
9	0xbc5be936	-0.013422301
10	0xbc9feadd	-0.019521171
11	0x3cc28aa3	0.023747748
12	0x3b8b826f	0.0042574923
13	0xbe01dee2	-0.1268268
14	0xbd360687	-0.04443982
15	0x3da68711	0.081312306
16	0x3d9083eb	0.07056411
17	0x3c0004eb	0.007813673
18	0xbca5e41a	-0.020250369
19	0x3cf64a06	0.030064594
20	0x3d5897c6	0.052879117
21	0xbd064411	-0.032779757
22	0xbd0ff0de	-0.03514182
23	0xbc2d8da0	-0.010592848
24	0x3d1a7d0b	0.037716907
25	0xbd1312a0	-0.035906434
26	0xbd469cb3	-0.048489284
27	0x3ae04725	0.0017111046
28	0x3d6116dc	0.05495344
29	0xbcfd7b7c	-0.030942671
30	0xbdd812d9	-0.1055047
31	0x3c948fef	0.01813504
32	0xbd06b4c8	-0.03288725
33	0xbc5a3028	-0.013317145
34	0xbd3f329d	-0.046679128
35	0x3d087afb	0.03332041
36	0xb9edeeb4	-0.0004538201
37	0xbcd504f1	-0.026003333
38	0xbd4e4bdf	-0.050365325
39	0xbc29fb73	-0.010374892
40	0xbd5aea69	-0.053446207
41	0x3bb58a79	0.005540189
42	0xbc2f1681	-0.010686518
43	0x3d2c7739	0.042105887
44	0xbc6cee29	-0.014461079
45	0x3cfdb220	0.030968726
46	0x3d15fa13	0.036615442
47	0x3d26a684	0.040686145
48	0xbc9b289f	-0.018940268
49	0x3d8141e8	0.06311399
50	0x3daa0f0a	0.0830365
51	0x3d8d2d68	0.06893426
52	0xbd7341c8	-0.059388906
53	0x3d686f3b	0.056746703
54	0x3d0e0c89	0.034679923
55	0xbd4060f0	-0.046967447
56	0xbb83b97b	-0.0040199137
57	0x3d073cd1	0.033016983
58	0xbd956dd1	-0.072963364
59	0xbc62df47	-0.013847179
60	0xbc7c5bb6	-0.015402725
61	0x3c09c9f6	0.008409968
62	0xbbdb2e99	-0.0066889045
63	0x3d2d3dc7	0.042295244
64	0xbc5696b7	-0.013097457
65	0xbd6a0347	-0.05713203
66	0x3c249204	0.010044578
67	0x3d1f000f	0.038818415
68	0x3c8f06a1	0.017459216
69	0xbd81de0f	-0.063411824
70	0x3cb7ebfd	0.022451395
71	0x3d6b1d40	0.05740094
72	0x3c1f95a7	0.00974027
73	0x3c8f31a5	0.017479727
74	0xbc9b35ef	-0.018946616
75	0x3aea0081	0.0017852933
76	0x3c90e01d	0.01768499
77	0xbce95da1	-0.028487029
78	0xbe4882c9	-0.1958114
79	0xbd7560f4	-0.059906915
80	0xbcb757a0	-0.02238065
81	0x3c30df36	0.010795405
82	0xbd29e20e	-0.04147535
83	0xbd433824	-0.04766096
84	0xbc4dfa45	-0.012571876
85	0xbbead214	-0.0071661565
86	0xbd222836	-0.03958913
87	0xbd176a2b	-0.036966484
88	0xbdc0d6fb	-0.09416004
89	0xbd45ef81	-0.04832411
90	0x3d55d45e	0.052204482
91	0xbd09e9b8	-0.033670157
92	0xbd3f37fd	-0.046684254
93	0x3d5ba870	0.05362743
94	0x3d11c6c5	0.035589952
95	0x3b1e5f1e	0.002416558
96	0xbd1374cf	-0.03600007
97	0xbd8fa6ed	-0.070142604
98	0xbdb2983e	-0.08720444
99	0xbd614e3b	-0.055006247
100	0x3bcd6dff	0.006269216
101	0xbc56d4a3	-0.01311222
102	0xbd9fd0eb	-0.0780352
103	0x3c88e904	0.016712673
104	0xbc9b01b6	-0.018921714
105	0xbd344332	-0.044009395
106	0xbd883a6f	-0.0665177
107	0x3cd05fe8	0.025436357
108	0xbd01c2f9	-0.03168008
109	0xbd6ac4d2	-0.05731661
110	0x3cd73f7a	0.026275385
111	0x3d89440e	0.067024335
112	0xbdb08a54	-0.08620134
113	0xbe2ffb9c	-0.17185825
114	0xbe24103f	-0.16021822
115	0x3cae0f86	0.021247637
116	0xbd5e9305	-0.054339428
117	0xbdbd09b4	-0.09230366
118	0xbd61d1a9	-0.055131588
119	0xbd31cc8c	-0.04340796
120	0x3d2c1af2	0.042017885
121	0xbc3dfe94	-0.011596341
122	0xbd57fe0c	-0.052732512
123	0xbc1b9e05	-0.009498124
124	0x3da5911a	0.080843166
125	0x3dd40d0f	0.10354053
126	0x3e0d92ee	0.1382558
127	0x3db643dd	0.08899663
128	0x3ba6d0ed	0.005090824
129	0x3d55161a	0.05202303
130	0x3cdb07d3	0.02673713
131	0x3cb8b9e0	0.02254957
132	0xbcc25b62	-0.023725215
133	0xbcd59667	-0.026072694
134	0xbd86f4af	-0.065896384
135	0xbced9f20	-0.02900654
136	0xbd41bc31	-0.047298614
137	0xbda6e56d	-0.08149228
138	0x3cf28109	0.029602544
139	0x3ca420aa	0.020035107
140	0x3cec33c9	0.028833287
141	0x3da64373	0.08118334
142	0x3d239f21	0.03994668
143	0xbb959a68	-0.004565526
144	0xb901542b	-0.00012333754
145	0xb91d19bc	-0.00014982274
146	0xb88c5f8a	-6.693516e-05
147	0x38037229	3.1339154e-05
148	0xb99badca	-0.00029693387
149	0xb9dc51fb	-0.0004202275
150	0xb944cf89	-0.0001876933
151	0x39cc5dc8	0.00038979785
152	0xb9b6fa3d	-0.00034900187
153	0xba11059c	-0.0005532147
154	0xb99e39b9	-0.00030179115
155	0x39a2c15a	0.00031043106
156	0xb90a054f	-0.00013162683
157	0xb8b60772	-8.679823e-05
158	0xb7f02406	-2.8627004e-05
159	0x3821850f	3.850931e-05
160	0x80046fb2	-4.07411e-40
161	0x000b0bb4	1.014389e-39
162	0x0002aa24	2.44706e-40
163	0x0e782fdb	3.0591402e-30
164	0x03de2238	1.30558435e-36
165	0x80022c6f	-1.99611e-40
166	0x0e54f11c	2.6247107e-30
167	0x000d929d	1.246456e-39
168	0x826c0ff6	-1.7343122e-37
169	0x00028f3c	2.35054e-40
170	0x8003a8e4	-3.36093e-40
171	0x8006264e	-5.64754e-40
172	0x95184add	-3.0755212e-26
173	0xa75eb06f	-3.0904334e-15
174	0x2d2934f9	9.6183e-12
175	0xb0ab64a1	-1.2470488e-09
176	0xbdddcad7	-0.10829704
177	0xbd23daec	-0.040003702
178	0x3b94f97e	0.0045463433
179	0x3bcee07c	0.0063133817
180	0xbc918eb2	-0.017768238
181	0xbcc4b289	-0.024010913
182	0xbb9cbd29	-0.004783292
183	0x3d19f419	0.037586305
184	0x3d8f7da3	0.07006385
185	0x3d5f0fed	0.054458547
186	0xbca3b72e	-0.019984808
187	0xbd52f538	-0.05150339
188	0x3d9abe07	0.07555776
189	0x3cb20533	0.021730995
190	0xbd2d35ca	-0.042287625
191	0xbd295f0e	-0.041350417
192	0x3d886209	0.06659324
193	0x3d4c34a9	0.04985491
194	0xbdc43f29	-0.09582359
195	0xbdc2d641	-0.09513522
196	0x3d6d1529	0.057881508
197	0x3d580600	0.052740097
198	0xbdda5851	-0.10661376
199	0xbd093da9	-0.03350607
200	0x3caa8681	0.02081609
201	0xbca1d1e9	-0.019753413
202	0xbdc05d59	-0.09392805
203	0x3c90af80	0.01766181
204	0x3c9df620	0.0192824
205	0xbc20a361	-0.009804578
206	0xbe32e8b9	-0.17471589
207	0xbca600df	-0.020264087
208	0x3d81bedb	0.06335231
209	0x3d16e00c	0.03683476
210	0x3c1a2e87	0.009410507
211	0x3bbad27e	0.005701362
212	0xbd617de9	-0.055051718
213	0xbcf6c8ee	-0.030125108
214	0xbd68d961	-0.056847934
215	0x3d842eb2	0.06454219
216	0xbd156355	-0.036471684
217	0xbdee8659	-0.116467185
218	0x3c90a2a0	0.01765567
219	0x3ded72da	0.11594172
220	0xbd9fdd17	-0.078058414
221	0xbc9d94f7	-0.019236071
222	0x3d66cd8f	0.05634838
223	0x3d59008f	0.05297905
224	0xbabf64f0	-0.0014602225
225	0xbc971348	-0.018441811
226	0x3c08a081	0.008339048
227	0x3cf4db17	0.029889626
228	0x3d1b8a38	0.037973613
229	0xbd4d5e46	-0.050138734
230	0x3c9191ed	0.017769778
231	0x3d2242fe	0.03961467
232	0x3cc35dba	0.023848403
233	0x3d022265	0.031771082
234	0xbd11b497	-0.035572615
235	0x3dd1d0b5	0.10244886
236	0x3c9087b2	0.01764283
237	0x3d6cbf3e	0.05779957
238	0x3bfb7773	0.0076741516
239	0xbd8071f1	-0.062717326
240	0xbdb1e44b	-0.086861216
241	0x3d0310dd	0.031998504
242	0x3d6fa048	0.058502465
243	0x3d553989	0.052056823
244	0xbcb5e3cb	-0.022203347
245	0x3c640596	0.013917347
246	0xbb79ecde	-0.0038135569
247	0x3d1dd29f	0.038530942
248	0xbd298cfc	-0.04139422
249	0x3b3f86a6	0.0029224544
250	0xbd998deb	-0.07497772
251	0xbd4d4add	-0.050120223
252	0x3cc74011	0.024322541
253	0x3cbe650d	0.023241544
254	0x3c5bdc57	0.013419232
255	0xbd4f3c92	-0.050594874

7.bias f4 [10]
0	0xbc262fc2	-0.010143222
1	0x3db9b0a4	0.09066895
2	0xbd2311c2	-0.039811857
3	0xbbb34560	-0.0054709166
4	0xbd051db3	-0.032499027
5	0xbc2e86f2	-0.010652291
6	0xbc7dfc28	-0.015502013
7	0x3b2c9f7b	0.0026340175
8	0x3cb018e9	0.021496253
9	0xbc9df3d8	-0.019281313
