Moritz_folder/Notebooks/trained_weights/EMNIST/EMNIST_weights_seed=8.pth (torch_old, 127422 bytes, 6 tensors)

0.weight f4 [32, 1, 5, 5]
0.13225514 0.23377326 0.17721969 -0.17914148 -0.20257904 0.16979685 0.27204606 -0.11154245
-0.10653268 -0.3171622 0.28237614 0.20328277 -0.050595295 -0.23490633 -0.28434545 0.2681783
0.23162591 -0.055304673 -0.1354211 -0.21418764 0.0337819 0.14143887 -0.1031788 -0.07067161
-0.026044853 -0.14020805 -0.029400736 0.05265524 0.07038336 -0.10269146 -0.120083265 -0.0309355
-0.12214384 -0.07325245 -0.20047383 0.241132 0.06292404 0.10075241 -0.23132212 -0.14736824
0.2665625 0.22672947 0.08454231 -0.10697519 0.038799472 0.2587427 0.08605011 0.14471354
-0.056891035 0.0867405 0.13824348 0.22584207 0.1387974 0.16413195 -0.03235194 0.06460608
0.010106078 -0.05049196 -0.16784512 -0.17530261 -0.04347328 -0.15861961 -0.2169109 -0.15181923
-0.14478989 -0.2225525 -0.090788476 -0.058049034 -0.10412865 -0.10758685 -0.012049884 -0.09527424
-0.048359018 -0.08441099 -0.1398894 -0.12909447 -0.19952573 -0.17416938 -0.10986437 0.03774356
-0.09032063 -0.19172844 -0.041594513 -0.051435713 0.06477163 0.04776936 -0.088454 0.03714948
0.08321856 0.12640184 -0.046915952 0.204733 -0.019918723 0.20519647 0.02358492 0.15131424
0.21756473 0.03232752 -0.0028427048 0.102335244 -0.054607265 -0.025898034 -0.118339516 -0.26646537
-0.27512214 0.19835228 0.03378373 -0.1282526 -0.22186722 -0.26774237 0.20076099 -0.021446964
-0.0822631 -0.028591124 0.022625549 0.12129204 0.136259 0.28555962 0.28549564 0.22202507
0.06395015 0.22714862 0.11796399 0.2676719 0.18365757 -0.041557938 0.101705216 0.14265773
-0.12834346 -0.1824969 -0.009623729 0.15857452 0.030319499 -0.05554348 -0.18519883 0.02270245
0.15924552 0.07325498 0.02794729 -0.36274436 -0.071658775 0.25363016 0.15589547 -0.005951136
-0.21555585 -0.18529135 0.099745415 0.28277493 0.115964636 -0.2242374 -0.01710996 -0.033365007
0.07841738 -0.18639341 -0.035066325 0.05457876 0.054968104 -0.21412383 -0.16377205 -0.25735125
0.2629285 -0.061926 -0.20196864 -0.14885502 -0.16587645 0.3031356 0.2692412 0.03595689
-0.18264666 -0.0016332727 0.17172669 0.3578403 0.20105721 -0.1099504 -0.13241434 0.11206023
0.053480886 0.17775539 -0.09172905 0.020020237 0.16392122 0.18906656 0.116527714 -0.056030646
0.123343304 0.06733969 0.03720776 0.1748678 0.056279365 0.0018356431 -0.04447728 0.097855955
0.025191238 0.2029642 0.11613269 0.017716914 -0.13385133 0.117550895 0.20349962 0.09545666
-0.041847732 -0.06947896 -0.024799911 0.04459822 0.30593115 -0.22814181 -0.2508029 0.007381179
0.18904787 0.30859774 -0.3068959 -0.1251541 0.07564231 0.1974803 0.024406374 -0.32639512
-0.19265752 0.27688816 0.057221677 0.24776925 -0.15357417 0.09092188 -0.057391778 0.16290168
0.019537095 -0.0124024255 -0.085545346 0.020594869 -0.14927016 -0.15250948 0.1328761 0.015888073
0.101780236 0.16811343 0.20745514 0.2345394 0.20150466 0.1275396 0.24789687 0.22017816
0.014429609 0.026201606 0.065403156 -0.025752474 0.00870591 0.0741025 -0.16071984 0.00397455
-0.09975229 0.099413775 0.21847364 0.11949826 -0.21363181 -0.3066021 -0.30099684 -0.11836681
00000000: e46d 073e 4262 6f3e 1479 353e dd70 37be
00000010: e170 4fbe 3adf 2d3e 9f49 8b3e 5e70 e4bd
00000020: ce2d dabd 1563 a2be 9b93 903e 5c29 503e
00000030: 033d 4fbd 498b 70be ba95 91be ab4e 893e
00000040: 582f 6d3e 2787 62bd d4ab 0abe 0154 5bbe
00000050: e45e 0a3d 5ad5 103e 684f d3bd 47bc 90bd
00000060: 045c d5bc b392 0fbe d0d9 f0bc 05ad 573d
00000070: 2725 903d e64f d2bd 37ee f5bd 726c fdbc
00000080: 8d26 fabd 6105 96bd 0349 4dbe 4feb 763e
00000090: 52de 803d 4857 ce3d b5df 6cbe b3e7 16be
000000a0: e17a 883e c52b 683e 8524 ad3d cf15 dbbd
000000b0: 32ec 1e3d ec79 843e 0a3b b03d c92f 143e
000000c0: 9306 69bd 01a5 b13d b38f 0d3e 2543 673e
000000d0: e820 0e3e 3512 283e 7883 04bd 3150 843d
000000e0: f793 253c a8d0 4ebd 97df 2bbe 8782 33be
000000f0: 0a11 32bd 2e6d 22be e41d 5ebe 8076 1bbe
00000100: cd43 14be cde4 63be 4fef b9bd d3c4 6dbd
00000110: 6741 d5bd 7f56 dcbd e06c 45bc 241f c3bd
00000120: 1b14 46bd abdf acbd 2b3f 0fbe 5731 04be
00000130: 7950 4cbe 7559 32be 9200 e1bd fe98 1a3d
00000140: 06fa b8bd 7654 44be 025f 2abd 41ae 52bd
00000150: fda6 843d cea9 433d 5f27 b5bd 0e2a 183d
00000160: 7e6e aa3d 7c6f 013e f12a 40bd 87a5 513e
00000170: 972c a3bc 061f 523e 2a35 c13c 1ff2 1a3e
00000180: 4ac9 5e3e dd69 043d ac4c 3abb 2495 d13d
00000190: deab 5fbd 1d28 d4bc fd5b f2bd 266e 88be
000001a0: cfdc 8cbe dc1c 4b3e cf60 0a3d a654 03be
000001b0: 2931 63be 8715 89be 4a94 4d3e 8bb1 afbc
000001c0: 8e79 a8bd ef37 eabc 3759 b93c f667 f83d
000001d0: 7b87 0b3e df34 923e 7c2c 923e 8a5a 633e
000001e0: 4cf8 823d a699 683e 1b97 f13d 4b0c 893e
000001f0: bb10 3c3e a838 2abd d34a d03d de14 123e
00000200: 786c 03be 78e0 3abe d8ac 1dbc 5c61 223e
00000210: 9960 f83c 8f81 63bd c3a4 3dbe 7dfa b93c
00000220: 4211 233e b506 963d b7f1 e43c a1b9 b9be
00000230: d6c1 92bd d0db 813e 10a3 1f3e bf01 c3bb
00000240: acba 5cbe 04bd 3dbe 5347 cc3d e0c7 903e
00000250: de7e ed3d 7d9e 65be 302a 8cbc bfa9 08bd
00000260: 4b99 a03d eadd 3ebe b5a1 0fbd fa8d 5f3d
00000270: 3c26 613d 4743 5bbe dcb3 27be 8bc3 83be
00000280: 909e 863e 1ea6 7dbd ded0 4ebe 736d 18be
00000290: 84db 29be 9734 9b3e fcd9 893e 8847 133d
000002a0: ba07 3bbe 8a13 d6ba 1fd9 2f3e d836 b73e
000002b0: f1e1 4d3e ad2d e1bd a097 07be d57f e53d
000002c0: c60e 5b3d 8205 363e 71dc bbbd 7b01 a43c
000002d0: f7da 273e aa9a 413e 15a6 ee3d 6480 65bd
000002e0: 6a9b fc3d 64e9 893d 2a67 183d 8b10 333e
000002f0: 3185 663d f699 f03a cf2d 36bd b468 c83d
00000300: db5d ce3c d9d5 4f3e fad6 ed3d 1023 913c
00000310: 5310 09be 86be f03d 3462 503e c87e c33d
00000320: 8768 2bbd fc4a 8ebd 2f29 cbbc a0ac 363d
00000330: 02a3 9c3e 029e 69be 3d69 80be d1dd f13b
00000340: c495 413e 8600 9e3e 7621 9dbe 6528 00be
00000350: 5bea 9a3d 4738 4a3e e0ef c73c 431d a7be
00000360: 0348 45be 49c4 8d3e 4761 6a3d 39b7 7d3e
00000370: 8c42 1dbe 4035 ba3d a413 6bbd b3cf 263e
00000380: 420c a03c 8b33 4bbc 6632 afbd 92b6 a83c
00000390: 47da 18be 722b 1cbe ac10 083e b427 823c
000003a0: 2872 d03d ed25 2c3e 1f6f 543e 192b 703e
000003b0: 3d57 4e3e be99 023e add8 7d3e 6276 613e
000003c0: 2b6a 6c3c c0a4 d63c 17f2 853d daf6 d2bc
000003d0: 3ca3 0e3c 0dc3 973d be93 24be f13c 823b
000003e0: ee4a ccbd 7399 cb3d 8eb7 5f3e 81bb f43d
000003f0: 4cc2 5abe f3fa 9cbe 421c 9abe 4c6a f2bd

0.bias f4 [32]
0.09967552 -0.0067715608 0.23821418 -0.011615293 -0.15542029 -0.0017554299 0.02617694 -0.06546866
0.009475159 -0.074154176 0.2518644 0.1956028 -0.10307491 0.16890486 0.0014529533 -0.008861594
-0.011318582 0.23872052 0.0041884645 -0.08683107 0.19002213 -0.02388538 -0.007656996 -0.06019219
0.14929011 0.035084333 -0.008914869 -0.01856264 -0.01685548 -0.0009080352 0.052079506 0.2605691
00000000: ae22 cc3d f8e3 ddbb 6bee 733e 124e 3ebc
00000010: 7f26 1fbe 7416 e6ba 0671 d63c 6f14 86bd
00000020: b33d 1b3c 25de 97bd 5ff4 803e 1a4c 483e
00000030: f018 d3bd 65f5 2c3e 0671 be3a 3830 11bc
00000040: 9371 39bc 2773 743e 633f 893b 7dd4 b1bd
00000050: 2995 423e 46ab c3bc 8ae7 fabb 168c 76bd
00000060: 82df 183e 97b4 0f3d ac0f 12bc ad10 98bc
00000070: 8114 8abc 3609 6eba 5251 553d 5069 853e

3.weight f4 [32, 32, 5, 5]
-0.05266688 -0.021020463 0.040209085 0.034180727 -0.013562473 -0.05998475 0.018333351 0.029938707
0.02622987 -0.032229573 -0.04955523 0.042548735 0.038268663 0.04263915 -0.024134565 0.014875123
0.0434369 0.018462816 0.043451592 -0.029810723 0.05009412 0.042020183 0.029986994 -0.0007759232
-0.03608017 0.0024142736 0.0014641722 0.011632397 0.0088647315 -0.008347453 -0.036576066 -0.014130962
0.019745924 0.007373339 -0.016070988 -0.048668116 -0.008893894 0.018022232 -0.012403387 -0.040781118
-0.014393422 0.020212822 0.011391086 -0.011686844 -0.026528522 0.0013641864 -0.019088522 -0.0035718128
-0.0049948525 -0.0074338755 -0.029648254 -0.033607047 -0.002792839 -0.000121196994 -0.0097946655 -0.03374519
-0.024660703 0.018398914 -0.016802458 -0.0051675774 -0.02250632 -0.008467788 -0.008080972 -0.026423946
0.0075287083 -0.005080814 -0.00093789806 0.02051651 -0.00532356 0.02314305 0.011306938 0.026576806
0.009811025 -0.0138360355 -0.0036363255 0.017679416 0.012108991 -0.024588928 -0.019024055 -0.03419559
0.015702391 0.010720023 -0.03342601 -0.03745521 -0.022164376 0.016023215 0.012580523 -0.033991944
-0.039575495 -0.0530854 0.02835909 -0.010008817 -0.0410778 -0.024988621 -0.01725748 0.023689874
-0.0043930593 0.000120569006 -0.002313827 0.0074939993 -0.0019183217 -0.017079303 -0.005390301 0.017213851
0.020958835 0.00626691 -0.027652249 -0.0129217785 -0.000905765 0.00695948 -0.026370835 -0.057341173
-0.008121994 -0.0117052635 0.004855503 -0.065994345 -0.057872955 -0.033179123 0.0065427055 -0.010266863
-0.025853332 -0.03943467 0.006434517 0.016095776 -0.006774607 -0.006827639 0.031926397 0.074272655
0.022860438 -0.011991159 -0.011802898 0.045832332 0.066639915 0.0078050257 0.001416476 0.02829742
0.03545454 0.055556305 -0.0024600571 -0.006018943 0.0664479 0.018322196 0.027565785 0.0072191316
-0.012934253 0.08521426 0.040080648 0.03291786 0.0029255722 -0.020213364 0.01143376 0.0035657077
0.038423494 0.05678334 0.031237453 -0.03046833 0.005252888 0.011182988 0.049009264 -0.0024123408
-0.045360133 -0.007951221 0.0050997036 0.026009243 -0.038889144 -0.040313963 0.04327314 0.0031516098
0.024697663 -0.025996275 -0.010779105 0.043921527 0.012689375 0.019789614 -0.014253922 0.055545676
0.07396655 0.057870205 4.543188e-05 -0.048991058 0.055063218 0.067191616 0.01416621 0.00060751167
-0.025978455 0.045740426 0.044549074 0.028617455 -0.044815343 -0.023067864 0.013480389 -0.0077944663
0.0075269393 -0.022586867 -0.054868467 -2.5100177e-05 0.023878193 0.0015036683 -0.019491775 -0.06172883
0.0109594185 0.05451481 -0.035042897 -0.052884374 -0.05569644 -0.006525496 0.051735908 -0.022009207
-0.03711131 -0.045627814 0.001512701 0.009139151 -0.02167938 -0.04899916 -0.026623938 0.020544901
0.011391203 -0.0058874697 -0.04158003 -0.03542111 0.0085836295 -0.0013941767 0.0172563 -0.024535162
-0.040923253 0.036575254 0.019314026 0.03324513 0.0028109262 -0.02043366 0.027598487 0.04470379
-0.012232889 -0.00017942124 0.0034331651 0.010754972 0.03473449 0.004393756 -0.024309857 -0.043736324
-0.017615797 -0.000603326 -0.018429726 -0.017359627 -0.035610355 -0.006367929 -0.0027270303 -0.0030655202
-0.049077794 -0.02247581 -0.0797898 -0.07652212 -0.032527223 -0.023210704 -0.012154118 -0.0584
00000000: 3ab9 57bd 1b33 acbc 48b2 243d 1701 0c3d
00000010: 2235 5ebc 92b2 75bd d32f 963c 0542 f53c
00000020: 06e0 d63c 2803 04bd 6dfa 4abd 9547 2e3d
00000030: 9abf 1c3d 64a6 2e3d dab5 c5bc cab6 733c
00000040: e4ea 313d 553f 973c 4cfa 313d 9e35 f4bc
00000050: 7e2f 4d3d 5b1d 2c3d 49a7 f53c 5367 4bba
00000060: cdc8 13bd ca38 1e3b 77e9 bf3a cf95 3e3c
00000070: 613d 113c c1c3 08bc c9d0 15bd 8d85 67bc
00000080: 34c2 a13c 0d9c f13b 4ea7 83bc 3858 47bd
00000090: b2b7 11bc 5ca3 933c 9337 4bbc 1a0a 27bd
000000a0: 63d2 6bbc 5c95 a53c ada1 3a3c 2d7a 3fbc
000000b0: 5852 d9bc 80ce b23a 885f 9cbc 1315 6abb
000000c0: dcab a3bb de97 f3bb e5e0 f2bc 8ba7 09bd
000000d0: 1008 37bb 242b feb8 ce79 20bc 6538 0abd
000000e0: 3e05 cabc 52b9 963c 4fa5 89bc c854 a9bb
000000f0: 2d5f b8bc 7abc 0abc 0e66 04bc 0877 d8bc
00000100: 62b3 f63b f57c a6bb 46dd 75ba 3d12 a83c
00000110: 4271 aebb 7e96 bd3c bc40 393c 9ab7 d93c
00000120: 6cbe 203c 8ab0 62bc 6b4f 6ebb 6cd4 903c
00000130: ca64 463c b86e c9bc 56d8 9bbc ad10 0cbd
00000140: 4da2 803c 09a3 2f3c b6e9 08bd a26a 19bd
00000150: 1192 b5bc 1e43 833c 8a1e 4e3c 233b 0bbd
00000160: ea19 22bd 1470 59bd 5351 e83c 05fc 23bc
00000170: 3241 28bd f0b4 ccbc 8f5f 8dbc 4411 c23c
00000180: a7f3 8fbb fed9 fc38 93a3 17bb 3990 f53b
00000190: 3270 fbba e5e9 8bbc 1fa1 b0bb 1004 8d3c
000001a0: ddb1 ab3c a75a cd3b f886 e2bc deb5 53bc
000001b0: dc70 6dba 590c e43b a607 d8bc 94de 6abd
000001c0: 1d12 05bc 6fc7 3fbc e91a 9f3b 0b28 87bd
000001d0: 310c 6dbd d5e6 07bd 3164 d63b 5836 28bc
000001e0: 5eca d3bc 4086 21bd a4d8 d23b 4adb 833c
000001f0: 86fd ddbb 63ba dfbb 41c5 023d 431c 983d
00000200: d045 bb3c 9176 44bc f160 41bc afba 3b3d
00000210: 827a 883d 4dc1 ff3b 0ca9 b93a fecf e73c
00000220: c838 113d 028f 633d e938 21bb 8e3a c5bb
00000230: d615 883d 6e18 963c a4d1 e13c 778e ec3b
00000240: 30ea 53bc d084 ae3d 9b2b 243d e1d4 063d
00000250: f5ba 3f3b 7f96 a5bc aa54 3b3c a6ae 693b
00000260: f461 1d3d a695 683d b0e5 ff3c b898 f9bc
00000270: 6b20 ac3b da38 373c f0bd 483d 5d18 1ebb
00000280: 8ccb 39bd d745 02bc 6a1b a73b 5611 d53c
00000290: 394a 1fbd 4120 25bd 2d3f 313d 3d8b 4e3b
000002a0: c152 ca3c 24f6 d4bc d89a 30bc 0fe7 333d
000002b0: 19e7 4f3c d41d a23c 4889 69bc dd83 633d
000002c0: c67b 973d 4f09 6d3d 1c8e 3e38 d9aa 48bd
000002d0: f889 613d c29b 893d 6419 683c 6b41 1f3a
000002e0: c5d0 d4bc 505a 3b3d 1779 363d 276f ea3c
000002f0: 4b90 37bd d1f8 bcbc d9dc 5c3c b968 ffbb
00000300: 8ba4 f63b 1808 b9bc c2bd 60bd 388e d2b7
00000310: 339c c33c bc16 c53a 37ad 9fbc 5fd7 7cbd
00000320: 228f 333c ec4a 5f3d 2489 0fbd 499d 58bd
00000330: f321 64bd d4d3 d5bb 08e9 533d a74c b4bc
00000340: 0702 18bd 3be4 3abd d345 c63a 61bc 153c
00000350: f598 b1bc 58b3 48bd 721a dabc c84d a83c
00000360: 2ba2 3a3c adeb c0bb d24f 2abd ba15 11bd
00000370: 5aa2 0c3c cfbc b6ba 165d 8d3c f7fd c8bc
00000380: 249f 27bd efcf 153d 7338 9e3c 0c2c 083d
00000390: 8437 383b 7e64 a7bc 3916 e23c 521b 373d
000003a0: 756c 48bc 0623 3cb9 f4fe 603b 9f35 303c
000003b0: c145 0e3d 7ff9 8f3b 7725 c7bc dc24 33bd
000003c0: 014f 90bc 8628 1eba f0f9 96bc c735 8ebc
000003d0: 2adc 11bd 0faa d0bb fab7 32bb e5e6 48bb
000003e0: cc05 49bd 311f b8bc d668 a3bd a1b7 9cbd
000003f0: 443b 05bd 6024 bebc 1122 47bc d734 6fbd

3.bias f4 [32]
-0.028127078 -0.0030655183 -0.03104631 -0.038077522 0.039377704 -0.0012004931 -0.028349819 -0.025265103
-2.6116243e-07 -0.058990322 -0.014948516 0.0460062 0.0061047547 0.001960301 0.0012010501 0.039905906
-0.0057879747 0.01376596 -0.009723672 0.03884811 -0.027949167 -0.0053770714 -0.014471531 -0.012925957
-0.0057653654 -0.006972016 0.002943131 -0.004433311 -0.00028797373 -1.0709783e-07 -0.023329068 0.115279816
00000000: c26a e6bc dde6 48bb d554 febc 2df7 1bbd
00000010: 844a 213d dd59 9dba e13d e8bc c3f8 cebc
00000020: e435 8cb4 d69f 71bd 9fea 74bc ff70 3c3d
00000030: 650a c83b 6578 003b 8e6c 9d3a 6074 233d
00000040: 0da9 bdbb 9f8a 613c 0950 1fbc 321f 1f3d
00000050: a7f5 e4bc 2532 b0bb 001a 6dbc 65c7 53bc
00000060: 64eb bcbb 8275 e4bb 8be1 403b 4f45 91bb
00000070: 2efb 96b9 a8fd e5b3 9a1c bfbc d317 ec3d

7.weight f4 [10, 512]
0.03193459 0.049972232 -0.052401822 -0.020477993 0.011743799 -0.023995457 -0.019287232 -0.030815981
0.03360806 -0.04791123 -0.051109873 0.021867082 0.009930356 -0.06958254 0.033519946 0.05259094
-0.005763574 -0.0074840435 -0.008223495 -0.0066158934 -0.006202218 -0.010157813 -0.010366826 -0.010476631
-0.0058805305 -0.0073100263 -0.010774792 -0.010632041 -0.0042593554 -0.0062724715 -0.0091901515 -0.005735021
0.015609374 -0.0169661 0.019997848 -0.019863425 -0.033627335 -0.003917104 -0.046852738 0.044174
0.017069174 0.011523824 -0.0029053583 0.0023368555 0.015460781 0.027270226 -0.01628287 0.034916855
-0.003837786 0.06706092 0.031088088 -0.012625696 0.023175782 0.06362861 -0.019995347 -0.002144828
0.009659251 0.007636349 -0.06583381 -0.02648542 0.0107012745 -0.0058073117 -0.012921329 0.03458108
0.046527524 0.013153177 -0.123367965 -0.16916512 0.015381061 0.03655855 0.0113287745 -0.0808764
-0.13374883 0.042792868 0.04080184 0.063632466 -0.29135007 -0.12900577 0.09564477 0.13614205
0.0908805 0.08162697 0.005731425 -0.046665918 0.06379057 -0.015965944 -0.02070186 -0.034002367
-0.0002185888 -0.03381718 0.025921812 0.05553238 -0.0975417 -0.06902421 0.08273697 0.11413481
0.0075103794 0.03839887 0.06637576 0.012516046 0.035236746 -0.024029009 0.014589238 -0.032885384
-0.013375696 0.036656514 0.0040800525 -0.02748442 -0.0058775316 -0.08599729 0.02451117 -0.012963284
0.12691951 0.04083425 -0.120348506 -0.13112596 0.057661355 0.09115502 -0.07989408 -0.014086203
0.06525424 0.022279538 -0.1293621 0.031814933 0.01957481 -0.038237624 -0.1607941 0.05612926
-7.85547e-40 1.2001343e-36 4.7704907e-27 4.23257e-28 -1.134015e-39 5.68365e-40 3.4985364e-35 -6.9492e-40
7.58535e-40 7.1066123e-34 -1.5633448e-26 7.51725e-40 3.866489e-30 -3.0421064e-23 1.83316e-40 -9.5262e-41
0.011413045 -0.0003112168 0.039857026 -0.02868075 -0.014108846 -0.019763008 -0.021858288 -0.06617332
-0.055053715 -0.056270268 -0.0020975613 -0.04079781 -0.11716698 0.06869625 0.026475754 0.065156326
-0.07807026 -0.048696686 0.015609008 0.036252476 -0.002854489 -0.0038968546 -0.043249782 -0.016910823
0.068021275 0.036583748 -0.055259828 -0.08436762 0.070307784 0.07848171 0.042596936 -0.04733403
0.059331663 0.051719867 -0.1268848 -0.1531542 0.118468314 0.007007349 -0.017726872 -0.04587826
0.008069467 -0.036453202 -0.098926194 0.015834767 -0.04890125 -0.11848757 -0.12063629 0.07001585
-0.008312018 0.13276015 0.05802374 0.102387875 -0.01406593 0.026435837 0.10132484 -0.014133408
-0.053334977 -0.034501623 -0.005598037 0.02414519 0.012994631 -0.0067506977 0.05265891 0.024683766
0.0076621408 0.038003244 0.018300874 -0.024717988 0.004715417 0.045851074 -0.054486092 -0.040536676
0.042163774 -0.06629142 -0.06944259 -0.0032484033 0.020946227 -0.018357227 -0.012795583 0.059963144
0.054275353 0.038322054 0.0008612254 0.04687777 0.015094407 -0.020822944 -0.0007755032 0.0799594
-0.007045896 -0.04842415 0.0044452427 0.053224176 -0.03003142 0.011448989 -0.018722996 -0.016433025
0.04307492 0.030600233 -0.049712278 0.028519146 0.057899304 -0.05717022 0.0027756607 0.02638515
0.035471663 -0.17056006 0.038743738 0.09274567 0.011375457 -0.056479327 -0.0005116716 -0.021951178
00000000: d8cd 023d afaf 4c3d 4ba3 56bd 77c1 a7bc
00000010: 1069 403c 1f92 c4bc 4200 9ebc cc71 fcbc
00000020: 9ba8 093d 913e 44bd 9658 51bd 9822 b33c
00000030: efb2 223c 4a81 8ebd 364c 093d 9969 573d
00000040: 5ddc bcbb b53c f5bb d7bb 06bc 23ca d8bb
00000050: fa3b cbbb f56c 26bc 9fd9 29bc 2da6 2bbc
00000060: 77b1 c0bb f288 efbb c188 30bc 0332 2ebc
00000070: 1092 8bbb 4e89 cdbb 4a92 16bc d8ec bbbb
00000080: 76be 7f3c 7efc 8abc 87d2 a33c 9fb8 a2bc
00000090: d1bc 09bd 0d5b 80bb a8e8 3fbd ccef 343d
000000a0: a7d4 8b3c 6cce 3c3c d367 3ebb ee25 193b
000000b0: 374f 7d3c cf65 df3c a763 85bc fa04 0f3d
000000c0: 5d83 7bbb 3c57 893d 72ac fe3c 02dc 4ebc
000000d0: 23db bd3c b74f 823d 48cd a3bc 3e90 0cbb
000000e0: d641 1e3c 573a fa3b e0d3 86bd f4f7 d8bc
000000f0: 6654 2f3c 434b bebb fbb3 53bc e4a4 0d3d
00000100: a593 3e3d 6c80 573c 58a8 fcbd 9f39 2dbe
00000110: d800 7c3c 6bbe 153d 539c 393c 87a2 a5bd
00000120: 74f5 08be 9347 2f3d d51f 273d bd51 823d
00000130: d62b 95be 171a 04be 68e1 c33d d268 0b3e
00000140: 8e1f ba3d 0a2c a73d adce bb3b c324 3fbd
00000150: a1a4 823d 03cb 82bc f296 a9bc 1146 0bbd
00000160: fc34 65b9 e283 0abd fb59 d43c ec75 633d
00000170: f1c3 c7bd 915c 8dbd 0072 a93d 83bf e93d
00000180: a119 f63b 2248 1d3d 04f0 873d 1a10 4d3c
00000190: 6854 103d 7cd8 c4bc b307 6f3c d3b2 06bd
000001a0: bc25 5bbc 2425 163d f6b1 853b 0227 e1bc
000001b0: 4f98 c0bb 591f b0bd a6cb c83c f463 54bc
000001c0: 30f7 013e d141 273d 4779 f6bd e245 06be
000001d0: 502e 6c3d 7caf ba3d 829f a3bd d1c9 66bc
000001e0: 04a4 853d 9483 b63c 8077 04be 6050 023d
000001f0: 5a5b a03c 0e9f 1cbd 35a7 24be cce7 653d
00000200: c98d 0880 3931 cc03 86fa bc13 b022 0612
00000210: 2c59 0c80 5f30 0600 9c03 3a06 2791 0780
00000220: 7d42 0800 5f28 6c08 80d3 9a94 812f 0800
00000230: ebd7 9c0e 741b 139a 03ff 0100 8d09 0180
00000240: c8fd 3a3c d02a a3b9 1f41 233d e4f3 eabc
00000250: ca28 67bc 08e6 a1bc 2710 b3bc e185 87bd
00000260: 0180 61bd a77b 66bd 3d77 09bb 9b1b 27bd
00000270: 3ef5 efbd 9fb0 8c3d aee3 d83c ae70 853d
00000280: 4de3 9fbd 2d76 47bd edbc 7f3c 7a7d 143d
00000290: 6112 3bbb 5f62 7fbb af26 31bd 9188 8abc
000002a0: bd4e 8b3d d7d8 153d 2158 62bd eec8 acbd
000002b0: 87fd 8f3d 05bb a03d 207a 2e3d 54e1 41bd
000002c0: c205 733d 36d8 533d 17ee 01be 74d4 1cbe
000002d0: 849f f23d e79d e53b f237 91bc d8ea 3bbd
000002e0: cc35 043c f44f 15bd d199 cabd eab7 813c
000002f0: ad4c 48bd 9ca9 f2bd 2910 f7bd 7864 8f3d
00000300: 212f 08bc 47f2 073e 4daa 6d3d bcb0 d13d
00000310: c974 66bc f88f d83c 6683 cf3d cf8f 67bc
00000320: c775 5abd 9351 0dbd bd6f b7bb 22cc c53c
00000330: 6fe7 543c f534 ddbb dfb0 573d 9c35 ca3c
00000340: b212 fb3b 4aa9 1b3d b7eb 953c 617d cabc
00000350: c983 9a3b 56ce 3b3d cf2c 5fbd c909 26bd
00000360: ecb3 2c3d ccc3 87bd eb37 8ebd 2ae3 54bb
00000370: 6c97 ab3c e561 96bc 91a4 51bc ea9b 753d
00000380: d54f 5e3d 96f7 1c3d dcc3 613a e802 403d
00000390: 884e 773c e194 aabc 244b 4bba c1c1 a33d
000003a0: 42e1 e6bb 6758 46bd 66a9 913b 9801 5a3d
000003b0: 7404 f6bc 8a94 3b3c f860 99bc 8d9e 86bc
000003c0: 546f 303d 57ad fa3c 1a9f 4bbd fca0 e93c
000003d0: d227 6d3d 522b 6abd dce7 353b ac25 d83c
000003e0: bc4a 113d 4ca7 2ebe c1b1 1e3d 71f1 bd3d
000003f0: 2060 3a3c de56 67bd b321 06ba f5d2 b3bc

7.bias f4 [10]
0.0090862615 0.008468877 -0.016023884 -0.028506055 -0.026195483 0.015151429 0.009244974 -0.012756343
0.021440309 0.025633808
00000000: 8bde 143c 0bc1 0a3c 8544 83bc 8885 e9bc
00000010: e997 d6bc b33d 783c 3b78 173c fbff 50bc
00000020: 96a3 af3c fefd d13c
