Moritz_folder/Notebooks/trained_weights/MNIST_weights_seed=1.pth (torch_old, 127500 bytes, 6 tensors)

0.weight f4 [32, 1, 5, 5]
0.10268319 -0.08654714 -0.12262122 -0.109926835 -0.34424323 0.15122083 0.057853743 0.16682266
0.09435472 -0.02425936 0.118450604 0.15005025 0.25851956 0.14216459 0.1047721 -0.031221077
0.045908112 0.08830217 0.26561454 0.17206906 -0.19400728 -0.27816015 -0.24362177 -0.22168772
-0.0503329 -0.0052914415 0.12295836 0.08201087 -0.26315472 -0.10108021 0.041534152 0.23421608
0.14261107 -0.24571772 -0.34610742 -0.07589949 0.24812071 0.107050896 0.07634543 -0.1899306
0.13426462 0.008564854 0.26068285 0.08485965 -0.079130486 0.031697717 -0.069212526 0.11176319
0.031758588 -0.016073493 -0.1713539 -0.1545155 -0.025674827 -0.021564005 0.226327 -0.046975445
-0.053947017 -0.022925738 0.2360986 0.14577207 -0.111024134 0.16748258 0.24204542 0.24546447
-0.10186686 0.034317274 0.1171669 0.06357814 -0.14422414 -0.21813077 0.10217995 -0.022547357
-0.034916807 -0.12603134 -0.0720343 0.04409813 0.04829716 0.07227355 -0.04623572 0.14947474
-0.10491733 -0.14516705 -0.10156368 -0.017060759 0.18557583 -0.115851134 -0.15574051 -0.030915854
0.009986126 0.1820875 -0.11432472 -0.14098567 0.035328392 0.10460873 -0.027438784 -0.15110035
0.02008646 0.06470819 -0.018341754 -0.04496812 0.14541303 0.03215207 0.1374201 0.064776
-0.14394051 -0.10095015 0.23561949 0.083735935 0.1293007 0.0017390066 0.07751209 0.21462034
0.22123128 -0.10033987 -0.045646727 0.14761601 0.19049245 0.17315774 -0.093469664 -0.18099248
-0.07644698 0.07113699 0.2239761 -0.07290413 0.027075218 -0.15858577 -0.21636459 -0.06503719
0.13304722 0.17476483 -0.11609804 0.099586405 0.2306822 0.18630807 0.074480355 0.20625858
0.19145554 0.039018832 -0.14182787 -0.17505296 0.0055405437 -0.07179007 -0.23416276 0.012038661
0.08216609 -0.04475132 -0.037442997 -0.018294735 0.13561414 0.16799988 -0.07152212 0.14123574
-0.009700287 -0.0809041 -0.23422179 -0.13474637 -0.12584718 -0.07850017 0.025945893 -0.1660961
-0.11042583 0.0013465406 0.019729756 0.061625004 -0.13343678 0.13266881 -0.013447104 -0.0037767605
-0.06693588 -0.00090348086 0.095426984 0.1715724 0.1310998 0.17728998 0.31744176 0.10495672
0.07795159 -0.049692217 -0.12760992 0.13913658 -0.058892243 -0.1341308 -0.37231705 -0.26138195
-0.26477677 0.22311701 -0.14711498 -0.3001068 -0.19999619 -0.24515866 0.22228351 0.13779669
0.037485395 0.048627853 0.14716533 0.023781275 0.33062235 0.36141023 0.34504643 -0.0043800455
0.060806237 -0.10126809 0.17568327 0.023469804 0.11185247 -0.0049592783 -0.03177586 0.0324249
0.15606245 0.16923141 0.038957566 0.038838774 -0.1489149 0.1832538 0.26333442 0.12935258
0.067805834 -0.20948835 -0.11746022 0.23387088 -0.22741106 0.007499789 -0.26855388 -0.2064796
0.122076854 -0.13358153 -0.013488096 0.2103092 0.24934295 0.20808229 -0.013862735 -0.07223772
0.27033308 0.08163364 -0.02998942 0.06221194 -0.10185593 0.13151136 0.17314425 -0.07223194
-0.12702805 -0.08280831 0.013058107 0.03675286 -0.032145098 -0.07838743 -0.25197065 -0.1799065
-0.0670865 0.11296654 0.1790072 -0.01864864 -0.039098334 0.011704202 -0.042827517 -0.009964906
00000000: 904b d23d a03f b1bd d620 fbbd 5221 e1bd
00000010: a640 b0be a2d9 1a3e 0cf8 6c3d 8fd3 2a3e
00000020: 0c3d c13d 91bb c6bc 3b96 f23d c6a6 193e
00000030: ad5c 843e 9893 113e c192 d63d 58c3 ffbc
00000040: 250a 3c3d c5d7 b43d a1fe 873e df32 303e
00000050: d8a9 46be 026b 8ebe fc77 79be 1b02 63be
00000060: df29 4ebd d463 adbb 98d1 fb3d 51f5 a73d
00000070: 37bc 86be 2403 cfbd b71f 2a3d 57d6 6f3e
00000080: a308 123e 6d9d 7bbe fe34 b1be 3171 9bbd
00000090: 5b13 7e3e 803d db3d fe5a 9c3d 2b7d 42be
000000a0: aa7c 093e 9a53 0c3c 3978 853e e5ca ad3d
000000b0: 2a0f a2bd 77d5 013d 4cbf 8dbd 19e4 e43d
000000c0: 4b15 023d 8fac 83bc 6677 2fbe 5039 1ebe
000000d0: 0454 d2bc ffa6 b0bc 44c2 673e 5369 40bd
000000e0: 8cf7 5cbd c2ce bbbc d5c3 713e 4645 153e
000000f0: 9f60 e3bd 8e80 2b3e c1da 773e 0a5b 7b3e
00000100: 939f d0bd 4590 0c3d 33f5 ef3d 4235 823d
00000110: 7eaf 13be ac5d 5fbe b943 d13d 3cb5 b8bc
00000120: ed04 0fbd 5c0e 01be b886 93bd 3ea0 343d
00000130: 3ed3 453d 2804 943d ab61 3dbd e80f 193e
00000140: e6de d6bd aca6 14be 9e00 d0bd 01c3 8bbc
00000150: 9707 3e3e 5c43 edbd 717a 1fbe 3f43 fdbc
00000160: d99c 233c 2575 3a3e 1423 eabd 8c5e 10be
00000170: 81b4 103d 1a3d d63d 4dc7 e0bc 0dba 1abe
00000180: 5c8c a43c ba85 843d 7241 96bc 7e30 38bd
00000190: 27e7 143e e4b1 033d dbb7 0c3e 48a9 843d
000001a0: 2465 13be f4be cebd 3c46 713e bf7d ab3d
000001b0: 6767 043e 61ef e33a a9be 9e3d 6fc5 5b3e
000001c0: 748a 623e fd7e cdbd 10f8 3abd a728 173e
000001d0: 7410 433e 4350 313e 066d bfbd 1856 39be
000001e0: 3c90 9cbd 45b0 913d fe59 653e c34e 95bd
000001f0: d9cc dd3c 4f64 22be ae8e 5dbe 3832 85bd
00000200: 883d 083e 8df5 323e cfc4 edbd f5f3 cb3d
00000210: f437 6c3e 8bc7 3e3e 2889 983d 7335 533e
00000220: ec0c 443e 36d2 1f3d 533b 11be 1541 33be
00000230: 738d b53b ac06 93bd 5dc8 6fbe ce3d 453c
00000240: b246 a83d 294d 37bd d45d 19bd d7de 95bc
00000250: 6fde 0a3e 2908 2c3e 307a 92bd 1aa0 103e
00000260: f4ed 1ebc 0cb1 a5bd d6d7 6fbe f4fa 09be
00000270: 15de 00be b2c4 a0bd 7b8c d43c 1915 2abe
00000280: f026 e2bd 687e b03a 4ca0 a13c 806a 7c3d
00000290: a7a3 08be 55da 073e 3e51 5cbc 8783 77bb
000002a0: ae15 89bd 93d7 6cba 396f c33d adb0 2f3e
000002b0: 073f 063e 818b 353e ba87 a23e 8cf3 d63d
000002c0: 15a5 9f3d 118a 4bbd 2dac 02be d279 0e3e
000002d0: fe38 71bd 9659 09be 57a0 bebe dbd3 85be
000002e0: d290 87be c978 643e 4fa5 16be 99a7 99be
000002f0: cdcb 4cbe df0a 7bbe 4a9e 633e 931a 0d3e
00000300: 498a 193d 002e 473d 82b2 163e f3d0 c23c
00000310: 5547 a93e c30a b93e eda9 b03e 7c86 8fbb
00000320: f60f 793d a565 cfbd 51e6 333e bf43 c03c
00000330: e812 e53d 7181 a2bb 6727 02bd f9cf 043d
00000340: d6ce 1f3e 004b 2d3e f891 1f3d 6815 1f3d
00000350: 267d 18be e2a6 3b3e c5d3 863e 0175 043e
00000360: c9dd 8a3d 1d84 56be fc8e f0bd d97b 6f3e
00000370: 72de 68be cac0 f53b e57f 89be 636f 53be
00000380: 6e03 fa3d 99c9 08be 2dfd 5cbc 4c5b 573e
00000390: c253 7f3e 8613 553e 8620 63bc 5ff1 93bd
000003a0: 1969 8a3e 8a2f a73d 5fac f5bc f2d1 7e3d
000003b0: d899 d0bd eaaa 063e ba4c 313e 57ee 93bd
000003c0: a413 02be 6797 a9bd acf1 553c 2b8a 163d
000003d0: 94aa 03bd 9789 a0bd 4c02 81be 6939 38be
000003e0: a664 89bd 005b e73d aa4d 373e 08c5 98bc
000003f0: 9325 20bd fbc2 3f3c e86b 2fbd d843 23bc

0.bias f4 [32]
-0.01095675 0.007915235 -0.052965015 0.10242684 -0.054805093 -0.0033613828 0.039787557 0.14357558
-0.09845043 -0.017290741 -0.02639478 -0.053228684 0.038203955 0.060079552 -0.0009444599 -0.009843826
0.13164358 0.017397728 -0.00991344 -0.010746433 0.23174532 0.19213924 -0.0045532393 -0.0062497137
-0.031111075 -0.0041417023 -0.037437018 0.006979833 -0.1842781 -0.009314948 -0.015589242 0.1813419
00000000: f183 33bc e7ae 013c d8f1 58bd 2ac5 d13d
00000010: 4e7b 60bd a54a 5cbb 47f8 223d 7a05 133e
00000020: 61a0 c9bd 50a5 8dbc de39 d8bc 5206 5abd
00000030: c07b 1c3d fa15 763d a295 77ba 0048 21bc
00000040: 93cd 063e ae85 8e3c fb6b 22bc cf11 30bc
00000050: a54e 6d3e 26c0 443e 5733 95bb 66ca ccbb
00000060: a7dc febc 1eb7 87bb 8f57 19bd 15b7 e43b
00000070: 66b3 3cbe b99d 18bc 056a 7fbc b1b1 393e

3.weight f4 [32, 32, 5, 5]
0.09239519 0.049693163 0.059247952 0.012286156 0.024119928 0.06742511 0.13686486 0.14177676
0.08959218 0.02425946 -0.06504016 -0.025983538 -0.025255764 -0.028504644 -0.047688413 0.02964414
0.004383778 0.002791365 -0.033237383 -0.06600843 -0.017997393 0.024190143 0.025758363 0.05788075
0.034693606 0.031607497 0.035886806 0.011401846 0.011488411 -0.011631643 -0.017178742 0.027241774
0.005937086 0.007175936 -0.028417846 -0.026888117 -0.038852 -0.036934894 -0.07885759 -0.051167037
0.0069610616 -0.010701713 -0.02408067 -0.052207634 -0.05902078 -0.0027367412 0.016600128 0.0011115224
0.0088509545 -0.0010742365 -0.01397221 0.024608871 0.03740519 0.0143669415 0.06802802 0.040978316
0.0058606626 0.031577192 0.0558029 0.07640555 -0.010522923 -0.043535013 -0.03708413 -0.0101289125
-0.009409381 -0.021225205 -0.057830393 -0.027625829 -0.052398495 -0.029725505 0.00085769175 -0.012001865
0.021671405 -0.025683368 -0.02209021 0.0037196993 -0.050513487 -0.049784668 -0.022163017 0.009096447
0.050228864 -0.0057474836 -0.014035262 0.017937243 0.014148541 -0.0019592193 -0.004545879 0.02919467
0.038521618 0.017349238 -0.044652533 -0.019600725 -0.007955527 -0.026798926 -0.01951095 0.052833702
0.012167931 0.012059052 -0.02502425 -0.073608294 0.019007647 0.04557272 0.012249368 0.02402053
0.029208345 -0.0032657136 0.0034135357 0.012033669 -0.0014066007 0.03413279 -0.02871679 -0.04939443
-0.044079363 -0.05362325 -0.069250725 -0.033084515 -0.048171125 -0.046938904 -0.050042555 -0.069576345
0.017980795 0.071699075 0.009734945 0.0049286215 0.036241174 0.017144404 0.027320959 0.020391949
0.054405555 0.02963909 -0.07124428 -0.0131381005 0.05388042 0.07906774 0.054299217 -0.057266314
-0.04768216 -0.0660074 -0.0076236073 -0.025217324 -0.055277858 -0.045086406 -0.04418576 -0.04365367
-0.03131352 0.00246759 0.021818796 0.014920379 -0.010031016 -0.002554413 0.026629154 0.071440235
0.07579409 0.07820871 0.034786798 -0.07187207 -0.10377531 -0.08917116 -0.035541967 -0.062733084
0.044414774 -0.012072712 -0.00012280696 0.008591516 -0.055025138 0.037239242 0.050769422 0.07379202
0.07262845 0.03178051 0.016172182 0.03878815 0.041394725 0.047086634 0.0411028 0.023322223
0.08177141 0.075940594 0.07961856 0.047091912 -0.08038059 -0.08426722 -0.0540296 -0.017606383
-0.022538612 0.044209197 0.08190268 0.029061988 -0.0071963365 -0.002442703 0.019933673 0.041066743
0.058677092 0.055407315 0.05201086 0.014463479 6.323522e-05 0.04256616 0.014332087 0.016398102
0.03067763 -0.007066575 0.020111969 -0.025672123 -0.016133603 0.024208393 0.027260035 0.031139618
0.00016454875 0.034707915 -0.08921196 -0.04215303 -0.04103143 -0.029907733 -0.045869805 -0.044486906
-0.07923597 -0.07070371 -0.09520113 -0.12576246 0.029156905 0.007399665 0.027864251 0.025669985
-0.008700927 0.0037374003 -0.023102524 -0.013888364 -0.00283668 -0.006529889 0.020153476 0.061243374
0.028488033 0.075340666 0.053725634 -0.031534698 -0.047700923 0.018428782 0.06501991 0.035524067
-0.1052816 -0.106672086 -0.09905752 -0.09280548 -0.09364629 0.014548665 -0.0322129 -0.046741724
-0.023629213 -0.03913897 0.04376679 0.038237575 0.042000435 0.02047766 -0.006263356 -0.020697327
00000000: b039 bd3d 0f8b 4b3d fbad 723d e04b 493c
00000010: 2897 c53c 2d16 8a3d 4d26 0c3e ed2d 113e
00000020: 1b7c b73d c6bb c63c c733 85bd 6edb d4bc
00000030: 2de5 cebc 9282 e9bc ed54 43bd 44d8 f23c
00000040: cca5 8f3b 55ef 363b ec23 08bd 6e2f 87bd
00000050: 456f 93bc 682a c63c 3403 d33c 5e14 6d3d
00000060: e21a 0e3d dd76 013d 0bfe 123d cfce 3a3c
00000070: e339 3c3c a692 3ebc 6fba 8cbc 242a df3c
00000080: e38b c23b 1d24 eb3b 8bcc e8bc 7844 dcbc
00000090: 4623 1fbd 0b49 17bd 1780 a1bd 8794 51bd
000000a0: 9e19 e43b 3d56 2fbc d344 c5bc acd7 55bd
000000b0: c6bf 71bd e65a 33bb fefc 873c 81b0 913a
000000c0: 9803 113c 65cd 8cba b2eb 64bc 8b98 c93c
000000d0: 2f36 193d 5263 6b3c 4652 8b3d e1d8 273d
000000e0: cd0a c03b 1657 013d 9591 643d 837a 9c3d
000000f0: 5768 2cbc c551 32bd 87e5 17bd bdf3 25bc
00000100: ce29 1abc 7be0 adbc 90df 6cbd 904f e2bc
00000110: ce9f 56bd e782 f3bc b8d6 603a 78a3 44bc
00000120: 3b88 b13c ed65 d2bc 87f6 b4bc 33c6 733b
00000130: 3be7 4ebd 02eb 4bbd 378f b5bc 4409 153c
00000140: c8bc 4d3d 6355 bcbb 28f4 65bc 20f1 923c
00000150: 48cf 673c 3f66 00bb 99f5 94bb a929 ef3c
00000160: d8c8 1d3d fd1f 8e3c 93e5 36bd b391 a0bc
00000170: e657 02bc 6c89 dbbc 6ed5 9fbc 2768 583d
00000180: 005c 473c 5493 453c a8ff ccbc f2bf 96bd
00000190: edb5 9b3c 76aa 3a3d 93b1 483c b4c6 c43c
000001a0: 5746 ef3c 9505 56bb a0b5 5f3b de28 453c
000001b0: b05d b8ba d3ce 0b3d 793f ebbc d051 4abd
000001c0: 908c 34bd 0ea4 5bbd 53d3 8dbd a183 07bd
000001d0: 164f 45bd 0243 40bd 6cf9 4cbd 0b7e 8ebd
000001e0: 764c 933c f7d6 923d 527f 1f3c 4680 a13b
000001f0: a071 143d 6c72 8c3c 34d0 df3c 040d a73c
00000200: 5cd8 5e3d adcd f23c 85e8 91bd 3041 57bc
00000210: b7b1 5c3d 44ee a13d db68 5e3d 1590 6abd
00000220: 5e4e 43bd e32e 87bd 74cf f9bb 9094 cebc
00000230: 096b 62bd 86ac 38bd 21fc 34bd 31ce 32bd
00000240: 9b42 00bd 4ab7 213b 55bd b23c 9b74 743c
00000250: 2159 24bc f067 27bb 6225 da3c 424f 923d
00000260: ef39 9b3d e32b a03d 9a7c 0e3d aa31 93bd
00000270: 2688 d4bd 5e9f b6bd 7494 11bd 347a 80bd
00000280: 44ec 353d a0cc 45bc bec5 00b9 6ec3 0c3c
00000290: 0a62 61bd 2d88 183d 99f3 4f3d 4520 973d
000002a0: 3abe 943d 482c 023d 867b 843c 53e0 1e3d
000002b0: 848d 293d eadd 403d 695b 283d 3f0e bf3c
000002c0: c577 a73d be86 9b3d 0e0f a33d 73e3 403d
000002d0: 949e a4bd 4b94 acbd 244e 5dbd 433b 90bc
000002e0: e5a2 b8bc b414 353d 98bc a73d 6813 ee3c
000002f0: 3fcf ebbb c115 20bb f14b a33c 9a35 283d
00000300: 6457 703d c8f2 623d 5709 553d 3af8 6c3c
00000310: 269d 8438 db59 2e3d 21d1 6a3c 5055 863c
00000320: a74f fb3c ba8e e7bb dbc1 a43c 584e d2bc
00000330: 9e2a 84bc ae50 c63c 7050 df3c 8318 ff3c
00000340: b88a 2c39 e329 0e3d c3b4 b6bd a8a8 2cbd
00000350: 9310 28bd 1001 f5bc fae1 3bbd e737 36bd
00000360: 7846 a2bd 1bcd 90bd cff8 c2bd e0c7 00be
00000370: 76da ee3c e478 f23b 9243 e43c dc49 d23c
00000380: 558e 0ebc 2cef 743b 8141 bdbc 058c 63bc
00000390: 98e7 39bb aef8 d5bb e718 a53c 55da 7a3d
000003a0: bc5f e93c 354c 9a3d 690f 5c3d 872a 01bd
000003b0: 0b62 43bd f5f7 963c 2929 853d af81 113d
000003c0: e19d d7bd e576 dabd abde cabd cd10 bebd
000003d0: a0c9 bfbd 865d 6e3c adf1 03bd 4074 3fbd
000003e0: 0d92 c1bc 2f50 20bd ce44 333d 019f 1c3d
000003f0: a608 2c3d c4c0 a73c d73c cdbb 718d a9bc

3.bias f4 [32]
0.012757421 -0.009341614 0.060534358 -3.530918e-05 -0.0085752215 -0.03188091 -0.0034630273 0.013815613
0.05678169 0.021659179 -0.021597777 -0.009588376 -0.008323083 -0.0018504142 0.00929263 -0.0067421747
-0.0036973094 -0.011509186 -0.0016081518 0.02851351 -0.012426905 -0.022252783 -0.033805583 0.020673927
-0.027482046 0.03178715 0.030376725 0.040930804 -0.00966432 0.012695563 -0.002454378 0.031348005
00000000: 8004 513c 920d 19bc e0f2 773d f118 14b8
00000010: 167f 0cbc 8f95 02bd f5f3 62bb e25a 623c
00000020: eb93 683d 976e b13c d2ed b0bc 9018 1dbc
00000030: 8a5d 08bc 9989 f2ba 1d40 183c 76ed dcbb
00000040: 8f4e 72bb 0691 3cbc 9fc8 d2ba 2a95 e93c
00000050: 389a 4bbc 784b b6bc b977 0abd 5e5c a93c
00000060: 0722 e1bc 3e33 023d 9cd8 f83c 0fa7 273d
00000070: 1957 1ebc 0d01 503c a1d9 20bb c466 003d

7.weight f4 [10, 512]
-0.030085089 -0.018743187 -0.06863934 -0.03921086 -0.12076225 -0.044435438 -0.020535422 -0.072813295
-0.10911332 -0.08251975 0.00045810058 -0.061199225 0.021597741 -0.035408042 0.09493105 0.093100816
-0.016355027 0.05545457 0.03958513 -0.014231626 -0.008050691 0.022429427 -0.04832251 -0.08341726
-0.009198736 -0.09731405 -0.07728283 -0.039075095 -0.0060507474 0.021915618 0.059493702 0.052185234
0.07609134 0.052614626 0.014631275 0.06464571 0.045491427 0.019733608 -0.10524868 -0.031656105
-0.10053555 -0.053377125 0.0068061887 -0.13327125 -0.04313956 -0.011525331 0.054753914 -0.050169017
0.00022007352 0.0001789015 0.00054178707 0.00044086293 0.0008912845 0.00071647775 0.0007829367 0.0009211307
0.00030557494 -0.00016757262 -0.0003696372 0.00023655672 -5.1550458e-05 -0.0008654898 -0.00066142273 -0.00038690557
-0.036609124 -0.10716315 -0.022618834 0.015942171 0.10154917 0.050454453 -0.009345253 -0.011156803
0.110870644 -0.10894218 -0.04621132 -0.010632943 0.04691883 -0.21750796 -0.058455344 -0.01834596
0.030568315 0.030897012 -0.018577041 0.067510895 0.040921226 -0.007792023 0.024102306 0.084506065
0.049511928 0.0077183833 0.0036575329 -0.0052171885 0.046470184 -0.05635288 -0.07035001 -0.12828998
0.018879414 0.005736791 -0.027887233 -0.021165008 0.067908436 -0.012857809 -0.05542142 0.0225127
0.05188071 -0.023049464 0.03720214 0.03657453 0.040965416 -0.07514788 0.004138797 -0.01019525
-0.020732705 0.025400545 -0.035240933 -0.037031885 0.015734637 0.02482969 -0.024541296 -0.014199628
0.017052568 0.0065275417 -0.011997335 0.056683976 -0.006283841 0.052212518 -0.011371355 8.0239915e-05
-0.103206575 -0.01672099 0.04615648 0.07225308 -0.03694395 -0.023466578 0.1197001 0.01510638
-0.06982999 -0.11356549 0.0044611567 -0.00089376385 -0.010924429 0.02364463 0.0053944606 -0.0015271512
-0.0062329653 0.012353175 0.08701962 0.0273091 -0.018262979 -0.059776373 -0.097009465 -0.05621617
-0.22011647 -0.009081025 -0.0056186845 -0.007848909 -0.15307336 -0.06125011 0.028460085 -0.012879341
0.025906118 0.025808219 0.027891722 0.026015038 0.02745776 0.02813916 0.032717664 0.028578859
0.026670406 0.027348595 0.029867817 0.023843104 0.023818823 0.027808808 0.025904797 0.020179743
-0.06307884 -0.016023614 -0.015237375 0.04592415 -0.054556526 -0.021734454 0.08413839 0.04989157
0.000286837 -0.06863525 0.012085403 -0.019827818 0.0031606806 0.032695778 -0.015876925 -0.028003564
0.009268813 0.037198175 0.03330608 0.061009794 -0.020633873 -0.018149544 0.014840212 0.03309439
0.024251927 -0.018094348 -0.0381219 -0.094564095 0.063921615 0.07094139 0.035928883 -0.0784067
-0.015526514 -0.01566574 -0.064287595 0.031962294 0.0039914325 -0.033043247 0.01312605 0.058629755
-0.0049464703 0.013957173 -0.007168553 0.014049353 0.1204867 0.09875633 -0.04652067 -0.035300136
0.04462901 -0.034877256 0.051540565 0.020750856 -0.023827197 -0.013133527 0.01857002 0.025578266
0.026498465 -0.05399753 -0.08111168 -0.04715338 0.035766434 0.052065272 0.025106857 0.0075812642
-0.021675406 -0.034295514 0.006691712 -0.06162896 0.019379335 -0.039775163 -0.05373367 -0.10080326
-0.0052875266 -0.013214351 -0.18052247 -0.034504637 0.018778145 -0.015219185 0.039677404 0.06656364
00000000: 0175 f6bc 508b 99bc c892 8cbd 919b 20bd
00000010: 3352 f7bd ef01 36bd e739 a8bc 231f 95bd
00000020: ce76 dfbd 1d00 a9bd 382d f039 0aac 7abd
00000030: bfed b03c 0608 11bd 366b c23d a4ab be3d
00000040: fafa 85bc 5524 633d 0424 223d c42b 69bc
00000050: 0ce7 03bc ebbd b73c d3ed 45bd abd6 aabd
00000060: 4cb6 16bc 974c c7bd 7646 9ebd 350d 20bd
00000070: 5945 c6bb 6288 b33c abaf 733d 2fc0 553d
00000080: c7d5 9b3d 6f82 573d 04b8 6f3c f864 843d
00000090: 3855 3a3d 60a8 a13c 9f8c d7bd d5a9 01bd
000000a0: 95e5 cdbd f9a1 5abd 7306 df3b 4278 08be
000000b0: 1bb3 30bd bed4 3cbc a445 603d 077e 4dbd
000000c0: 89c3 6639 8197 3b39 b706 0e3a 9f23 e739
000000d0: 17a5 693a 02d2 3b3a fe3d 4d3a 0978 713a
000000e0: 9335 a039 6fb6 2fb9 ddcb c1b9 360c 7839
000000f0: e237 58b8 0ae2 62ba 5463 2dba 96d9 cab9
00000100: 73f3 15bd 5b78 dbbd 224b b9bc 2899 823c
00000110: 03f9 cf3d 54a9 4e3d d51c 19bc 06cb 36bc
00000120: 2610 e33d 141d dfbd 1548 3dbd cc35 2ebc
00000130: f62d 403d 68ba 5ebe df6e 6fbd 444a 96bc
00000140: 676a fa3c bb1b fd3c e12e 98bc 2743 8a3d
00000150: 049d 273d 3a54 ffbb 3372 c53c 8411 ad3d
00000160: 05cd 4a3d 7eea fc3b 38b3 6f3b f3f4 aabb
00000170: 8557 3e3d 47d2 66bd ab13 90bd 735e 03be
00000180: 00a9 9a3c b1fb bb3b c473 e4bc 3d62 adbc
00000190: 9413 8b3d 8fa9 52bc 9201 63bd 8e6c b83c
000001a0: de80 543d 3bd2 bcbc 4561 183d 2dcf 153d
000001b0: 5acb 273d 22e7 99bd bf9e 873b fa09 27bc
000001c0: a2d7 a9bc ce14 d03c cc58 10bd bfae 17bd
000001d0: ede5 803c a267 cb3c d40a c9bc 8ea5 68bc
000001e0: d4b1 8b3c fde4 d53b 7890 44bc 752d 683d
000001f0: aee8 cdbb cbdc 553d eb4e 3abc 7a46 a838
00000200: f85d d3bd 75fa 88bc 940e 3d3d 6cf9 933d
00000210: 8a52 17bd fb3c c0bc 5325 f53d c080 773c
00000220: 0703 8fbd 0695 e8bd e52e 923b 7a4b 6aba
00000230: 60fc 32bc 62b2 c13c 04c4 b03b b12a c8ba
00000240: e73d ccbb f964 4a3c 5837 b23d 55b7 df3c
00000250: 3e9c 95bc 12d8 74bd e6ac c6bd ed42 66bd
00000260: 3666 61be 94c8 14bc f11c b8bb b698 00bc
00000270: 43bf 1cbe 65e1 7abd 2025 e93c df03 53bc
00000280: 1139 d43c c26b d33c 2e7d e43c 7d1d d53c
00000290: 19ef e03c 1884 e63c f502 063d 361e ea3c
000002a0: e57b da3c 290a e03c 5aad f43c 9d52 c33c
000002b0: b11f c33c 4ccf e33c 4c36 d43c fd4f a53c
000002c0: 7b2f 81bd f443 83bc 2fa6 79bc f61a 3c3d
000002d0: aa76 5fbd 740c b2bc c050 ac3d 1a5b 4c3d
000002e0: 9c62 9639 a390 8cbd db01 463c f36d a2bc
000002f0: 6c23 4f3b 02ec 053d 5310 82bc bb67 e5bc
00000300: 38dc 173c 1d5d 183d f56b 083d 68e5 793d
00000310: 5e08 a9bc 5aae 94bc 5c24 733c fc8d 073d
00000320: faab c63c 993a 94bc b625 1cbd d2aa c1bd
00000330: 56e9 823d b849 913d 2a2a 133d b193 a0bd
00000340: eb62 7ebc 7055 80bc 37a9 83bd e5ea 023d
00000350: 90ca 823b 5b58 07bd a50e 573c c125 703d
00000360: 0016 a2bb a0ac 643c 2ee6 eabb 422f 663c
00000370: bbc1 f63d c240 ca3d 758c 3ebd e096 10bd
00000380: e9cc 363d 74db 0ebd 331c 533d b3fd a93c
00000390: 4131 c3bc 012e 57bc 2820 983c 8389 d13c
000003a0: 4f13 d93c 842c 5dbd e11d a6bd e723 41bd
000003b0: d37f 123d 6542 553d e5ac cd3c 416c f83b
000003c0: 9f90 b1bc 7479 0cbd 2646 db3b a66e 7cbd
000003d0: 69c1 9e3c 48eb 22bd d617 5cbd f171 cebd
000003e0: fd42 adbb 0181 58bc e2da 38be bc54 0dbd
000003f0: a0d4 993c e359 79bc c684 223d 8552 883d

7.bias f4 [10]
0.040296692 0.0014203894 -0.042456295 -0.034497865 -0.024335375 -0.014408786 0.00038974333 -0.01933644
0.05086314 0.008411191
00000000: 250e 253d 5c2c ba3a a7e6 2dbd a24d 0dbd
00000010: fb5a c7bc d412 6cbc 7756 cc39 7467 9ebc
00000020: de55 503d 18cf 093c
