Moritz_folder/Notebooks/trained_weights/FashionMNIST/FashionMNIST_weights_seed=9.pth (torch_old, 127418 bytes, 6 tensors)

0.weight f4 [32, 1, 5, 5]
0	0x3d871f6b	0.065977894
1	0xbd8f72e7	-0.07004338
2	0xbc16d277	-0.009205452
3	0x3da950dc	0.08267376
4	0x3e0aabd3	0.13542108
5	0x3e2dfda3	0.16991286
6	0xbda7567b	-0.08170792
7	0x3e0de403	0.13856511
8	0xbd54d206	-0.051958106
9	0xbd6bb882	-0.057549007
10	0x3e269d65	0.16270979
11	0x3c83893f	0.016056655
12	0xbe25bef0	-0.16186118
13	0xbdd5200b	-0.10406502
14	0xbd1e2f23	-0.03861917
15	0x3cbb1e33	0.022841549
16	0x3d32f667	0.04369202
17	0xbd6747f8	-0.05646512
18	0xbc9d32a2	-0.019189183
19	0x3d170b64	0.036876097
20	0x3e02707f	0.12738226
21	0x3e38879c	0.18020481
22	0x3e3bf709	0.18355955
23	0x3e005569	0.12532581
24	0xbb8c960f	-0.0042903493
25	0xbe083b96	-0.1330398
26	0x3e469991	0.19394518
27	0x3e4b5cd9	0.19859637
28	0x3e877229	0.26454285
29	0xbcb2e45c	-0.021837406
30	0x3d8983bd	0.0671458
31	0x3d4ea515	0.050450403
32	0x3e204d29	0.15654434
33	0x3e31dd0e	0.17369482
34	0x3cf34a7d	0.029698605
35	0xbd0cde4c	-0.034391686
36	0xbdbb78e0	-0.091539145
37	0x3cee7f07	0.029113306
38	0x3e0d35a3	0.13789992
39	0xbda3f975	-0.080065645
40	0x3e00ea56	0.12589392
41	0xbded69fb	-0.1159248
42	0x3dc364e3	0.09540727
43	0x3d590256	0.052980743
44	0xbe38047d	-0.17970462
45	0x3d342cc2	0.043987997
46	0xbddeebdc	-0.1088483
47	0x3e1334de	0.14375636
48	0x3ddb6f1a	0.1071455
49	0xbe4e9c8e	-0.20176908
50	0x3db332b1	0.08749903
51	0x3d4b9e08	0.049711257
52	0x3dc1c39a	0.09461136
53	0x3e22270b	0.15835206
54	0x3d091ef3	0.03347678
55	0xbdecbfcf	-0.11560022
56	0xbcc3e6c6	-0.023913752
57	0xbcf23547	-0.02956642
58	0xbce9dc3f	-0.028547404
59	0x3e512275	0.204233
60	0xbe34e1d7	-0.17664276
61	0xbc8e773d	-0.017390842
62	0xbde05eef	-0.10955607
63	0x3e81cb6a	0.25350505
64	0x3e01a02a	0.12658754
65	0xbea4c545	-0.32181755
66	0xbde6f93f	-0.11278009
67	0xbdd21f3e	-0.10259865
68	0x3d1659d5	0.036706764
69	0x3e9ce438	0.30642867
70	0xbd8b35f0	-0.06797397
71	0xbe05cb99	-0.13065948
72	0xbe8c6036	-0.27417153
73	0x3e9425ab	0.28934988
74	0xbd20b692	-0.039236613
75	0xbd6a36dc	-0.057181224
76	0xbc96815d	-0.018372232
77	0xbe942d94	-0.28941023
78	0x3d976ad9	0.073934264
79	0x3eab9e8c	0.335194
80	0xbd294419	-0.04132471
81	0xbe786280	-0.24256325
82	0xbf06b220	-0.5261555
83	0xbe827b1c	-0.2548455
84	0x3dc73a08	0.097278655
85	0x3e809f36	0.25121468
86	0xbe24be29	-0.16088165
87	0xbefb459f	-0.49076554
88	0xbdc3ffc7	-0.0957027
89	0x3d0faf37	0.035079207
90	0x3e825be9	0.25460747
91	0xbe8b1500	-0.2716446
92	0xbf188c3a	-0.5958897
93	0xbe8b8d1d	-0.27256098
94	0xbe0f370c	-0.13985842
95	0xbd94ee75	-0.072720446
96	0x3ddeccf9	0.10878939
97	0xbecccf6d	-0.40002003
98	0xbe95023f	-0.29103276
99	0x3d84e71f	0.06489395
100	0x3d8d3569	0.06894953
101	0x3e9e399e	0.30903333
102	0xbd2534fc	-0.040333733
103	0xbcb00ccf	-0.021490483
104	0xbe679918	-0.22616994
105	0x3dd8ff1f	0.105955355
106	0x3dd9cedd	0.10635159
107	0xbdbba567	-0.09162407
108	0x3e1f9d14	0.15587264
109	0xbdafc437	-0.08582347
110	0x3cb12f05	0.021628866
111	0x3cba02ef	0.022706477
112	0xbc905f6a	-0.017623622
113	0x3bfc524d	0.0077002407
114	0xbd54527b	-0.051836472
115	0x3e2a75d9	0.16646518
116	0x3dd50f6a	0.104033306
117	0x3e266e9b	0.1625313
118	0xbd2d1a5d	-0.04226147
119	0x3c0fbf1d	0.008773592
120	0xbe1461f8	-0.14490497
121	0x3e3ef99b	0.18649904
122	0x3d22a45c	0.039707527
123	0x3d5905c7	0.052984025
124	0xbe422a47	-0.1896144
125	0x3e6b4cb8	0.22978485
126	0xbe1e9596	-0.1548675
127	0xbe3f6fe4	-0.18695027
128	0x3db07352	0.086157456
129	0xbe692760	-0.22768927
130	0x3e9a9c79	0.30197504
131	0xbda7bd9a	-0.081904605
132	0xbeb8bcc3	-0.36081514
133	0xbe299eed	-0.16564532
134	0xbe43a884	-0.19107252
135	0x3e8ef3a1	0.2792025
136	0x3e1cb4fb	0.15303414
137	0xbe5f4a8b	-0.2180578
138	0x3db9093d	0.09034965
139	0x3e0e9cce	0.13927004
140	0x3dbec08e	0.09314071
141	0x3e10b3db	0.1413111
142	0xbe8ff645	-0.28117576
143	0x3e28f1ee	0.16498539
144	0x3e5c5cf4	0.21519834
145	0x3db92617	0.09040468
146	0x3d003569	0.031300936
147	0xbdf4f5e4	-0.119609624
148	0x3c16c932	0.009203242
149	0xbc974cc9	-0.018469231
150	0xbeb09987	-0.34492132
151	0xbed5badf	-0.41744134
152	0xbeb4eb40	-0.35335732
153	0x3ca39b96	0.01997165
154	0xbd836aaa	-0.06416829
155	0xbf1b2f72	-0.6061927
156	0xbf157ee2	-0.5839673
157	0xbf0cc961	-0.5499478
158	0xbe78b46a	-0.24287573
159	0x3beaeb54	0.0071691666
160	0xbe578966	-0.21048507
161	0xbeaaf0a2	-0.33386713
162	0xbdc8f9b5	-0.09813253
163	0x3dd535d0	0.104106545
164	0x3dd6b89a	0.10484429
165	0x3dc85051	0.09780944
166	0x3dabf331	0.083959945
167	0x3e9b8c66	0.30380553
168	0x3e310854	0.17288333
169	0x3da996c9	0.08280713
170	0x3db0af0f	0.0862714
171	0x3d13f0c4	0.036118284
172	0x3da7770f	0.081770055
173	0x3dcb62db	0.099309646
174	0x3e831f87	0.2560999
175	0x3cbcf268	0.023064807
176	0x3dca0ad8	0.098653495
177	0xbc3b7647	-0.011441774
178	0x3e85fc69	0.26169136
179	0x3e9c05da	0.30473214
180	0xbe2ff0b4	-0.17181665
181	0xbe6cf86d	-0.23141642
182	0xbea28e24	-0.3174907
183	0xbdb98fc4	-0.09060624
184	0x3e15404c	0.14575309
185	0xbe16aa55	-0.14713414
186	0xbd3d2e0f	-0.046186503
187	0xbe95351a	-0.29142076
188	0x3dd7910b	0.105257116
189	0x3e969bc8	0.29415727
190	0x3e1f4d50	0.15556836
191	0x3d62659e	0.05527269
192	0xbea116c9	-0.31462696
193	0xbe14ca05	-0.1453019
194	0x3dd16a75	0.10225383
195	0x3e126dc7	0.14299689
196	0x3d3b4aa9	0.0457255
197	0xbda06b41	-0.07832957
198	0xbe804325	-0.25051227
199	0x3e65f3b5	0.22456248
200	0xbe03d378	-0.12873638
201	0x3e246e1f	0.16057633
202	0x3e459afa	0.192974
203	0xbcd41903	-0.025890833
204	0x3e2f5781	0.17123224
205	0x3e31e38e	0.17371961
206	0x3dade3bf	0.08490705
207	0xbe1644b8	-0.14674652
208	0xbe1131e8	-0.14179194
209	0x3dd3580a	0.103195265
210	0x3e53d88f	0.2068808
211	0x3e268214	0.16260558
212	0x3c53237e	0.01288688
213	0xbe0a9c3b	-0.1353616
214	0x3e6735a2	0.22579053
215	0xbbaf8cb8	-0.005357351
216	0x3e1527bc	0.14565939
217	0x3dcc5568	0.099772274
218	0xbd9bc38a	-0.076056555
219	0x3e81231b	0.25222096
220	0xbe651323	-0.22370581
221	0xbea0dc0e	-0.31417888
222	0x3c030b52	0.007998304
223	0xbe7c3a77	-0.24631678
224	0xbdc9b7aa	-0.09849484
225	0xbf08d1cb	-0.5344512
226	0xbf1eb89d	-0.6200045
227	0xbec213c0	-0.37905693
228	0xbe80f770	-0.2518878
229	0x3e02c410	0.12770104
230	0xbe670116	-0.22559008
231	0xbe08daae	-0.1336467
232	0xbddca1c8	-0.10773045
233	0xbe1f10af	-0.15533708
234	0x3cc54b9a	0.024083901
235	0x3e5d76a0	0.21627283
236	0xbc9ca13c	-0.019119851
237	0xbea8ee86	-0.3299448
238	0xbe9c6d98	-0.30552363
239	0xbd3c2eeb	-0.045943182
240	0x3e89436e	0.26809257
241	0x3d726e5a	0.05918727
242	0xbe5d17e9	-0.21591152
243	0xbe406ccc	-0.18791503
244	0x3e51e0bf	0.2049589
245	0x3ea6f664	0.32609856
246	0xbda1684f	-0.078812234
247	0x3de00017	0.10937517
248	0xbd1160ad	-0.035492588
249	0x3dc28d04	0.09499553
250	0x3b047eea	0.0020217248
251	0x3de0efb2	0.10983218
252	0x3e40d312	0.18830517
253	0x3e0d9a38	0.13828361
254	0xbe256805	-0.16152962
255	0xbd1b0a97	-0.037851896

0.bias f4 [32]
0	0xbc33670f	-0.010949864
1	0xbb75e6c0	-0.003752157
2	0xbcd9347b	-0.026514282
3	0x3ed16c2d	0.40902844
4	0xbb9c5109	-0.0047704023
5	0xbc8496ea	-0.016185243
6	0x3e6b896a	0.23001638
7	0x3e1935e9	0.14961971
8	0xbe0f1c24	-0.13975579
9	0x3e2ca426	0.16859493
10	0x3e11b5a2	0.14229444
11	0x3d3d78a4	0.04625763
12	0x3e95762f	0.2919173
13	0x3b74f6ee	0.0037378627
14	0x3d424006	0.04742434
15	0xbdef358d	-0.11680136
16	0xbc08eb80	-0.008356929
17	0x3e1fed29	0.15617813
18	0x3d9f3bd7	0.077750854
19	0xbba2aa69	-0.004964162
20	0xbc595bd9	-0.013266527
21	0x3e5ea024	0.21740776
22	0x3ec01201	0.37513736
23	0x3bdb866a	0.006699373
24	0x3da553d1	0.08072627
25	0xbb5b25c6	-0.0033439263
26	0x3d6c3d61	0.057675723
27	0xbe11c367	-0.14234696
28	0x3bb829f3	0.005620235
29	0xbbc6035c	-0.006042881
30	0x3b2ffb8b	0.0026852812
31	0x3e5ca28e	0.21546385

3.weight f4 [32, 32, 5, 5]
0	0xae15e79c	-3.4084388e-11
1	0xaac9fb0d	-3.5878974e-13
2	0xa50570d1	-1.1574135e-16
3	0x10f142cb	9.516065e-29
4	0x12026d25	4.11553e-28
5	0xaf5e28d1	-2.0205283e-10
6	0xaf41eb2c	-1.7636798e-10
7	0xaa06fb44	-1.1988766e-13
8	0x9d167ff2	-1.991848e-21
9	0x1f037b6f	2.784243e-20
10	0xad6f1f5c	-1.359254e-11
11	0xaf1eab17	-1.44308e-10
12	0xac7d99b4	-3.6038785e-12
13	0x9c30c31a	-5.848568e-22
14	0x95f7bcce	-1.00060387e-25
15	0xac4c2ce1	-2.9015056e-12
16	0xae0ea0e5	-3.2429965e-11
17	0xab4638f0	-7.042275e-13
18	0x92012ce7	-4.076057e-28
19	0x91c61a72	-3.125519e-28
20	0xa364851c	-1.2388092e-17
21	0xaa15402d	-1.3256124e-13
22	0x1ad02f97	8.610367e-23
23	0x11d37ed0	3.3368084e-28
24	0x11a88668	2.658856e-28
25	0xb280ffd0	-1.5017491e-08
26	0xaca844c7	-4.782483e-12
27	0x9240cf2a	-6.0839867e-28
28	0x123267eb	5.6294985e-28
29	0xa6ccd267	-1.4212373e-15
30	0xb2adb07e	-2.022011e-08
31	0xacbd5d13	-5.3820364e-12
32	0x122c0439	5.4278835e-28
33	0x96231852	-1.3174709e-25
34	0xa5e27c8c	-3.9289147e-16
35	0xb352613c	-4.898287e-08
36	0xb08c0c47	-1.018983e-09
37	0xa5e625c6	-3.9924236e-16
38	0x9d75e323	-3.2542907e-21
39	0x1fc0c373	8.1638507e-20
40	0xb41e795d	-1.4759048e-07
41	0xb130e1f1	-2.5739804e-09
42	0xa766317d	-3.194574e-15
43	0x9d52d9fd	-2.7905966e-21
44	0x9cd09cba	-1.3804798e-21
45	0xb369c387	-5.442737e-08
46	0xac8f1d7e	-4.0675787e-12
47	0x1230ffaa	5.585094e-28
48	0x1186025b	2.1142924e-28
49	0x11f7348a	3.9002108e-28
50	0x0fbd854c	1.8688183e-29
51	0x111f7987	1.2580337e-28
52	0x91305006	-1.3908611e-28
53	0x90e3484d	-8.964711e-29
54	0x90f016d1	-9.469846e-29
55	0x91c983c9	-3.1793427e-28
56	0x1147c2e1	1.5758384e-28
57	0x9104152f	-1.0419492e-28
58	0x90919cd6	-5.743406e-29
59	0x100441b1	2.6083017e-29
60	0x11c2035f	3.060988e-28
61	0x90852a53	-5.252446e-29
62	0x10593c8d	4.284235e-29
63	0x1104b212	1.0467836e-28
64	0x8fdf2e92	-2.2007436e-29
65	0x91e3eba8	-3.595952e-28
66	0x8e833280	-3.2342623e-30
67	0x9139f3d3	-1.4669061e-28
68	0x911856ba	-1.201741e-28
69	0x8f5772c9	-1.0622425e-29
70	0x913abe23	-1.4731403e-28
71	0x8f7b0656	-1.2376476e-29
72	0x0f7786d8	1.220401e-29
73	0x0f2e2298	8.585525e-30
74	0x8fe4aeeb	-2.2549912e-29
75	0x90ac8b15	-6.805633e-29
76	0x0eb63f0d	4.492718e-30
77	0x1aff207f	1.0551803e-22
78	0x0fc61a8f	1.9534537e-29
79	0x0f7e82c5	1.2548352e-29
80	0x8f55b4ec	-1.0536555e-29
81	0x90242762	-3.2373637e-29
82	0x8e3ac6c0	-2.3021965e-30
83	0x0f90d397	1.4280998e-29
84	0x0f90e3e2	1.4287274e-29
85	0x8e6574cd	-2.8282667e-30
86	0x902b57bc	-3.3791392e-29
87	0x8ee7be28	-5.712901e-30
88	0x8f0ad36d	-6.8446444e-30
89	0x0f95e5b8	1.4781019e-29
90	0x0e05cdc3	1.6492586e-30
91	0x90102723	-2.8429142e-29
92	0x0fb9b5f2	1.8312491e-29
93	0x8cb1dc68	-2.740382e-31
94	0x0e8b215a	3.4298262e-30
95	0x0fcb1ad8	2.0027685e-29
96	0x1447c29b	1.0085312e-26
97	0x1abf4ab8	7.911646e-23
98	0x948bd257	-1.4118378e-26
99	0x949a26cf	-1.5565333e-26
100	0x14bf60e3	1.9324286e-26
101	0x91f329c3	-3.8364378e-28
102	0x90dd2496	-8.72255e-29
103	0x9222903b	-5.1295964e-28
104	0x120453d4	4.175518e-28
105	0x1fd399a5	8.961616e-20
106	0x1491bca0	1.4715658e-26
107	0x11e06353	3.5402182e-28
108	0x9207a231	-4.2798405e-28
109	0x919e08e8	-2.4933494e-28
110	0x1fe7a2d9	9.8101714e-20
111	0x9612df7c	-1.1864305e-25
112	0x91ceb94c	-3.2615267e-28
113	0x91bafcf9	-2.9501532e-28
114	0x90a1852a	-6.3708475e-29
115	0x9cc70228	-1.3169273e-21
116	0x95c678f8	-8.016242e-26
117	0x11d597a0	3.369892e-28
118	0x91d491fc	-3.3537672e-28
119	0x11c7e6c4	3.1538884e-28
120	0x14b250b5	1.800524e-26
121	0x100743c5	2.6676263e-29
122	0x91f1d7ae	-3.8156019e-28
123	0x116a9f28	1.8508389e-28
124	0x10a4c024	6.4982634e-29
125	0x906899ea	-4.5872504e-29
126	0x909da1ba	-6.217476e-29
127	0x93ad82ba	-4.3800246e-27
128	0x108c7e69	5.541503e-29
129	0x10eeefc8	9.424389e-29
130	0x108667dc	5.30137e-29
131	0x15e80eeb	9.372759e-26
132	0x14f6d855	2.492498e-26
133	0x0f4c79ca	1.0081432e-29
134	0x11342bea	1.4213028e-28
135	0x0fbcb625	1.8608391e-29
136	0x94dca13b	-2.2277917e-26
137	0x981e656f	-2.0472232e-24
138	0x0f9496d6	1.4652027e-29
139	0x1167f194	1.8297129e-28
140	0x10816384	5.1034856e-29
141	0x91e28d0b	-3.5743437e-28
142	0x12801fec	8.085805e-28
143	0x110a43d1	1.0907178e-28
144	0x91921aa1	-2.305115e-28
145	0x1089a0e3	5.428486e-29
146	0x10dc587b	8.6911025e-29
147	0x1293154e	9.282256e-28
148	0x90c1ff65	-7.6518575e-29
149	0x11173718	1.1928777e-28
150	0x1131ac7b	1.4015988e-28
151	0x103d84d5	3.7376008e-29
152	0x0fc9acbd	1.9886667e-29
153	0x9037b649	-3.6230814e-29
154	0x109234ae	5.766801e-29
155	0x9045fc40	-3.9045726e-29
156	0x9048afa4	-3.9578354e-29
157	0x90b21895	-7.0246495e-29
158	0x1040fcc4	3.8060047e-29
159	0x90c33571	-7.699628e-29
160	0x105980b7	4.2894862e-29
161	0x10345409	3.556348e-29
162	0x1113c06f	1.1655553e-28
163	0x9071c4a4	-4.7680356e-29
164	0x9096d35e	-5.949023e-29
165	0x0fab0c82	1.686672e-29
166	0x90508aee	-4.1127795e-29
167	0x10b124fc	6.9871174e-29
168	0x8d3a6ebf	-5.744898e-31
169	0x8f6cd0ae	-1.16758886e-29
170	0x0f848c71	1.3070301e-29
171	0x909fa0bc	-6.296209e-29
172	0x0edae26e	5.3959193e-30
173	0x0e6aa1ae	2.8920573e-30
174	0x0ceb505e	3.6255852e-31
175	0x91037860	-1.0371171e-28
176	0x10500831	4.1027078e-29
177	0x8e878726	-3.3410213e-30
178	0x0f2a71f0	8.403591e-30
179	0x109f7403	6.2893186e-29
180	0x8fa31337	-1.6080442e-29
181	0x90484649	-3.949719e-29
182	0x10a2adbe	6.4165426e-29
183	0x0e05b5f4	1.6481123e-30
184	0x90844386	-5.2168856e-29
185	0x10019dac	2.556223e-29
186	0x10880188	5.36449e-29
187	0x9107c72e	-1.0710999e-28
188	0x906c40a9	-4.6592606e-29
189	0x8e867a80	-3.3151514e-30
190	0x90932597	-5.803919e-29
191	0x90bf235c	-7.5390696e-29
192	0x111d64f2	1.2416222e-28
193	0x10247a69	3.2437598e-29
194	0x120c9dc7	4.4370686e-28
195	0x9291939d	-9.187176e-28
196	0x90238416	-3.2247837e-29
197	0x931786c3	-1.9125322e-27
198	0x1326293c	2.0972476e-27
199	0x152617fe	3.354236e-26
200	0x90bf8e6c	-7.555565e-29
201	0x91899c29	-2.171103e-28
202	0x115fda2c	1.7658828e-28
203	0x917eb009	-2.0091312e-28
204	0x918fce0d	-2.268841e-28
205	0x10a8a3ea	6.6516866e-29
206	0x11cd83b0	3.2424456e-28
207	0x90c659cf	-7.82356e-29
208	0x9153efe9	-1.6718893e-28
209	0x909381ca	-5.818125e-29
210	0x11989df3	2.4078715e-28
211	0x10768c0b	4.862283e-29
212	0x111af5e2	1.2224226e-28
213	0x11692505	1.8391867e-28
214	0x9184c8f5	-2.0949777e-28
215	0x11146060	1.1704839e-28
216	0x0e46f320	2.4522445e-30
217	0x914d7e37	-1.6210542e-28
218	0x1080884c	5.0697097e-29
219	0x91564d50	-1.6905447e-28
220	0x91218b77	-1.2743636e-28
221	0x11241488	1.2943646e-28
222	0x11cfceb9	3.2786244e-28
223	0x117322f9	1.9180097e-28
224	0x11a41ae8	2.589122e-28
225	0x8f6013e8	-1.10478865e-29
226	0x10373c14	3.613667e-29
227	0x10644ca1	4.5024104e-29
228	0x0fed07e1	2.3373039e-29
229	0x0be82900	8.942484e-32
230	0x90aa4b80	-6.7169503e-29
231	0x0fd9e8a4	2.1487462e-29
232	0x10852822	5.2521085e-29
233	0x8f7969c8	-1.22970206e-29
234	0x0f192264	7.550106e-30
235	0x900b22cf	-2.7439732e-29
236	0x0fc7cb43	1.9701209e-29
237	0x8f5a7009	-1.0769807e-29
238	0x0ab6c677	1.7600617e-32
239	0x0ef4db3e	6.0361767e-30
240	0x8f9babb5	-1.5350319e-29
241	0x8f98f600	-1.5083113e-29
242	0x0f6ba87d	1.1618844e-29
243	0x0ec9f703	4.978819e-30
244	0x8f73c878	-1.2019434e-29
245	0x8d6af1a0	-7.2397663e-31
246	0x0fb10402	1.7455091e-29
247	0x8ee52023	-5.6483805e-30
248	0x8eeb677c	-5.8031625e-30
249	0x0e883f4e	3.358755e-30
250	0xaba89546	-1.197855e-12
251	0xa7992bed	-4.2513655e-15
252	0x9532d330	-3.611341e-26
253	0x95421672	-3.9195694e-26
254	0xa1dccca7	-1.4961951e-18
255	0xaca59125	-4.7056963e-12

3.bias f4 [32]
0	0xb48aecbd	-2.5876753e-07
1	0xba9a74cb	-0.0011784075
2	0xbcf46e70	-0.029837817
3	0xbc022910	-0.00794436
4	0xbbbf36e8	-0.0058354028
5	0x3dc44b09	0.09584624
6	0x3d761e10	0.060087264
7	0xbab23379	-0.0013595662
8	0xb7b522c9	-2.159308e-05
9	0xbd566326	-0.05234065
10	0xb9fdfb34	-0.0004844308
11	0x3d142649	0.036169324
12	0x3db5c7a8	0.08875972
13	0xbdc088a8	-0.09401065
14	0xbb90897d	-0.004410921
15	0x3dcd598d	0.10026846
16	0xba535ef5	-0.0008063161
17	0x3d41d7bf	0.047324892
18	0x3d9e5383	0.07730772
19	0xbd48d3c1	-0.04903007
20	0xbd53a6a6	-0.0516726
21	0x3dfdf288	0.12399775
22	0x3db2bb89	0.08727176
23	0x3d193514	0.037404135
24	0x3d86eb3d	0.06587837
25	0x3d39a466	0.0453228
26	0xbd22aba8	-0.039714485
27	0x3d15d082	0.0365758
28	0xbc717b7c	-0.014738914
29	0xbbfde258	-0.0077479295
30	0x3da488f3	0.080339335
31	0x3dcba69e	0.09943889

7.weight f4 [10, 512]
0	0x915813a6	-1.704545e-28
1	0x115b78e4	1.7313306e-28
2	0x0fa084e8	1.5828412e-29
3	0x91062e5b	-1.058502e-28
4	0x1139de3a	1.4662406e-28
5	0x11053a3d	1.0509796e-28
6	0x9127241c	-1.3185104e-28
7	0x1104fec7	1.0491473e-28
8	0x900dda4d	-2.797552e-29
9	0x10bd9119	7.4770914e-29
10	0x11250265	1.3016943e-28
11	0x1106454f	1.0592093e-28
12	0x90d95c0c	-8.573323e-29
13	0x8fb38cba	-1.7704969e-29
14	0x8f122194	-7.204823e-30
15	0x10b73639	7.2264316e-29
16	0xbc3af744	-0.011411492
17	0xbc231f33	-0.009956169
18	0xbc039ac9	-0.008032509
19	0xbc3647e3	-0.011125538
20	0xbc4143d8	-0.01179596
21	0xbc242b18	-0.01002004
22	0xbc16c64c	-0.009202551
23	0xbc475eea	-0.012168625
24	0xbc3ad70b	-0.011403809
25	0xbc324430	-0.010880515
26	0xbc2dcfaf	-0.010608598
27	0xbc47825e	-0.012177078
28	0xbc4314d0	-0.011906818
29	0xbc36b937	-0.011152557
30	0xbc4a8cc0	-0.012362659
31	0xbc1f5bec	-0.009726506
32	0xbda6f91c	-0.081529826
33	0x3dae2f94	0.085051686
34	0x3b9949ce	0.0046779877
35	0xbd5575b8	-0.05211422
36	0xbd7dd277	-0.061968293
37	0xbdc8193b	-0.09770437
38	0x3c8fc403	0.01754952
39	0xbd1f7f81	-0.038939957
40	0xbd51d236	-0.051225863
41	0xbd9325da	-0.07184954
42	0xbca48433	-0.020082569
43	0xbe039379	-0.12849225
44	0xbd253074	-0.04032941
45	0xbd2c84bc	-0.042118773
46	0xbcabaebf	-0.020957349
47	0xbbb1965b	-0.005419535
48	0xbab234b7	-0.0013596033
49	0xbcdd4f4b	-0.027015349
50	0x3cf92455	0.030412832
51	0x3d8f4bc9	0.06996877
52	0xbc2cb382	-0.010540845
53	0xbd275496	-0.04085215
54	0x3a12dc94	0.0005602327
55	0x3d5aed9e	0.053449266
56	0x3be68b49	0.007035647
57	0xbcc00c36	-0.023443323
58	0xbc0cc44a	-0.008591721
59	0xbc14df5c	-0.009086456
60	0xbc8fc55a	-0.01755016
61	0xbce5b0e4	-0.02803845
62	0x3d2cc151	0.04217655
63	0xbc4cd4f1	-0.012501941
64	0x3cd29a0f	0.025708226
65	0xbd130893	-0.03589685
66	0xbe24b231	-0.160836
67	0xbcec5025	-0.02884681
68	0xbd8098d7	-0.06279152
69	0x3bd6f2f5	0.0065597245
70	0xbd80306c	-0.06259236
71	0xbdcf2d41	-0.101160534
72	0x3d090833	0.033455085
73	0x3da23944	0.07921079
74	0xbc45d03c	-0.012073573
75	0x3d135204	0.035966888
76	0x3c1c7f4f	0.009551837
77	0x3d7d214e	0.06179934
78	0xbd9bc020	-0.07605004
79	0x3bc4deaa	0.006007989
80	0x3da1771a	0.07884045
81	0xba8438ee	-0.0010087767
82	0x3d678761	0.05652559
83	0x3c8fdcec	0.017561398
84	0xbaa550d7	-0.0012612593
85	0x3d4993a9	0.049213085
86	0xbc23de74	-0.010001767
87	0x3d2172e7	0.03941622
88	0x3ce5d9c7	0.028057946
89	0x3d10779e	0.035270326
90	0x3cef1f08	0.029189602
91	0x3bd501d3	0.0065004616
92	0x3cee543c	0.0290929
93	0xbcbdd67e	-0.023173567
94	0x3a15cac5	0.0005714114
95	0xbb7564ac	-0.0037444038
96	0x3d689c38	0.056789607
97	0x3bc244ad	0.005928597
98	0x3b119a92	0.0022217375
99	0x3d7b32ed	0.061327863
100	0x3c74cce6	0.01494143
101	0xbac20ec2	-0.0014805424
102	0x3d871244	0.06595281
103	0x3d052ae5	0.03251161
104	0x3c55c1fb	0.013046737
105	0xbc6d771f	-0.014493733
106	0xbca7f108	-0.020500675
107	0x3d468d72	0.048474737
108	0xbd52c7b8	-0.051459998
109	0xba85c22c	-0.0010204962
110	0xbd0b84c7	-0.034062173
111	0xbdd49542	-0.10380031
112	0x984f64ab	-2.6804947e-24
113	0xab025df1	-4.631565e-13
114	0x0010f2c6	1.556459e-39
115	0x89de0fcf	-5.3459422e-33
116	0xaee0a53b	-1.02156915e-10
117	0x34d319cf	3.932059e-07
118	0xb13661ff	-2.654019e-09
119	0xb31a1468	-3.587448e-08
120	0xb297de3e	-1.7679778e-08
121	0x35220a00	6.0364255e-07
122	0xb2a7d31a	-1.9537357e-08
123	0xb7275acc	-9.975116e-06
124	0xb5fbae57	-1.8751697e-06
125	0xb6a0f258	-4.796584e-06
126	0xb3246275	-3.827377e-08
127	0xb7c650ca	-2.364106e-05
128	0x98895d19	-3.5507675e-24
129	0x911eae7d	-1.2517771e-28
130	0x8fa82914	-1.6581902e-29
131	0x8f2abfe6	-8.4186054e-30
132	0xa7350940	-2.512381e-15
133	0x13c5cdf0	4.993286e-27
134	0x87a153ac	-2.4273765e-34
135	0x087c913a	7.6004205e-34
136	0xa3441d45	-1.0631379e-17
137	0x07234b4b	1.2284884e-34
138	0x078ac5d0	2.0880196e-34
139	0x898ffb66	-3.466241e-33
140	0x874a4595	-1.5217239e-34
141	0x07c76753	3.000292e-34
142	0x88daa12a	-1.3158287e-33
143	0x8796e9d7	-2.270693e-34
144	0xbcf6eb65	-0.030141542
145	0xbd75ae04	-0.059980407
146	0x3d961561	0.073282965
147	0x3dc77e74	0.09740916
148	0xbd3249e1	-0.043527488
149	0xbda7cb11	-0.08193029
150	0x3cbf3fae	0.023345795
151	0xbbb0bb4b	-0.005393421
152	0x3bd7ca1e	0.0065853735
153	0x3bc32a9a	0.0059560062
154	0xbd3d0211	-0.04614455
155	0x3caec498	0.021333978
156	0xbcc8ecfd	-0.024527067
157	0xbd919cd5	-0.071099915
158	0xbdadae41	-0.08480502
159	0xbe16e8a0	-0.14737177
160	0x3ca5128d	0.020150447
161	0x3c80eeb1	0.015738817
162	0x3c89d15a	0.01682346
163	0x3cab7d17	0.02093367
164	0x3c443ac6	0.011976903
165	0x3cacaa54	0.021077313
166	0x3c9c1335	0.019052127
167	0x3c58a912	0.013223903
168	0x3c25492b	0.010088245
169	0x3c60cc7c	0.013720628
170	0x3c60b58e	0.013715161
171	0x3c3d079a	0.011537457
172	0x3c16fc1f	0.009215384
173	0x3c4c7610	0.01247932
174	0x3c8c6e0c	0.017142318
175	0x3c458cc7	0.01205749
176	0x3d860256	0.06543414
177	0x3c337ebc	0.010955509
178	0xbb9dfec6	-0.004821631
179	0x3c852ea2	0.016257588
180	0x3d9b8660	0.07593989
181	0x3cb59720	0.022166789
182	0x3d60ca57	0.054880466
183	0xbc544b09	-0.012957343
184	0x3da40bde	0.08010076
185	0x3b4ed5b7	0.003156049
186	0x3c8b7ea5	0.017028162
187	0xbcbf14b8	-0.02332531
188	0x3e4168da	0.18887654
189	0xbddcff8c	-0.10790929
190	0xbc980e9b	-0.018561652
191	0xbb93f0ce	-0.00451479
192	0x3e5caa9f	0.21549462
193	0x3dc1d050	0.094635606
194	0x3d05bae0	0.03264892
195	0x3ce9af51	0.02852598
196	0xbc9d1d79	-0.019179093
197	0xbbf2e4c4	-0.007412525
198	0x3c0cb81f	0.00858882
199	0x3d660c4e	0.05616408
200	0xbd76988a	-0.060204066
201	0xbd1910ca	-0.037369527
202	0x3d5d37ac	0.05400817
203	0xbcb335aa	-0.021876175
204	0xbe1f92db	-0.15583365
205	0xbd49d482	-0.04927493
206	0xbd6af54a	-0.057362832
207	0xbaab0375	-0.0013047295
208	0x3ceb3503	0.028711801
209	0x3be48f59	0.006975096
210	0x3d4e2fa2	0.050338395
211	0x3c359a30	0.011084124
212	0x3d23968f	0.039938506
213	0xbce1ec82	-0.027578596
214	0xbb4eb09f	-0.003153838
215	0xbd085b9d	-0.033290494
216	0xbced5f1d	-0.028976018
217	0x3d052c76	0.032513104
218	0xbcb10bee	-0.021612134
219	0xbbfe645c	-0.0077634286
220	0x3d04eadd	0.032450546
221	0xbd113e34	-0.035459712
222	0x3caff122	0.021477286
223	0xbda81b64	-0.08208349
224	0xbb46f24e	-0.0030356827
225	0xbb836e65	-0.004010963
226	0xbba88025	-0.005142229
227	0xbbc83955	-0.00611035
228	0xbb456814	-0.003012185
229	0xbb856628	-0.004071016
230	0xbbb37c9c	-0.005477501
231	0xbbe6ced7	-0.0070437
232	0xbad05f30	-0.0015897509
233	0xbb83a5e5	-0.004017579
234	0xbbaa61d3	-0.00519965
235	0xbbe237f7	-0.006903644
236	0xba4ddd60	-0.0007853117
237	0xbb570c68	-0.0032813791
238	0xbb92fa7b	-0.004485426
239	0xbbcaa1b9	-0.0061838296
240	0x3ce67600	0.028132439
241	0x3d089416	0.03334435
242	0xbcf23d75	-0.02957032
243	0x3d8ff792	0.07029642
244	0xbcf92965	-0.030415246
245	0xbd0ba9b3	-0.034097385
246	0xbd5e7c8d	-0.054318
247	0x3c3e27d2	0.011606174
248	0x3d8143c1	0.06311751
249	0x3c894099	0.016754435
250	0xbbef9197	-0.007311057
251	0xbcd23fae	-0.02566513
252	0x3d2dc829	0.042427216
253	0xbcbb39b7	-0.022854669
254	0x3d07fe0c	0.033201262
255	0xbdb57edd	-0.08862088

7.bias f4 [10]
0	0x3da28ee7	0.07937413
1	0xbcee6886	-0.029102575
2	0x3d764281	0.060122017
3	0xbcd5b10e	-0.026085403
4	0xbdbda537	-0.09260028
5	0xbd6db496	-0.05803355
6	0x3d7c9c5f	0.061672565
7	0x3d989839	0.07450909
8	0xbcc88a1d	-0.02447992
9	0xbd85a2f9	-0.06525225
