Moritz_folder/Notebooks/trained_weights/FashionMNIST/FashionMNIST_weights_seed=4.pth (torch_old, 127416 bytes, 6 tensors)

0.weight f4 [32, 1, 5, 5]
00000000: d40e ebbb 8bb3 073d d092 7dbe 0f5b 35be
00000010: 7c9d 71be 95da 84be c9e2 573e 70fc 4b3e
00000020: 0930 f63d c791 7f3e 55e7 cbbd fac8 a1bd
00000030: 389a 553e ac76 bc3c c7fa 823d 8a56 223e
00000040: 34e9 f53d e0ec e6bd da80 63bd 01f7 1abe
00000050: f3e6 a33d 2ca6 28bd 3888 8b3d 071f 9e3d
00000060: f495 533e f908 ff39 5d84 f33d f323 a33d
00000070: 4419 3b3e 53ba 66bd 947f 1d3e bde3 f33d
00000080: da99 b9bd 91cc f83d e335 383e 64b3 12be
00000090: 3e2f c7bd 4539 ec3d a8f7 063e 800c 4cbb
000000a0: e347 cd3c 6066 073e feb9 3a3e 96f0 bebd
000000b0: 0bcd e1bd 7cc1 363e 2729 053e 092c a3bd
000000c0: 214d b2bc 4bde 203e ac36 d8bd e776 9f3e
000000d0: 65d3 a63e 783a 58be 5a1c 72be d459 813d
000000e0: 8ef2 473e b603 963e 9264 dc3d f219 673e
000000f0: e08c 8cbd c021 593e d6f0 35be 5854 2c3e
00000100: 3a55 053e e508 423e d6a5 b53d 64de 88be
00000110: ce9c 44bd 7de3 4dbb 812e 953d 020b 80be
00000120: c51d 8cbe 7e19 29be 1dd7 1fbe 999b 563e
00000130: adf4 923e e515 a93d 7edd 45be ba25 b8be
00000140: d9c6 733d 69bd a63e 7ea4 123e 3c3c 48be
00000150: dea2 28be 198c 60bd 4afb 773e a7dc 0f3e
00000160: 63e7 13be b748 9abe bbd7 e03a c38c 513e
00000170: a8cf 5e3e f573 133e 3959 fb3c 3948 f7bd
00000180: 89ae b2bd b8e6 363e bc09 313e 8d40 32be
00000190: 5930 42be 84d7 8d3d 2c51 923d 562e 4cbd
000001a0: 6d22 4abe ece2 573d f61f 9cbe c64e 4abe
000001b0: 1dd8 8fbc b52e 38bd d566 403e 6f05 fbbc
000001c0: 5cca 80be 1abf 923c ebc0 8f3d 34e4 513e
000001d0: 0c6c d4bc bbc4 d3bd 1e72 513e a587 473e
000001e0: 0ea0 b63d 88fa 2abe a027 2a3c d9ef 0b3e
000001f0: 1bb9 5a3e 61ce 01be 4392 efbb ee5d cc3d
00000200: 02c5 5d3c ed9f ff3d 717c 3abd 5320 623e
00000210: 0192 9b3b 3d90 38bd ed06 a53d 9842 97bb
00000220: ae79 373e 8f4f 8abd dda4 da3d 198a 46bd
00000230: 6844 893c d8cb be3d 8ffe 3dbe bccf 413d
00000240: d73a cd3d c511 913d 5565 823d 73aa 8abc
00000250: 9dae ac3d a026 4e3d d8b3 69bd ca86 ee3d
00000260: 743a f4bd 503a 923d b00d c4bd b297 c1bd
00000270: 36d0 09be f448 4a3e 3a8a 6a3d 8c65 87bd
00000280: 1b02 95bc d365 67bc 4324 2fbd 4fab f73d
00000290: 6285 72be 4541 5cbd a8ba 373e 7f00 8a3e
000002a0: 1d48 03bd b6f8 9ebe f602 5e3e 950f 333e
000002b0: 661b 5b3e f6c2 f4bc 0d59 24be 5943 8c3d
000002c0: 30bf de3d 3f52 e5bc d030 90be 8549 cd3d
000002d0: f59f 563e d189 113e a76d 01be 4da5 6dbe
000002e0: a6e8 28be 8587 6c3d cd1d 443e fec4 3f3d
000002f0: 3ff9 3bbd da5d 8abe 89af 28bc a3de 493e
00000300: 062d 8f3e 5a7d 85be a680 e1bd d821 fa3d
00000310: dfe8 8e3d 3079 053e 6c91 a33d d257 a2be
00000320: 4238 b43d df09 aebe fd13 d8bc f493 b93e
00000330: 0ac0 b8bd 1a49 c5bb 12c3 bbbe d79a 96bd
00000340: 1bda b33e 202e b13d e9b0 a23d f859 33be
00000350: 818d 80be 9fcd 933e 3016 623d fbde eb3d
00000360: 3199 a7bd a841 9bbe 46c6 b43d a018 6c3e
00000370: af81 9e3e f604 91be 484d b1be acc5 123e
00000380: 3e2d 353e d732 0abe 2a88 89bb de7c 88be
00000390: bed9 ab3d 555e 9e3e 823b f5bd 91ec 48be
000003a0: 4719 dcbd e8b8 5e3e e72c 343e 7992 43bc
000003b0: cbc3 2abd 0812 82be 3910 82bc 3e3a ae3e
000003c0: 7102 1dbe 94e3 b03b 057f 66be 76e1 e73d
000003d0: 80ed 7e3e 92cb 163e 4d43 2abe 425a 13be
000003e0: e5bb 94bd cccb 623e 421b 81be d45b 07be
000003f0: 4f14 86be a8b4 2bbe 3431 91be 8d0a 97be
-0.0071733985 0.03313021 -0.24763036 -0.17710517 -0.23595232 -0.25948015 0.21082605 0.19920516
0.12020881 0.24957953 -0.099562325 -0.07899661 0.20859611 0.023005806 0.06395488 0.15853325
0.120073706 -0.11275649 -0.055542804 -0.15133287 0.080030344 -0.0411741 0.06813091 0.07720762
0.20662671 0.00048644075 0.11890481 0.07965841 0.18271357 -0.056330036 0.15380698 0.11908672
-0.09062548 0.12148393 0.17989306 -0.14326245 -0.097258076 0.11534361 0.13180411 -0.003113538
0.025058692 0.13222647 0.18235013 -0.09323232 -0.11025437 0.17847246 0.1300398 -0.079673834
-0.021765294 0.15709798 -0.10557303 0.31145403 0.32583156 -0.21116054 -0.23643628 0.063159615
0.19526121 0.29299706 0.1076137 0.22568491 -0.06862807 0.21204281 -0.17767653 0.1682905
0.13020793 0.18948705 0.08869521 -0.2673217 -0.048001103 -0.003141611 0.072842605 -0.25008398
-0.27366462 -0.16513631 -0.15609403 0.20957793 0.28702298 0.08256129 -0.19322774 -0.35966283
0.059515808 0.32566383 0.14320561 -0.19554228 -0.16468379 -0.054821108 0.24216953 0.14049016
-0.14443736 -0.30133602 0.0017154136 0.20463853 0.21758902 0.14399703 0.030682193 -0.12074322
-0.08724696 0.1786145 0.1728887 -0.17407437 -0.18963756 0.06925872 0.071443886 -0.049848877
-0.19739695 0.052706644 -0.30493134 -0.19756612 -0.017559106 -0.04496642 0.18789227 -0.03064224
-0.25154388 0.01791339 0.07019218 0.20497209 -0.025930427 -0.10340258 0.20453689 0.19485338
0.08917247 -0.16697133 0.010385424 0.13665713 0.21359675 -0.12676384 -0.007311137 0.09978853
0.01353574 0.12481675 -0.045528833 0.22082643 0.0047476296 -0.04505943 0.080579616 -0.004616093
0.17917511 -0.06753456 0.106759764 -0.048471544 0.016756251 0.09316224 -0.18554138 0.04731725
0.100209884 0.070834674 0.06366984 -0.01692698 0.08431742 0.050329804 -0.057056278 0.11646803
-0.119252115 0.071400285 -0.09572923 -0.09452762 -0.13458332 0.19754392 0.05726073 -0.066111654
-0.01818948 -0.014123398 -0.04275919 0.120932214 -0.23683694 -0.053773183 0.17942297 0.26953503
-0.032051194 -0.31049126 0.21680817 0.17486413 0.2139717 -0.02987812 -0.16049595 0.06848783
0.1087631 -0.02799332 -0.2816224 0.10023788 0.20959456 0.14212729 -0.12639485 -0.23207588
-0.16494998 0.05774643 0.19151993 0.046818726 -0.045891996 -0.27024728 -0.010295757 0.19713835
0.27964038 -0.26072198 -0.11010866 0.122134864 0.069780104 0.1303451 0.079867214 -0.31707627
0.08799793 -0.33991906 -0.026376719 0.36245692 -0.090210035 -0.0060206773 -0.36672264 -0.07353752
0.3512734 0.08651376 0.07943899 -0.17514789 -0.2510796 0.28867814 0.05519694 0.115171395
-0.08183516 -0.3032353 0.0882688 0.23056269 0.30958316 -0.28324097 -0.34629273 0.14333218
0.1769304 -0.13495956 -0.00419714 -0.26657766 0.083911404 0.30931345 -0.11974241 -0.19621493
-0.10747009 0.21750224 0.17595254 -0.011936777 -0.04169063 -0.25404382 -0.015876876 0.3402881
-0.15332963 0.005398223 -0.22509392 0.113223 0.24895287 0.14726093 -0.16627236 -0.143899
-0.072624005 0.22148055 -0.2521611 -0.13218623 -0.2618737 -0.16768134 -0.28357852 -0.29500237

0.bias f4 [32]
00000000: 0531 edbd 7580 5a3d 0360 b8bd 7177 683b
00000010: 5965 ec3c fae2 023a ed81 4fbd d07c b2b9
00000020: 2e34 ccba 8a6c 9b3d df55 c1bc b701 b6bd
00000030: 8d66 263e 8288 ad3e ae58 ee3d 638b 523e
00000040: 18ff 863e bbd2 dc3d 4880 d33a ba47 403d
00000050: 4dff 46bb 5447 7d39 8f5b 573a b9fc 793e
00000060: 7d8f ad3b 1761 b3bd 595e 03be a3b6 933b
00000070: 1ccf 193c a688 063d 4a11 363e 6ca1 853b
-0.11581615 0.053345162 -0.09002688 0.0035471583 0.02885692 0.00049929286 -0.050661016 -0.00034043798
-0.0015579516 0.075890616 -0.023600517 -0.08887046 0.16250058 0.3389321 0.11638008 0.20560984
0.26366496 0.10782381 0.0016136253 0.046943404 -0.0030364573 0.00024154532 0.00082152424 0.24412812
0.005296646 -0.08758753 -0.1282896 0.004507856 0.009387758 0.03284516 0.17780033 0.004078081

3.weight f4 [32, 32, 5, 5]
00000000: 53b2 3abd 3527 7b3d 41e3 d33c d03a 79bc
00000010: a53d 9a3c f6d5 b93c 4a1b cd3c d371 eabb
00000020: a796 74bc 8266 043d f746 1cbb f72f df3b
00000030: 7a18 d2bb 6edc 9dbc 8ca1 573c 682b fe3b
00000040: 28af cf3b 37d3 a43c 0b4c ef3c 6151 f9bc
00000050: d240 313d 1f6e b03b 3fca 04bd 1458 79bd
00000060: 2303 55bd d9c2 823c bf24 143d 04a8 df3b
00000070: 3f4f c23c db2c 323d 7f91 e13a ccda c33c
00000080: 6182 913c 988f 0d3d 3914 fa3c 31e8 db3c
00000090: 3564 293c c4b3 cc3c 958b f23c b05c 84bb
000000a0: e8f8 813c f0ae 873c 8abd cb3c 0b54 8f3c
000000b0: 6b25 093c 1d38 0f3c 7a8a 293c c5a0 db3c
000000c0: 4daa d9bc 99da f83b 3aca a8bd 6d72 68bd
000000d0: 49f9 debc c4df 933d 8302 c53c 7f1d b9bd
000000e0: 40ca 76bc 0b59 87bd 9440 ccbc e7fa d53c
000000f0: 25df 103d 1065 62bd 0ed7 20bd 67a1 68bd
00000100: 3404 47bc 8973 80bc 9270 143c e701 20bd
00000110: efc3 193d 6aff 5b3d 903d cdba ca0e aa3d
00000120: 8f74 943d 04c4 593e e205 423e 43b1 ebbc
00000130: 9f1f b8bd 0a9a 08bd f167 953c aeb5 a33d
00000140: c723 2cbb d597 40bd 8dd6 ad3c 5447 eabb
00000150: 4717 e83a 9049 663d 689c c93b 3e93 cabc
00000160: 28a1 b5bc 67eb 11bd 7ce9 503d 8041 bbbb
00000170: 4d33 49bd 6467 d6bb c9d1 053c 7c1c d63d
00000180: e781 21bc 3ca4 12bd 19c3 24bd fbaf 8cbc
00000190: 84a3 b13d b0e9 453d 55a2 4cbd 215f 20bd
000001a0: 4f54 89bb 6cbc a83c 0a75 9a3c 40e7 a0bd
000001b0: 0d98 243b 6eba 4c3d 86f9 473d 27b1 3d3d
000001c0: 2c6c 1a3d 88e5 613c 9c88 393d aaa4 c13d
000001d0: 7d74 733d cec2 453d fc61 743d e41f fabc
000001e0: db83 8d3d 50d7 103d ecca 73bc fc54 66bc
000001f0: 211b 0ebe 8041 d9bc 6cbe 02bc 3177 033d
00000200: 777c c03c 53aa f43b d492 403a e814 b337
00000210: 9821 86bc c9d2 413b b03a adbc 0ecc 1f3d
00000220: 696d a03b 5fc4 66bc 6d1f 08bd 701f 85bb
00000230: 8c9a 3e3c eb1c fdbb 9f3b e03c e31b abbc
00000240: 145e b83c 142e ae3c 1087 d53c 62d3 b8bb
00000250: a18e 39bd 083a a8bc 8e85 253c da81 c0bc
00000260: 5dce 9f3b d8d4 92bc 1a74 01bd 2bf9 5a3d
00000270: 6b4e 97bd e671 9ebd 1b9b 57bd c2c0 6c3c
00000280: 9040 dabc e029 a8bc d8c6 a3bd 0283 44bd
00000290: b278 043d 115e 30bd e2bf a9bc 9a00 8ebd
000002a0: 4595 e7bc 07fc 2f3d 43c7 febc 0d8d 1ebd
000002b0: 59dc d03b bd91 12bc d528 7fbd 9e9c a03b
000002c0: b7a0 03be c5f5 84bd a6a1 a53b 374e 4f3c
000002d0: 0f7c 4abc 3fe9 f3bd 7354 9cbd fb8e d2bc
000002e0: 7403 54bd 7dfa a3bb ae78 8cbd 1ac2 1abe
000002f0: d12b 9bbd 92dd bfbd 30dd 633d 93c5 00be
00000300: e761 1dbe 34c7 bcbd 7fff 20bd 67e1 b63c
00000310: 78a2 f5bd bfd5 efbd 887b b5bd 470e e1bc
00000320: 9e4c c23c b156 2f3d 34a5 9ebc ab2d b93d
00000330: 20ba 0d3d b441 a43c c473 47bd 0b46 63bd
00000340: ba8f 1ebd 8d6c 973c fdae 283d 9da3 82bd
00000350: 80e4 13bd 309c a4bd a20d a2bc dabc 3b3d
00000360: 90df 813c df02 38bd 67f7 8fbd 9733 edbd
00000370: 1397 7f3d eabf 9fbc f98f adbd 82c3 a1bd
00000380: f899 1cbe 04eb 7fbc 4085 2c3d 8dfc f83c
00000390: 6ef2 983d 3ff0 57bd 2029 ccbb 8a15 0bbd
000003a0: 8f42 b0bd aa61 a3bc 5943 64bd 6293 77bc
000003b0: 5d94 00be 3ae6 b9bd de09 d8bd 3122 bfbd
000003c0: fd11 09bd 7ed7 e1bd 940d c1bd e8a2 86bd
000003d0: b82e 2cbe 8126 dcbc 1b50 0dbe 7058 13be
000003e0: 968c e0bd 94f6 30be 664b cb3b fc4e c53c
000003f0: 3a3c 6f3c 9e61 b4bc 1b2f 35bd 5c30 82bb
-0.04558022 0.061316688 0.025865199 -0.015211776 0.018828223 0.022685032 0.025037427 -0.007154682
-0.014928496 0.03232432 -0.002384601 0.006811138 -0.0064116092 -0.019270148 0.013161074 0.0077566393
0.006338019 0.020120246 0.029211065 -0.030434312 0.043274708 0.005384221 -0.03241944 -0.060875013
-0.052004945 0.015962051 0.036167856 0.006825449 0.023719428 0.04349981 0.0017209499 0.023908041
0.017762365 0.03456077 0.030527221 0.026844116 0.010338833 0.024988063 0.029607574 -0.0040393695
0.015865758 0.016562909 0.024870653 0.01749613 0.008370738 0.008741406 0.010347957 0.02681006
-0.026570464 0.0075944182 -0.08241697 -0.05674975 -0.027218478 0.07220414 0.02404905 -0.09038829
-0.015062869 -0.066087805 -0.024933137 0.026120616 0.035369057 -0.055272162 -0.039267592 -0.05679455
-0.012146998 -0.015680091 0.009060042 -0.039064314 0.037540372 0.05371038 -0.0015658606 0.08303602
0.07248794 0.2126618 0.18947557 -0.028771048 -0.08990406 -0.033350028 0.01823804 0.07993637
-0.0026266442 -0.0470198 0.02122047 -0.0071496163 0.0017707133 0.0562225 0.0061526783 -0.024728414
-0.022171572 -0.035624888 0.051003918 -0.0057145953 -0.04912119 -0.006543087 0.008167692 0.10454652
-0.009857631 -0.035801157 -0.040225122 -0.017173758 0.08673766 0.048318565 -0.0499595 -0.039153222
-0.0041909586 0.020597659 0.018854637 -0.078566074 0.0025115043 0.04998248 0.04882195 0.046311524
0.037700817 0.013787635 0.045296296 0.09455235 0.059437264 0.048281483 0.059663758 -0.030532785
0.06909915 0.035361588 -0.014879923 -0.014058348 -0.13877536 -0.02652049 -0.00797997 0.03209609
0.02349685 0.0074665933 0.0007346098 2.1348198e-05 -0.01637344 0.00295751 -0.021146148 0.03901296
0.004895855 -0.014084904 -0.033233095 -0.0040625855 0.0116335265 -0.0077243946 0.02737218 -0.02088732
0.022505797 0.021262206 0.02606538 -0.005640433 -0.045302037 -0.020535484 0.010102643 -0.023499418
0.0048768953 -0.017923757 -0.031604864 0.05346028 -0.07388004 -0.07736568 -0.052638154 0.014450254
-0.026642114 -0.02052778 -0.07996911 -0.0479765 0.032341667 -0.04305846 -0.02072138 -0.069337085
-0.02826942 0.04296496 -0.031100875 -0.038708735 0.0063739237 -0.0089458795 -0.0622948 0.0049014827
-0.12854277 -0.06492189 0.0050546704 0.012652925 -0.012358679 -0.119097225 -0.07633295 -0.025702944
-0.051761106 -0.0050042258 -0.06858955 -0.15113106 -0.07576717 -0.09368433 0.055630863 -0.12575369
-0.15369378 -0.092176825 -0.03930616 0.022324277 -0.11993879 -0.11710691 -0.08861452 -0.027472628
0.023718175 0.042807285 -0.019365884 0.090419136 0.03460133 0.020050861 -0.048694387 -0.05548672
-0.038711287 0.018484378 0.041182507 -0.06378863 -0.036106586 -0.08037603 -0.019781891 0.0458344
0.015853673 -0.044924613 -0.0702961 -0.115821056 0.062399935 -0.019500691 -0.08474726 -0.07898618
-0.1529311 -0.015619997 0.042119265 0.030393863 0.07468115 -0.05271935 -0.0062304884 -0.033956088
-0.08606445 -0.01994403 -0.05572829 -0.015110822 -0.12556596 -0.09077115 -0.10548757 -0.09332693
-0.03346442 -0.1102743 -0.09426418 -0.06574041 -0.16814697 -0.026873829 -0.13800089 -0.14389205
-0.10964315 -0.17281562 0.0062040566 0.024085514 0.0146017615 -0.022019204 -0.044234376 -0.00397305

3.bias f4 [32]
00000000: c9d2 f23c a35f 83bc 6519 623d 6ac5 00bc
00000010: 013a 683c b5b4 563d a5d4 aa3d c535 8e3c
00000020: 64a0 11b8 bbe7 a9bb 2a8e 1f3c ee74 66bb
00000030: c56a e13d 86e6 633c 8b16 e73c 58c8 a4ba
00000040: fcd5 65b9 7ced 043d f44b 163e 75f7 3eba
00000050: 4b88 08ba fa9c 7a3c 2110 98bb becc e8bb
00000060: 7f71 e13c 5169 d63d 02f7 223d 2c5a 1bbd
00000070: b518 dbb9 4818 1dbc 609a 3bbb 8efd e0bc
0.029641526 -0.016036814 0.0552 -0.007859567 0.014173985 0.05241843 0.0834134 0.017359624
-3.472007e-05 -0.005185095 0.009738484 -0.003516491 0.11006693 0.013909942 0.028208992 -0.0012571914
-0.00021918857 0.032453045 0.14677411 -0.0007284799 -0.00052082975 0.015296215 -0.0046405946 -0.0071044853
0.02751994 0.10469306 0.039786346 -0.03792779 -0.00041789343 -0.009588309 -0.002862595 -0.027464654

7.weight f4 [10, 512]
00000000: 2933 033e 96aa 433d d231 343d a161 393c
00000010: 7b82 eb3c 1336 19ba 47ff 2c3c 4bfc e8bc
00000020: ec89 2f3c 9994 f03c 3454 1b3c 4e83 473d
00000030: ea23 73bd b910 513a 8d36 0b3d 09e8 9fbd
00000040: 227c 04bd b5e5 5d3d a704 0b3d a4d8 5bbd
00000050: d915 ae3c 8603 88bc 6c1d 3c3c 48f7 75bc
00000060: 29ed 653c b837 0fbd b166 06bd a372 173d
00000070: b3b8 14bd c1e3 a7bc fd81 9dbc 98ab 69bd
00000080: 7386 4cbc 7806 59bd 72b4 fa3d 1936 093e
00000090: fb82 0cbd f241 21bd 2a38 26bd 65b4 d83d
000000a0: 4d63 233c 8bf2 6e3d 9ce3 81bc 7e07 32bd
000000b0: 3018 683c 5a97 77ba 1871 99bc ad0d b7bd
000000c0: c4e0 cb3d 9034 c73d e388 3f3d 65b7 c2bb
000000d0: db20 a5bc 02b1 3c3c febf 793c 8d7c 19bd
000000e0: 24e0 81bd f0d3 883c 7b73 15bc 0c1b 0abd
000000f0: 8ddd cdbc 6058 663c 172f e03b 05c7 19bd
00000100: 02ac 923c 32d6 54bd 6eb3 ed3c 9b5a b33c
00000110: 48e4 663c 7f9c f8bc 206c 02bd e577 8f3a
00000120: 487f 00bb 22ef d33c 9100 74bc 478f 93bc
00000130: 4aca f0ba 5af0 6d3a 330d 803d c98d f03c
00000140: 22ac 493b c9bd 313d d4db ce3c 0f12 2f3e
00000150: 3761 a23b 5810 003d 7c7d 4a3c 7f0c 5e3d
00000160: 8fc3 7e3c c4e2 c43c b51d cbbb 0b35 133d
00000170: 6fc8 94bd fea6 d7bd 765d 91bd a5e5 05be
00000180: 3c98 cd3d 23fa eebb cb41 24bd 04df 61bd
00000190: 8486 463d b66e ec3c 9884 95bd 6efc 36bd
000001a0: b837 9e3d 65c5 e5bb ad7b 163d e2de 153c
000001b0: e9b5 3dbb 16b3 35bd 64a8 023d b9ab b43c
000001c0: 26e7 ea3a 277f c0bd cc47 da3d b106 303d
000001d0: 8289 1ebd 3965 69bd 5301 cebc cfba da3d
000001e0: 1de6 783c 9729 38bc 18e6 c93c 4216 703d
000001f0: c2da 033c bcf1 acbd 72f9 cdbd 8da9 a6bd
00000200: a36f 0680 af5d 6503 b077 0680 f70d 0c80
00000210: 7832 cf81 5734 0000 2947 0880 923c 0800
00000220: d9dc 0c80 c434 0d00 ffd7 0180 c62d 0080
00000230: c95d 0380 a7f3 0800 ecd0 0e00 0f44 0200
00000240: 044e 1bbe ceef 88bd f03a 323d 6442 373d
00000250: 764d bfbd 0faf 45be caa0 013a 460d 2bbd
00000260: 6bbd ea3b 6298 32be 2f5a 263d 1325 03bd
00000270: c43e 8b3d 0ecb 37be ed7d 49bc 28f4 a63c
00000280: 71c5 a73d f155 7dbc 693a bebc f991 d93d
00000290: e8a7 d53c 7566 d2bc 88e8 cd3c edf5 143c
000002a0: 8b14 f33c 6903 e23c f66c a03d 764d 5fbd
000002b0: cfb7 b8bb ba55 1ebc 52bd 783d adce 07bd
000002c0: 7898 3dbc 2e38 57bc 02b3 3dbc aa65 b5bb
000002d0: 8b23 3abc 0356 42bc a5d5 6dbc 3505 f7bb
000002e0: a4a9 17bc 5790 4fbc 121c 83bc e24b 0fbc
000002f0: 8f6d 73bc 54a5 89bc df1d 93bc aad6 26bc
00000300: 7552 63bd cb1f aa3d bafb ea3c 1cd7 923d
00000310: e720 2ebd 908c 20be db88 703c 5e21 0d3d
00000320: fe7f 06bc ca03 47bd e73b bc3c e6c4 42bd
00000330: e2c4 eabc d30d 15bd 9cf0 343d ecba 883c
00000340: 539a 8d3d ae89 a63d 67ca 4ebd ae3a d3bd
00000350: 835c ca3c 274a 173b 455b 9c3c bc87 b63c
00000360: 17f2 2fbd 22fa 2bbd 52ad b3bc 6bbe 0b3d
00000370: 89d7 fabd 03d8 553d 8dc3 273b c006 1c3d
00000380: 2ce5 25bd 6254 10bd d736 0dbd dd24 a63d
00000390: 50ea 813d 8b5d d83c d17a 6a3c 1bb9 c9bc
000003a0: ff65 793d 08d0 05bd edeb cf3c ec7b f43c
000003b0: 06fb 313d b9a1 87bd 37ba 313d 5622 78bd
000003c0: b99e 6fb8 1c29 d937 b711 74b5 61ca a9b2
000003d0: 9e89 2624 9e95 9f24 28b4 57b3 24ee dd30
000003e0: ec68 8033 832d 4436 9e7d 0436 440f a435
000003f0: bd31 b935 bbb9 3f31 8617 93a4 dcb2 7ca6
0.12812485 0.047770105 0.043992825 0.01131478 0.028748741 -0.00058445445 0.01055891 -0.028440615
0.0107140355 0.029367732 0.009480525 0.048709206 -0.059360422 0.0007975209 0.03398757 -0.07807929
-0.032344945 0.054174144 0.033939984 -0.0536734 0.021250652 -0.016603243 0.011481624 -0.01501257
0.014033594 -0.034965247 -0.032812778 0.03697456 -0.036308955 -0.020494344 -0.019227022 -0.05704841
-0.012483227 -0.052984685 0.122414485 0.13399543 -0.0343046 -0.03936953 -0.040580906 0.105812825
0.009972406 0.058336776 -0.015855603 -0.043464176 0.014165923 -0.00094448554 -0.018730685 -0.08938155
0.0995498 0.097268224 0.046761405 -0.0059422725 -0.020157268 0.011516811 0.015243528 -0.037472297
-0.063415796 0.016702622 -0.009121771 -0.0337172 -0.025130058 0.014059156 0.006841551 -0.037543315
0.017904285 -0.051962085 0.029016223 0.02189379 0.014092512 -0.03034806 -0.031841397 0.0010945766
-0.0019607116 0.025870863 -0.014892713 -0.018012656 -0.0018370834 0.00090766477 0.062525176 0.029364483
0.0030772765 0.043393884 0.025251307 0.17096733 0.0049554366 0.031265587 0.012359019 0.054211136
0.0155495545 0.024033912 -0.0061986097 0.035939258 -0.07264792 -0.10529898 -0.070979044 -0.13075884
0.10038802 -0.007293002 -0.040101808 -0.055144325 0.048468128 0.028861385 -0.07300681 -0.04467433
0.07725471 -0.0070120567 0.03673904 0.009147378 -0.0028947538 -0.044360243 0.03189887 0.02205454
0.0017921671 -0.093992524 0.106582254 0.04297513 -0.038705356 -0.0569813 -0.025147116 0.10680162
0.015191582 -0.011240385 0.02464585 0.058614977 0.008047761 -0.08444545 -0.100573435 -0.08137808
-5.9106e-40 6.7404595e-37 -5.93949e-40 -1.107036e-39 -7.611221e-38 1.8776e-41 -7.60211e-40 7.56413e-40
-1.181251e-39 1.21279e-39 -1.6932e-40 -1.642e-41 -3.0915e-40 8.2209e-40 1.360644e-39 2.08086e-40
-0.1516648 -0.06686364 0.04351324 0.04474105 -0.093409464 -0.19305061 0.0004944919 -0.041760705
0.0071636937 -0.17440942 0.04061335 -0.03201778 0.06799081 -0.17948553 -0.012298089 0.020380095
0.08191956 -0.015462385 -0.023221212 0.10623545 0.02608104 -0.025683621 0.025135294 0.009091836
0.029672882 0.027589517 0.07833283 -0.054517232 -0.005637146 -0.0096639935 0.060727425 -0.033156086
-0.011571996 -0.013135953 -0.011578323 -0.005535801 -0.011361013 -0.011861327 -0.014516269 -0.0075384625
-0.009256754 -0.012668691 -0.016004596 -0.008746119 -0.014857664 -0.016802467 -0.01795858 -0.010183016
-0.05549856 0.08306845 0.028684486 0.07169935 -0.042511847 -0.1567862 0.014681066 0.03445565
-0.008209227 -0.048587598 0.022977782 -0.04755106 -0.028658334 -0.036390137 0.044174775 0.016690694
0.06914201 0.08131729 -0.050485995 -0.10313927 0.024702316 0.002308497 0.01908649 0.02228152
-0.042955484 -0.041986592 -0.021933232 0.034117144 -0.12248141 0.052207958 0.0025598735 0.038092375
-0.04050176 -0.035236724 -0.034476127 0.081125 0.0634352 0.026411792 0.014311508 -0.024624398
0.060888287 -0.032669097 0.025381053 0.029844247 0.043452285 -0.06622643 0.04339048 -0.06057962
-5.7129862e-05 2.5887559e-05 -9.092286e-07 -1.976622e-08 3.611208e-17 6.920872e-17 -5.022244e-08 1.614755e-09
5.97955e-08 2.9232767e-06 1.9742652e-06 1.2223395e-06 1.379805e-06 2.7899734e-09 -6.379094e-17 -8.7672463e-16

7.bias f4 [10]
00000000: 3abb d63c 80f9 61bd ea61 1a3d 1092 62bb
00000010: 6b9c d3bd 36ff 83bd f78c 493d cd10 103d
00000020: 0306 2a3d 5cb6 45bd
0.026212323 -0.055169582 0.037691034 -0.0034571923 -0.10332569 -0.06445162 0.0492067 0.035172272
0.04150964 -0.048269615
