Moritz_folder/Notebooks/trained_weights/FashionMNIST/FashionMNIST_weights_seed=7.pth (torch_old, 127416 bytes, 6 tensors)

0.weight f4 [32, 1, 5, 5]
-0.21526241 -0.37606692 -0.04273424 -0.15295987 -0.22455059 -0.113671266 -0.28307834 -0.020682435
-0.187088 0.111482665 0.2443754 0.088848814 -0.08004839 -0.13245507 0.0038432525 0.027904304
0.22016183 -0.05989038 0.288801 -0.047667243 0.22746308 0.11462159 0.16065949 0.19088739
0.1285822 0.041384913 0.15524687 0.007941149 0.1134918 -0.15814245 0.15496545 0.05755015
0.008330091 0.049546335 0.08371275 0.18174398 -0.06820491 -0.11827429 -0.05112134 -0.1366835
0.11922577 -0.1115766 -0.104826346 0.13728037 0.13459016 0.023723815 -0.10040326 -0.04979918
0.0245801 -0.21436973 -0.1830204 0.24381654 0.31165943 0.027334638 -0.1653509 -0.009559368
-0.05150742 0.08518745 0.13602392 0.11408718 -0.0062579424 0.037877206 0.11502118 -0.12892605
-0.044422455 0.0105522415 -0.1235573 -0.036244307 0.075498186 0.09253218 0.026361827 -0.081735276
0.15894401 -0.07771098 -0.044627447 0.2193039 -0.0031321268 0.031128272 0.08742613 -0.088863134
0.22957681 -0.20760486 -0.01668717 0.057826567 -0.08244313 -0.042027812 0.035028603 0.07972834
0.014003082 0.14276294 -0.17144006 -0.1646759 0.15226112 0.03775369 -0.1443238 -0.150994
-0.22510546 0.165476 0.123971455 0.13143809 -0.0016241804 -0.002507145 -0.0032576332 -0.0029752061
-0.0047264784 -0.00132025 -0.0022469964 -0.0029907771 -0.0028641503 -0.0049595167 -0.0011133713 -0.0027152
-0.0036886705 -0.002931219 -0.004826566 -0.0011175484 -0.0020131352 -0.0032452575 -0.0022888503 -0.004084973
-0.001331276 -0.0023079577 -0.0035830473 -0.0025451595 -0.0035848403 -0.20363611 -0.28818697 -0.142079
0.22402388 0.21019302 -0.26777023 -0.17866546 -0.19389853 0.2786843 0.25149575 0.020294413
-0.16444942 0.10880053 0.2570984 -0.04968737 -0.035400856 0.09746315 0.10889206 0.0967691
-0.13747282 -0.20898752 -0.016878566 0.00037188455 0.254004 0.010432056 -0.11892623 -0.33397573
-0.12113985 0.24205136 0.27832523 -0.10237618 -0.3251682 0.16365513 0.3008856 -0.068881094
-0.034901664 -0.016763372 0.011281656 -0.052663665 0.15598257 -0.16107428 -0.12084157 -0.021189233
0.2647063 0.08917465 0.054547258 -0.22596112 0.21555434 0.105467886 -0.120303035 -0.021086678
-0.06971743 -0.016186057 0.17472076 -0.120830595 0.0936507 -0.0052218987 -0.10173023 0.097362116
-0.08578861 -0.07145012 -0.14612995 0.08995225 0.13220666 0.028234717 0.09559311 0.22687672
0.20665312 -0.17475773 0.04472219 0.0033618377 0.111735985 -0.016578779 0.041201174 -0.1303666
0.063176975 0.26919243 -0.07984431 -0.16939557 -0.21873605 -0.01563413 0.06615161 -0.040162977
0.06509482 0.12561297 -0.058603987 0.10273273 -0.14666699 0.16281173 0.06975376 -0.07497062
0.17617495 0.039779447 -0.031586237 -0.092462 0.048066635 0.105821565 -0.13588506 -0.020587666
0.047086883 -0.15752155 -0.020426422 -0.13140155 -0.20680913 -0.09469335 -0.13038938 0.10171963
0.21983457 0.30094174 0.28873146 0.15418573 0.16267563 0.059089452 0.24011886 -0.020077793
-0.05679822 -0.15352482 -0.22458833 -0.19184935 -0.057966575 0.09974903 -0.25688636 -0.31243196
-0.122883536 0.11772549 0.10392295 0.0718062 0.0039660376 0.12847845 -0.20352715 0.17752832
00000000: c06d 5cbe d88b c0be 190a 2fbd 83a1 1cbe
00000010: 97f0 65be 7bcc e8bd a5ef 90be 366e a9bc
00000020: ff93 3fbe 0651 e43d 8b3d 7a3e 5ef6 b53d
00000030: 69f0 a3bd 4da2 07be 14df 7b3b 9197 e43c
00000040: 1a72 613e 9d4f 75bd badd 933e ba3e 43bd
00000050: 15ec 683e b9be ea3d ec83 243e fc77 433e
00000060: 0dab 033e 3a83 293d 09f9 1e3e 981b 023c
00000070: 646e e83d 18f0 21be 43af 1e3e b5b9 6b3d
00000080: ef7a 083c 19f1 4a3d 9771 ab3d 181b 3a3e
00000090: 04af 8bbd ca39 f2bd 9c64 51bd c2f6 0bbe
000000a0: a42c f43d 4682 e4bd 32af d6bd 3a93 0c3e
000000b0: 01d2 093e 7258 c23c 39a0 cdbd 3afa 4bbd
000000c0: 355c c93c bd83 5bbe b369 3bbe 0bab 793e
000000d0: d391 9f3e e4ec df3c bf51 29be e59e 1cbc
000000e0: 72f9 52bd c276 ae3d db49 0b3e 8aa6 e93d
000000f0: 6d0f cdbb 2125 1b3d 3990 eb3d 3105 04be
00000100: 52f4 35bd 4fe3 2c3c 9c0b fdbd e974 14bd
00000110: cb9e 9a3d 8381 bd3d c2f4 d73c d364 a7bd
00000120: 38c2 223e ef26 9fbd 45cb 36bd 3491 603e
00000130: 5e44 4dbb b800 ff3c 790c b33d e0fd b5bd
00000140: 2f16 6b3e 5e96 54be 88b3 88bc 8ddb 6c3d
00000150: f2d7 a8bd 5b25 2cbd 277a 0f3d 9d48 a33d
00000160: 2f6d 653c 7330 123e fc8d 2fbe cda0 28be
00000170: 57ea 1b3e 9da3 1a3d 9ec9 13be 2c9e 1abe
00000180: 0c82 66be 8a72 293e bfe4 fd3d b597 063e
00000190: 73e2 d4ba ea4e 24bb 047e 55bb adfb 42bb
000001a0: 93e0 9abb 3d0c adba 5842 13bb ea00 44bb
000001b0: 78b4 3bbb 7183 a2bb 8bee 91ba 7ff1 31bb
000001c0: 9fbd 71bb b219 40bb 2c28 9ebb b47a 92ba
000001d0: ceee 03bb 63ae 54bb 8900 16bb 3ddb 85bb
000001e0: 367e aeba 1b41 17bb 8fd1 6abb b1cc 26bb
000001f0: a4ef 6abb fc85 50be 3e8d 93be 287d 11be
00000200: 8466 653e d73c 573e 2e19 89be 14f4 36be
00000210: 568d 46be b5af 8e3e 0dc4 803e 7840 a63c
00000220: 6e65 28be d0d2 de3d 67a2 833e fc84 4bbd
00000230: 7d00 11bd c39a c73d cd02 df3d e12e c63d
00000240: adc5 0cbe d300 56be eb44 8abc 80f9 c239
00000250: d00c 823e 37eb 2a3c 988f f3bd defe aabe
00000260: 2b18 f8bd 50dc 773e a580 8e3e 9aaa d1bd
00000270: 727c a6be 3695 273e ad0d 9a3e 8811 8dbd
00000280: 0cf5 0ebd 5753 89bc b2d6 383c dbb5 57bd
00000290: e5b9 1f3e a8f0 24be c97b f7bd 0b95 adbc
000002a0: 9687 873e 33a1 b63d f26c 5f3d 5a62 67be
000002b0: 47ba 5c3e 8cff d73d 7061 f6bd f8bd acbc
000002c0: 03c8 8ebd 9f98 84bc 00ea 323e 0876 f7bd
000002d0: f0cb bf3d 761c abbb f057 d0bd ca65 c73d
000002e0: f0b1 afbd 7154 92bd 17a3 15be e338 b83d
000002f0: 2f61 073e 7e4c e73c 52c6 c33d 5f52 683e
00000300: e09c 533e b1f3 32be 9d2e 373d 4752 5c3b
00000310: d6d5 e43d 38d0 87bc 90c2 283d d27e 05be
00000320: ee62 813d 97d3 893e 6a85 a3bd 0876 2dbe
00000330: 58fc 5fbe 2613 80bc 7f7a 873d ef81 24bd
00000340: 6f50 853d b0a0 003e bc0a 70bd 8a65 d23d
00000350: df2f 16be 1eb8 263e 0fdb 8e3d 328a 99bd
00000360: 3567 343e c6ef 223d 9260 01bd b85c bdbd
00000370: 85e1 443d fab8 d83d 7425 0bbe 77a7 a8bc
00000380: 2dde 403d 544d 21be 5055 a7bc 218e 06be
00000390: c6c5 53be 96ee c1bd cb84 05be 6252 d03d
000003a0: 501c 613e 0915 9a3e 9cd4 933e dde2 1d3e
000003b0: 7194 263e c807 723d b8e1 753e 2f7a a4bc
000003c0: 40a5 68bd 9c35 1dbe 7cfa 65be 2874 44be
000003d0: 5c6e 6dbd 3849 cc3d 9c86 83be 15f7 9fbe
000003e0: 5daa fbbd 101a f13d 8ed5 d43d 210f 933d
000003f0: 89f5 813b db8f 033e 6c69 50be fcc9 353e

0.bias f4 [32]
0.03593085 0.10590844 -0.15482242 -0.0029494322 -0.0056630163 0.024205765 0.012825001 -0.00078283786
-0.019260338 0.2606628 0.15871298 0.18311918 0.019223547 0.11702954 0.0075881504 -0.01698021
0.053240564 0.21984106 0.00093143375 0.021111518 0.20924608 0.11544557 -0.011311079 0.40719804
-0.024878556 -0.0029215054 0.3394084 -0.032207076 0.2052469 -0.013302605 -0.017848944 0.14572503
00000000: 3a2c 133d 86e6 d83d c589 1ebe 434b 41bb
00000010: d390 b9bb 2b4b c63c f41f 523c 5c37 4dba
00000020: dbc7 9dbc 9875 853e a885 223e 9883 3b3e
00000030: b37a 9d3c 2fad ef3d 05a6 f83b 151a 8bbc
00000040: c712 5a3d 041e 613e 762b 743a 10f2 ac3c
00000050: 9b44 563e ba6e ec3d 1b52 39bc 437c d03e
00000060: 1dce cbbc ba76 3fbb f0c6 ad3e 91eb 03bd
00000070: 3e2c 523e 2bf3 59bc f337 92bc f138 153e

3.weight f4 [32, 32, 5, 5]
-0.12265167 -0.15182179 -0.15897307 -0.11143269 -0.09670297 -0.02083267 -0.046470407 -0.1017562
-0.00992523 -0.020143941 -0.012094141 -0.06801496 -0.09327038 -0.038972154 -0.05989458 -0.048577685
-0.06756102 -0.08250743 -0.08859496 -0.039149944 -0.023277901 -0.006619476 -0.030226136 -0.032194097
-0.025121938 -0.040552165 -0.014182366 -0.031316333 -0.0062764026 0.06580494 -0.035576515 0.0025435074
0.025528999 0.0010762104 0.026914613 -0.03725682 0.017045114 0.010082286 0.01298966 0.050725974
-0.008914286 -0.04037544 -0.007465393 -0.029022517 0.03659503 -0.04326923 -0.07132907 0.024167202
-0.002175801 0.08783898 0.07448972 -0.057241198 -0.094150715 0.0563158 -0.06349394 -0.05257224
-0.09198845 -0.057050496 0.017311145 -0.017921545 -0.008322233 -0.050873924 -0.00095060753 0.017942991
0.03439083 0.027739318 0.00024799485 -0.0029581964 0.05562395 0.016869184 -0.010445887 0.020493425
0.0041406704 0.08367067 0.03335863 -0.000774557 -0.023687772 -0.03013142 0.023759563 0.03728993
-0.028634764 -0.022621723 -0.038892746 0.0027292918 0.023142274 -0.03760013 0.024907894 0.016513828
0.022796614 0.05456383 -0.019940292 0.03544671 -0.009569182 0.014449318 0.034641143 -0.045482263
0.048701122 0.059788335 0.08034299 0.048653156 -6.9251585e-21 -1.2509665e-22 2.9811182e-25 1.3213622e-26
5.9945382e-27 5.6009524e-20 7.96157e-22 -1.8222582e-24 -8.155119e-27 -2.1904456e-27 7.567065e-19 5.3270467e-22
-7.876512e-24 -1.393863e-26 -4.466724e-27 -2.530245e-18 -3.346875e-20 -1.5219042e-21 -1.613442e-24 -5.9053033e-27
1.0728139e-18 -7.3232263e-22 -8.7094106e-23 -8.67045e-26 -2.4507362e-27 0.0029443428 -0.083438516 0.017081043
0.040377345 -0.108742654 -0.0081240265 0.009552212 -0.010520358 0.020629182 -0.052487347 -0.0422918
0.04223612 -0.023945121 0.038786877 -0.053909626 -0.04709892 0.08754222 -0.0016070139 0.016610157
0.007089796 -0.03255174 0.10671469 0.08483021 0.13376907 0.10012978 0.0457634 -0.11439741
0.012802351 0.03549453 -0.05979065 -0.0050793015 -0.010309087 -0.020190446 0.025765218 -0.028399631
-0.036687307 0.029605322 -0.007993039 0.02992326 0.02728532 -0.05394719 0.04735612 0.036489688
0.10245917 0.076468416 -0.05391151 0.0547667 0.09935972 0.1453044 0.088530235 -0.05303512
-0.056826618 -0.0048978277 0.00082160253 0.0020545532 -0.037142273 -0.006629799 -0.024296336 0.026787672
-0.030159926 -0.005613968 0.044337954 -0.026499594 -0.017258078 -0.0160352 -0.03198562 0.03784391
-0.009070572 -0.004638831 0.036225755 -0.048966996 -0.016238218 0.024183152 0.054074325 0.07199608
0.022330977 -0.0022837506 -0.017100077 0.0017865688 -0.026834639 -0.022418637 -0.01385022 -0.023727065
0.010327166 0.05087455 0.00842505 -0.065565914 0.027176496 -0.0037213764 0.0044922335 -0.048559647
-0.07415261 0.06453299 0.02195681 0.005419292 -0.08112432 -0.08874326 0.034567963 0.063546084
0.054902352 -0.0063431594 -0.018725678 0.015296313 -0.09924413 -0.11859383 0.024220409 0.029779946
0.02385552 -0.03252806 -0.05755448 0.08721791 0.09654316 0.02349588 -0.07777737 -0.055259753
0.16886151 0.030616244 -0.0090290755 -0.11624001 0.013501986 0.21493314 0.11911483 0.04367046
-0.10670343 0.026301593 -0.07264888 -0.090668686 -0.08793656 0.020025387 0.019744806 0.011254595
00000000: cc30 fbbd 2c77 1bbe d6c9 22be d236 e4bd
00000010: 350c c6bd 47a9 aabc c157 3ebd 8e65 d0bd
00000020: 6f9d 22bc e804 a5bc 8126 46bc 6d4b 8bbd
00000030: 8a04 bfbd 44a1 1fbd 0554 75bd 65f9 46bd
00000040: 6f5d 8abd a8f9 a8bd 4671 b5bd b15b 20bd
00000050: 4cb1 bebc 30e8 d8bb cd9c f7bc f5dd 03bd
00000060: 86cc cdbc 071a 26bd 285d 68bc 8e45 00bd
00000070: 48aa cdbb bec4 863d aeb8 11bd f9b0 263b
00000080: 3122 d13c a10f 8d3a 097c dc3c 9b9a 18bd
00000090: 32a2 8b3c 2c30 253c 95d2 543c 0ac6 4f3d
000000a0: 3a0d 12bc b860 25bd 41a0 f4bb a1c0 edbc
000000b0: ace4 153d 133b 31bd fa14 92bd 4cfa c53c
000000c0: e297 0ebb ece4 b33d 118e 983d bf75 6abd
000000d0: 17d2 c0bd 65ab 663d 1c09 82bd fd55 57bd
000000e0: 7164 bcbd c8ad 69bd 1ad0 8d3c 34d0 92bc
000000f0: fa59 08bc 2d61 50bd 3132 79ba 2efd 923c
00000100: 66dd 0c3d 913d e33c 4e05 8239 4dde 41bb
00000110: f0d5 633d 3e31 8a3c 3a25 2bbc d4e1 a73c
00000120: 76ae 873b 875b ab3d 0fa3 083d a40b 4bba
00000130: dc0c c2bc 2bd6 f6bc 6aa3 c23c 53bd 183d
00000140: 7493 eabc 3151 b9bc 004e 1fbd ebdd 323b
00000150: de94 bd3c 9802 1abd a40b cc3c 0248 873c
00000160: f7bf ba3c 537e 5f3d d359 a3bc 9230 113d
00000170: 0fc8 1cbc d5bc 6c3c dfe3 0d3d 9c4b 3abd
00000180: d47a 473d 9de4 743d de8a a43d 8848 473d
00000190: 03d0 029e 8a3b 179b b485 b816 83dc 8214
000001a0: d777 ed13 ae3f 841f aa9f 701c 8bfd 0c98
000001b0: 5e87 2194 848b 2d93 2057 5f21 0700 211c
000001c0: 995a 1899 a00a 8a94 f6f1 b093 fab2 3aa2
000001d0: 3c0d 1e9f d1fb e59c 06ab f997 e4ee e993
000001e0: c351 9e21 b854 5d9c a494 d29a 81ab d695
000001f0: d62a 4293 e0f5 403b d0e1 aabd 8bed 8b3c
00000200: b762 253d 78b4 debd a31a 05bc e280 1c3c
00000210: 945d 2cbc 88fe a83c f9fc 56bd 2b3a 2dbd
00000220: c8ff 2c3d 8f28 c4bc fdde 1e3d 57d0 5cbd
00000230: ccea 40bd 5649 b33d 70a2 d2ba 0612 883c
00000240: 8551 e83b f954 05bd 3b8d da3d 76bb ad3d
00000250: c2fa 083e d810 cd3d 6772 3b3d 3049 eabd
00000260: f4c0 513c b662 113d 0ae7 74bd 4570 a6bb
00000270: 72e7 28bc 6f66 a5bc 9411 d33c 58a6 e8bc
00000280: 6e45 16bd dc86 f23c 3cf5 02bc a021 f53c
00000290: 7785 df3c bbf7 5cbd 7ef8 413d 3676 153d
000002a0: 1dd6 d13d 799b 9c3d 51d2 5cbd 0c53 603d
000002b0: 1c7d cb3d adca 143e 574f b53d 5b3b 59bd
000002c0: 07c3 68bd f57d a0bb d060 573a afa5 063b
000002d0: 7f22 18bd c93e d9bb 1c09 c7bc d271 db3c
000002e0: f311 f7bc 60f5 b7bb b79b 353d ad15 d9bc
000002f0: d060 8dbc 405c 83bc 5a03 03bd 3702 1b3d
00000300: bd9c 14bc 5601 98bb 7561 143d 9e91 48bd
00000310: 0306 85bc bf1b c63c 0a7d 5d3d ae72 933d
00000320: 74ef b63c faaa 15bb 7615 8cbc 4d2b ea3a
00000330: 51d4 dbbc 4aa7 b7bc 08ec 62bc 435f c2bc
00000340: 4633 293c d561 503d 3909 0a3c 6c47 86bd
00000350: 3ea1 de3c 56e2 73bb 9633 933b 7be6 46bd
00000360: 53dd 97bd df29 843d c5de b33c 5194 b13b
00000370: 8224 a6bd 07bf b5bd 2397 0d3d 7324 823d
00000380: 4ae1 603d 47da cfbb 9866 99bc 639d 7a3c
00000390: 8240 cbbd 52e1 f2bd e169 c63c 13f5 f33c
000003a0: a76c c33c 253c 05bd 3fbe 6bbd 4e9f b23d
000003b0: 6cb8 c53d 6f7a c03c be49 9fbd 0d58 62bd
000003c0: 08ea 2c3e ebce fa3c b0ee 13bc 3e0f eebd
000003d0: 6f37 5d3c 6f17 5c3e 7af2 f33d ccdf 323d
000003e0: 5487 dabd 7076 d73c f0c8 94bd 81b0 b9bd
000003f0: 1518 b4bd 480c a43c dcbf a13c 3165 383c

3.bias f4 [32]
0.005895896 0.040866185 0.043556213 0.07079185 -0.0054258094 0.106001444 0.048585117 -0.0018123456
0.029088525 0.086002134 0.00975632 0.065675505 -0.051206917 0.08014141 -1.6179041e-07 0.028594263
-0.042410344 -0.038239412 -0.011143923 0.019871896 0.09476902 0.0381393 -0.044515796 0.017016612
-0.09825129 0.06041832 0.057219915 -3.1097496e-08 -0.029387368 -0.01125426 0.09051357 0.10435302
00000000: 5c32 c13b 4d63 273d 0068 323d 51fb 903d
00000010: fdca b1bb 4917 d93d 3001 473d 3a8c edba
00000020: 0f4b ee3c e321 b03d f9d8 1f3c e180 863d
00000030: 58be 51bd 2e21 a43d 9cb8 2db4 843e ea3c
00000040: 78b6 2dbd eea0 1cbd 0095 36bc 63ca a23c
00000050: 4316 c23d f437 1c3d 3256 36bd 6c66 8b3c
00000060: f937 c9bd 3379 773d 6e5f 6a3d 0f90 05b3
00000070: c7bd f0bc ca63 38bc 2e5f b93d 09b7 d53d

7.weight f4 [10, 512]
-0.002942534 -0.00200432 0.022884589 0.036521263 -0.0021761763 -0.031888157 0.022554941 -0.008984533
0.05488047 0.0003375713 0.051736344 0.026697438 -0.0038490603 -0.06593642 -0.13165437 -0.10359821
0.07780435 -0.07525262 -0.0035748603 0.034890816 0.05716537 -0.029753352 -0.009679891 -0.03988397
0.049076404 0.0113760205 -0.013137842 0.006078242 0.080433235 0.004869435 -0.010403295 0.04015788
-0.06579958 0.0046705734 0.004004709 0.021183753 -0.047508985 0.0011995066 -0.042748943 -0.03267432
-0.084455065 -0.00912429 -0.03181256 0.01489184 -0.040051665 0.01686694 0.06726012 0.056670338
0.10454719 0.048018903 0.048658755 0.052754868 0.014149648 0.045446437 0.0107557345 -0.051692452
0.013929501 0.03461018 -0.0432947 0.011877814 -0.14576587 -0.00019813755 -0.035127353 2.0189837e-06
-0.04350418 -0.010079832 -0.0049615004 0.062220257 0.05331862 -0.006631799 0.004348089 0.06747462
0.014856112 -0.024531825 0.046833552 -0.0031896082 -0.017348623 -0.09420546 -0.029780908 -0.0548766
-0.01098776 -0.028240327 0.051667675 0.12769479 -0.015804993 -0.013556188 -0.043606825 0.06480699
0.018028077 0.03496112 0.022681016 -0.0317427 0.0032042337 0.009497217 -0.05476279 -0.026502248
-0.018616538 -0.001242076 0.057880204 -0.025995549 0.006429472 0.070364065 0.040231876 0.04604325
-0.1454593 0.023895264 0.02038124 0.03156559 -0.1391229 0.020932546 0.044575945 0.0061174226
0.00020963514 0.00020825797 0.00019175648 8.93528e-05 0.00019374842 0.00031658594 0.00026505892 8.186201e-05
0.00014118232 0.0003160294 0.00027578435 3.8552847e-05 0.00022333946 0.00041004096 0.0003556116 7.1933864e-05
0.21046783 0.042442195 0.06682291 -0.022186648 -0.05005936 0.002251052 -0.048537925 -0.06227788
-0.0955469 -0.049214747 -0.007509495 0.0105406195 -0.0398494 0.022826808 -0.0035805306 0.04109324
0.01736333 -0.07973827 -0.02797331 -0.07129259 -0.027076133 -0.020767855 -0.020202095 0.0061972146
-0.052356455 0.076824576 0.0305884 0.009415111 -0.06989352 0.11630694 0.03393664 0.115284845
-0.052210573 -0.037711315 -0.031788956 0.074060105 0.0636241 0.027979814 0.061381064 0.06402389
-0.03609707 0.022641052 0.06453204 0.02350904 -0.10552988 0.078836985 0.09931115 0.023056671
-0.009467387 -0.022746462 -0.0117939105 -0.061221823 -0.01351121 -0.0183846 -0.022999106 0.028525788
0.00090785854 0.0690571 0.076918274 0.014507188 -0.108314805 -0.005165914 0.017853696 0.08346495
0.16095576 -0.020993257 -0.033206433 -0.02402319 0.09274509 0.03326041 -0.012232299 0.005903062
0.015369516 -0.020450039 -0.006818657 0.021146229 -0.16351818 -0.032529183 -0.07670809 0.031879555
-0.04154496 0.02140659 0.065133475 0.10251405 -0.07304757 -0.07051094 0.008314137 0.051420115
-0.008224945 -0.0022546998 0.0652618 0.032892954 0.031708468 0.05375019 -0.020431176 -0.017651146
1.4428423e-09 7.659316e-11 1.011761e-12 2.3240522e-21 4.6177877e-11 1.2712334e-11 2.8673763e-14 1.28781745e-27
1.8725878e-12 1.2514143e-12 1.5313323e-16 -5.7658074e-32 6.009239e-13 4.1995956e-13 1.5135365e-17 4.1668695e-32
0.07146428 0.038559023 0.002335794 0.016875247 0.11980262 -0.015179488 -0.021268098 0.032613654
-0.03014632 0.018155066 -0.036703926 0.0050968723 -0.106711 -0.03530835 0.005894065 -0.015863426
00000000: 87d7 40bb e95a 03bb 7678 bb3c 5297 153d
00000010: 2e9e 0ebb 289d 02bd 24c5 b83c dd33 13bc
00000020: 58ca 603d 0efc b039 7de9 533d 96b4 da3c
00000030: 8440 7cbb ac09 87bd 67d0 06be 4c2b d4bd
00000040: e357 9f3d 0c1e 9abd 3448 6abb ace9 0e3d
00000050: 3c26 6a3d 4dbd f3bc 6898 1ebc 605d 23bd
00000060: 5704 493d 7d62 3a3c 1a40 57bc fd2b c73b
00000070: 2eba a43d c88f 9f3b 9572 2abc 977c 243d
00000080: eec1 86bd 9c0b 993b ef39 833b 8d89 ad3c
00000090: c898 42bd c338 9d3a 8419 2fbd 82d5 05bd
000000a0: c7f6 acbd 0c7e 15bc e34d 02bd e7fc 733c
000000b0: 370d 24bd 892c 8a3c acbf 893d 281f 683d
000000c0: d61c d63d 78af 443d 674e 473d 7d15 583d
000000d0: edd3 673c 0b26 3a3d d238 303c 77bb 53bd
000000e0: 9038 643c 67c3 0d3d c955 31bd 2a9b 423c
000000f0: a643 15be 25c3 4fb9 b3e1 0fbd e07d 0736
00000100: 7031 32bd e125 25bc 1594 a2bb abda 7e3d
00000110: a064 5a3d 904f d9bb 6a7a 8e3b 2230 8a3d
00000120: 0d67 733c f7f6 c8bc 8ad4 3f3d bf08 51bb
00000130: b31e 8ebc cbee c0bd 17f7 f3bc 49c6 60bd
00000140: 0106 34bc 4258 e7bc 7ca1 533d 6cc2 023e
00000150: 7979 81bc c61a 5ebc 129d 32bd 87b9 843d
00000160: 9eaf 933c 6433 0f3d 8acd b93c a204 02bd
00000170: 1ffe 513b 379a 1b3c f34e 60bd 3e1b d9bc
00000180: b681 98bc 28cd a2ba cb13 6d3d 9ef4 d4bc
00000190: 52ae d23b 091b 903d 2eca 243d d997 3c3d
000001a0: 48f3 14be 00c0 c33c 8ff6 a63c ec4a 013d
000001b0: 3c76 0ebe bb7a ab3c 4495 363d a974 c83b
000001c0: 81d1 5b39 d35f 5a39 3d12 4939 eb62 bb38
000001d0: f228 4b39 72fb a539 9bf7 8a39 55ad ab38
000001e0: 570a 1439 c0b0 a539 2697 9039 ceb3 2138
000001f0: 3b30 6a39 c4fa d639 6271 ba39 33db 9638
00000200: e184 573e ded7 2d3d 73da 883d c6c0 b5bc
00000210: 0b0b 4dbd 6386 133b b4cf 46bd 1717 7fbd
00000220: 18ae c3bd 6795 49bd 3612 f6bb 90b2 2c3c
00000230: 2039 23bd 49ff ba3c 56a7 6abb 6351 283d
00000240: 8b3d 8e3c d14d a3bd 4828 e5bc d901 92bd
00000250: c4ce ddbc 5921 aabc dd7e a5bc 0112 cb3b
00000260: b973 56bd 3456 9d3d 8694 fa3c d641 1a3c
00000270: 5524 8fbd 5532 ee3d 2501 0b3d 761a ec3d
00000280: c1da 55bd 2e77 1abd 2335 02bd d3ac 973d
00000290: 5a4d 823d ec35 e53c b66a 7b3d f51e 833d
000002a0: 85da 13bd ba79 b93c 6029 843d 0896 c03c
000002b0: 0d20 d8bd 4975 a13d a563 cb3d 58e1 bc3c
000002c0: 191d 1bbc ca56 babc 3f3b 41bc bcc3 7abd
000002d0: 1f5e 5dbc 4d9b 96bc 9f68 bcbc eaae e93c
000002e0: 5bfd 6d3a cf6d 8d3d 5487 9d3d 8faf 6d3c
000002f0: 27d4 ddbd d446 a9bb ea41 923c acef aa3d
00000300: 96d1 243e 0dfa abbc 7803 08bd 48cc c4bc
00000310: 23f1 bd3d 113c 083d fb69 48bc 796e c13b
00000320: 6cd0 7b3c d786 a7bc 0a6f dfbb db3a ad3c
00000330: 4f71 27be 523d 05bd 2219 9dbd 2394 023d
00000340: 0c2b 2abd df5c af3c b364 853d e3f2 d13d
00000350: f799 95bd 0a68 90bd 0538 083c e69d 523d
00000360: ebc1 06bc 96c3 13bb fba7 853d c3ba 063d
00000370: bde0 013d 2929 5c3d 485f a7bc 2399 90bc
00000380: 804d c630 1e6e a82e 8864 8e2b b599 2f1d
00000390: ab17 4b2e 43a3 5f2d 9922 0129 1510 cc12
000003a0: 8bc5 032c f41e b02b f48c 3025 5db0 958b
000003b0: 2125 292b 8d6a ec2a 5f99 8b23 325b 580b
000003c0: dd5b 923d 11f0 1d3d 1f14 193b f53d 8a3c
000003d0: 135b f53d 63b3 78bc 6f3a aebc e595 053d
000003e0: 6af5 f6bc efb9 943c db56 16bd aa03 a73b
000003f0: 4c8b dabd 7d9f 10bd 0023 c13b 04f4 81bc

7.bias f4 [10]
0.022891376 0.025716279 0.03546881 -0.0073432447 -0.118239716 -0.04793973 0.03045844 0.030798357
0.021041183 -0.01621267
00000000: b286 bb3c f2aa d23c be47 113d 9a9f f0bb
00000010: aa27 f2bd 735c 44bd fa83 f93c d64c fc3c
00000020: 8f5e ac3c 6fd0 84bc
