Moritz_folder/Notebooks/trained_weights/FashionMNIST/FashionMNIST_weights_seed=2.pth (torch_old, 127416 bytes, 6 tensors)

0.weight f4 [32, 1, 5, 5]
000000 a8 88 ed 3c 4c 3c c8 bd b8 b0 d5 bd c7 e7 91 3d
       0.028995827 -0.09777126 -0.10434097 0.07124286
000010 70 9d e6 3d 0d f4 8e 3d 62 13 32 bd 5f 96 a1 be
       0.112604976 0.06980143 -0.043475516 -0.31560037
000020 4f a9 65 3e 9c 1a fa bd 21 46 18 3d 30 1c 1c bc
       0.22427867 -0.122121066 0.037176255 -0.009528205
000030 f9 2d 62 be 65 14 88 3e 2a df f6 3c 66 fa 9d 3d
       -0.2208785 0.2657806 0.03013571 0.07713775
000040 aa f4 e7 3c d1 58 a2 be 21 55 16 3d 37 29 89 3e
       0.028314907 -0.31708387 0.03670228 0.26789257
000050 4d e3 57 be 8d 12 90 bd 05 1a 1b be d8 97 98 3e
       -0.21082802 -0.07034788 -0.15146644 0.29803348
000060 5c d8 b6 3d 6a 60 be be 44 4e e6 be ac 59 c8 be
       0.08927986 -0.37182933 -0.44981587 -0.39130914
000070 47 cf 91 be d2 fa 98 bd 07 6f 14 bf c7 d4 23 bf
       -0.28478453 -0.07469715 -0.57981914 -0.6399655
000080 3d 0e 78 be a6 bc b2 3d e4 c1 b6 3d 34 c6 0b be
       -0.24224181 0.08727388 0.089237005 -0.13649827
000090 85 10 8f bc b0 74 85 bd d5 cf c4 39 84 cb 83 bd
       -0.017463932 -0.06516397 0.0003753888 -0.06435302
0000a0 19 b9 ad bd f7 a0 14 be 6a 9c 1b 3e 9a 42 24 3e
       -0.0848257 -0.14514528 0.15196386 0.16041031
0000b0 cb b2 98 3d fe 2e bf 3d eb 1f a0 3d c3 5d aa 3d
       0.07455977 0.09335135 0.07818588 0.08318665
0000c0 49 5f c2 3d 6a 2e c7 3d 25 c8 d5 3d a1 e5 39 3e
       0.094908305 0.0972565 0.10438565 0.18154003
0000d0 3b 34 3c 3e d2 de 0a 3e ff f9 56 bc 39 9e e4 bc
       0.183793 0.13561562 -0.013121127 -0.027907478
0000e0 f2 72 1f bd f9 1a 0a 3e 51 3b 17 3d 75 cd 36 3e
       -0.03892798 0.13486852 0.036921803 0.17851813
0000f0 37 c2 a6 3d 84 8e 40 be f8 71 84 3d a6 30 42 3e
       0.08142512 -0.18804365 0.0646705 0.1896387
000100 4d 5a 10 3e 59 b6 e4 bb c6 22 76 3d d5 2a 2c be
       0.14096947 -0.0069797453 0.060091756 -0.16813214
000110 d1 bd 69 bd ea 9e 97 3d 26 76 46 be a8 c3 19 3e
       -0.05706579 0.07403357 -0.19381008 0.15016043
000120 5e dc d6 bd bc 86 70 3d 71 42 60 bc bf 8a 4d 3e
       -0.104912505 0.058722243 -0.013687716 0.20072459
000130 f9 65 68 3d ab 8f aa be 8e 29 df bd 27 d9 0c be
       0.056737874 -0.33312735 -0.10896598 -0.13754712
000140 4d c2 b0 3e f4 dc 55 3d 90 07 9d be e3 f2 f4 bb
       0.3452324 0.05221267 -0.30669832 -0.0074752434
000150 13 b2 2b 3d 88 b9 b3 3d 40 0d 43 3d 62 a8 25 3d
       0.04191787 0.08775622 0.047620058 0.040443785
000160 2d 1d 8d bd d6 1d 7b bd 84 bc ec 3d 19 93 08 be
       -0.068903305 -0.06130775 0.11559394 -0.13337363
000170 fd 38 47 3d a0 e8 74 3d b6 15 2a 3e 8c 1f 86 3e
       0.048638333 0.05979216 0.16609845 0.26195943
000180 49 85 0a be ef 79 18 be b0 3b 89 bd b9 a6 dd bb
       -0.13527407 -0.14890264 -0.067008376 -0.0067642597
000190 21 4d 79 bd 2b 39 f1 bc d5 b1 3b be e8 c9 d0 3d
       -0.06086457 -0.029446205 -0.18329556 0.101947606
0001a0 eb d4 18 3e 88 44 a2 3d cd 30 10 3e 84 24 0a 3e
       0.14924972 0.079232275 0.14081116 0.13490492
0001b0 6a 87 3d be 2f a2 cb 3c 10 70 45 3e 62 06 03 be
       -0.18508688 0.024857609 0.1928103 -0.12795404
0001c0 bf 08 ca bd 69 2a e6 bc 40 95 08 be d8 9e 09 bd
       -0.098649494 -0.028096395 -0.13338184 -0.03359875
0001d0 87 e6 22 bd ad f0 26 3e 74 73 0d 3b ae a0 e2 3d
       -0.03977063 0.16302748 0.0021583708 0.110658035
0001e0 47 b8 3d 3e 78 85 ed 3d 2e d3 13 be 58 1a 2c 3e
       0.18527327 0.11597723 -0.14436027 0.16806924
0001f0 ee f8 17 3e f9 52 8b be f6 c4 12 be 07 92 b8 3d
       0.14841053 -0.2721174 -0.14332947 0.090122275
000200 21 87 bc be e5 60 48 be 32 d7 2f be 4b 24 7d 3d
       -0.36821845 -0.19568212 -0.17171934 0.06180219
000210 24 a7 c6 bd ac d1 7d be ee e5 07 3e 75 8e 3a 3e
       -0.09699848 -0.24787015 0.13271305 0.18218406
000220 e3 3a ff 3d 5b 95 f9 bd 68 99 81 3e 35 30 b7 3d
       0.124624036 -0.121866904 0.25312352 0.08944742
000230 37 f5 07 be f6 4a 84 3c d9 f1 31 3e 8b 6f 23 3e
       -0.13277136 0.016149025 0.17377414 0.15960519
000240 eb 17 dd 3c 2d 36 66 3e 3e d9 05 be 71 fd 2d 3e
       0.026988944 0.22481604 -0.13071153 0.16991211
000250 dd 1d 86 3e 8a df d8 bd c4 c3 ea bc ab af aa bd
       0.2619466 -0.10589512 -0.028657801 -0.08334287
000260 27 57 b1 be bd 72 22 3d 3d 0b 1b 3e d3 fb 9a be
       -0.34636804 0.039660204 0.15141006 -0.30270252
000270 57 93 4a be 84 01 c1 bc a4 13 ae 3e 26 b2 53 3e
       -0.19782768 -0.023560293 0.3399936 0.20673427
000280 82 a5 90 bd a0 1a 75 3e 21 27 d4 3d a0 62 1e be
       -0.07062818 0.23935938 0.10359026 -0.1546731
000290 d3 58 04 bd c5 72 63 3e bc e8 2b bc 05 f0 15 3d
       -0.032311272 0.2221175 -0.0104925 0.036605854
0002a0 03 55 67 be 58 03 93 be 50 9e 79 bd f9 38 99 3d
       -0.22591023 -0.2871349 -0.060941994 0.0748157
0002b0 d7 e5 36 3e cd 21 26 be e1 c7 9c be 36 50 d3 bd
       0.17861114 -0.16223831 -0.30621246 -0.103180334
0002c0 cb 20 a3 be e3 9e ac 3d 4b 4d 7a 3e 32 61 5c 3d
       -0.31860957 0.08428743 0.24443547 0.05380363
0002d0 9b 9c 82 be 6b ac 65 be 6c c1 66 3e 45 91 70 3e
       -0.25510105 -0.22429053 0.22534722 0.23492916
0002e0 8d a2 f6 bd 36 e6 4f be 46 8a 43 be 90 b1 1c 3e
       -0.12042723 -0.20302662 -0.19095716 0.1530211
0002f0 e8 a7 7c 3e 43 78 e1 3c 1b 29 b6 bc 59 51 9e be
       0.24673426 0.027523166 -0.022236397 -0.30921438
000300 01 a4 55 3e cb 1f 4f 3e fa 34 8a bd f1 c5 6b be
       0.20863344 0.20226972 -0.06748386 -0.23024727
000310 ba 63 89 bd 72 9b 27 bd 1f 12 40 3e 5c 2e df 3d
       -0.067084745 -0.04091973 0.18756913 0.10897514
000320 3d 6a 90 be 28 23 ac be 2c 32 d3 be 0b 05 fb be
       -0.28206053 -0.33620572 -0.41249216 -0.49027285
000330 2c e6 4e be b4 7f 24 3e 3f 38 b8 3c 93 c4 78 be
       -0.20204991 0.1606434 0.022487758 -0.24293737
000340 0a f4 52 be 98 7a 0b be d7 ea bf bd 1d 83 28 3d
       -0.20600906 -0.13620985 -0.09370964 0.041140664
000350 09 10 29 3e f8 6f 69 3d 21 13 51 bd ed 49 1e 3e
       0.16510023 0.056991547 -0.051043633 0.15457888
000360 9e ba 0d 3e 70 19 ae 3d e0 0c 55 3e 30 e4 9c 3e
       0.1384072 0.085009456 0.20805693 0.30642843
000370 3f 1f 06 3e 76 58 8f ba 6d 2f 99 3e 10 80 96 3e
       0.13097857 -0.0010936398 0.29918995 0.2939458
000380 cf 32 f5 3d cd c2 55 3c 0f 99 a3 3c d1 29 93 3e
       0.119725816 0.013046932 0.019970445 0.2874284
000390 f3 6b 5a 3e de 8b 48 bd d9 f3 f0 3d 6d 93 05 3e
       0.21330242 -0.048961513 0.1176526 0.1304452
0003a0 a8 69 fd 3d 23 fe df bb 2c 5b cc bd 1a ce 75 3d
       0.12373668 -0.0068357154 -0.09978327 0.060011007
0003b0 5c 1f 25 bd 33 ab 0a be 70 e8 8b be 45 40 4b be
       -0.04031311 -0.1354187 -0.27325773 -0.19848736
0003c0 af 6b 25 bd e0 69 8e 3d 1b 32 89 be 03 69 dc be
       -0.0403859 0.06953788 -0.2679604 -0.43048868
0003d0 6a 8f 85 3c fb bd 1a 3e 76 80 12 3e a9 d7 d1 3c
       0.016303737 0.15111534 0.14306816 0.02561553
0003e0 86 9d 68 be df 01 22 be 9f 96 4d be bd 27 3b bd
       -0.2271634 -0.15821026 -0.20076989 -0.045692194
0003f0 5b 3a 2d 3d 6a 33 8b be d4 de 5e be 31 f9 2f 3e
       0.04229198 -0.27187663 -0.2176469 0.17184903

0.bias f4 [32]
000000 40 09 30 3c da f7 a5 3e 08 d0 41 bd 64 05 47 bc
       0.010744393 0.32415658 -0.047317535 -0.012147281
000010 87 41 e5 bd b2 11 7f 3a e2 89 3c 3e 17 ff 07 3e
       -0.11194139 0.0009730115 0.18411973 0.13280903
000020 1c f7 6f 3e 1b a0 45 3e 49 17 81 3e fc 20 ab ba
       0.23434108 0.19299357 0.25213078 -0.0013056095
000030 d3 58 fa bb cf 28 f8 bd cf af 4e be e7 8b bf 3d
       -0.007639983 -0.121171586 -0.20184253 0.09352856
000040 d1 d2 dc bb 1d f8 9b bc d8 5c 4a bc c7 96 b1 bd
       -0.0067389985 -0.019039208 -0.012351237 -0.086713366
000050 a2 67 14 3e e3 66 f5 3d f5 f4 50 3c 4b f5 ec bb
       0.14492658 0.11982515 0.012753715 -0.0072313896
000060 88 77 43 3d 40 b4 55 3d 60 99 36 ba 8c fb 22 3b
       0.047721416 0.052173853 -0.00069656037 0.0024869172
000070 1f 04 02 3d 94 a3 fa 3e 94 00 13 bc ec e7 02 3e
       0.03174221 0.48952925 -0.008972306 0.12783784

3.weight f4 [32, 32, 5, 5]
000000 d7 73 23 3b 80 22 a3 3d 80 fa 22 3e 22 4d c0 bc
       0.0024940872 0.07965565 0.1591587 -0.02347428
000010 d6 a9 ab ba 65 dc 52 bc 61 b0 ca 3c f4 7a 9e 3d
       -0.001309688 -0.012869929 0.024742307 0.07738295
000020 a8 7b d7 bd 45 9a b7 3c 25 03 40 bd a3 4f 96 bc
       -0.105216324 0.022412429 -0.046878 -0.01834852
000030 0d 9d 4b bd dd 9b cc bd f7 41 47 bd 75 08 60 bd
       -0.049710322 -0.09990666 -0.048646893 -0.054695565
000040 fd 36 b7 bd bf 60 a5 bd f4 2f f9 bd 91 56 d6 bd
       -0.08946035 -0.080750935 -0.121673495 -0.1046573
000050 71 d3 e5 bd 76 1c 87 bd 4c 64 e5 bd b6 28 e8 bd
       -0.1122197 -0.06597225 -0.11200771 -0.1133589
000060 5b 0c 3b be 06 ea 87 3d 44 d3 9f 3d ff 85 25 3e
       -0.18266432 0.06636433 0.078039676 0.16164397
000070 5b f8 4a bd ca 8c 6d be 99 09 97 3d a3 7a 92 3d
       -0.049553256 -0.23198238 0.073748775 0.07152297
000080 81 28 4c 3c 72 54 91 bd 65 84 4a bd 19 58 df 3c
       0.012460829 -0.07096185 -0.049442668 0.027263688
000090 43 b6 8c 3d 62 9b c6 bd 62 7d 12 bd 6a 27 3f 3d
       0.06870701 -0.09697606 -0.035764106 0.046668448
0000a0 d7 c4 b3 bc 95 5f d2 bc 2e 55 d7 bc 51 2e 1e 3e
       -0.021944446 -0.025680343 -0.026285734 0.15447356
0000b0 6e f0 10 3e 91 80 8b 3c 84 b5 bf 3c 25 b5 e3 3d
       0.14154217 0.017029079 0.023401983 0.11118535
0000c0 e8 dc 6f 3e 94 57 45 3e e1 94 aa bc c3 16 de 3c
       0.23424113 0.1927169 -0.020822944 0.027110463
0000d0 24 f7 54 3d 35 50 dc 3d 40 f0 c0 3d a6 77 cd bc
       0.051993504 0.10757486 0.09420824 -0.025081467
0000e0 26 52 1d 3d bf 87 b9 3d ea 86 3a 3d 68 68 17 bc
       0.03840842 0.09059095 0.04553882 -0.009241201
0000f0 3a 80 d3 3c 0f cb 5c 3c 5b cc 80 3d ff 79 40 3d
       0.02581798 0.013476147 0.06288978 0.046991345
000100 51 1f ab 3a 10 77 da bc 17 f7 43 bc e5 79 13 bd
       0.0013055598 -0.026668102 -0.011960766 -0.03600492
000110 c1 4d ee bb ef 5a 0e bd 5e 63 85 3c 25 38 17 bd
       -0.0072724526 -0.03475469 0.016282734 -0.036918778
000120 e2 f2 9e bd d9 94 a7 bd 83 79 b4 bc 34 62 11 be
       -0.0776117 -0.08182687 -0.022030598 -0.14197618
000130 ba e6 b5 bd 49 de b1 bd e9 84 6f bd 9d 0d ef 3d
       -0.08881898 -0.08684976 -0.058476362 0.116725184
000140 c8 60 9b bd 79 e1 99 bd 8d 59 2e bc 10 c2 de 3d
       -0.07586819 -0.075137086 -0.010641468 0.10876858
000150 ab 27 f7 3d 2b 1d 01 be c7 9c 97 bd 02 22 5f bd
       0.12068113 -0.12608783 -0.0740295 -0.05447579
000160 79 bc 80 3d e0 72 a4 3d a2 30 12 bd ea 6e 5e bd
       0.06285948 0.08029723 -0.03569091 -0.054304995
000170 63 03 22 bb ad ff 44 3d 4b b6 d2 bd 6a cd a4 bc
       -0.0024721257 0.048095394 -0.10288676 -0.02011748
000180 ac ef 14 3c de b4 86 3d e8 6d 39 3d 20 14 4e be
       0.009090345 0.065774664 0.04527083 -0.20124865
000190 ab 38 d5 bb 45 30 84 3c 43 fa d6 3d 77 1a ad 3d
       -0.0065069995 0.016136298 0.104969524 0.084523134
0001a0 90 7d 67 3d 16 0c 2c bb 1e a4 dd 3c ba c9 a7 3d
       0.05651623 -0.002625232 0.027055796 0.08192773
0001b0 f0 2b 96 3d 00 07 36 3d ab c8 a5 bc 2b 20 af bb
       0.07332599 0.04444027 -0.020237288 -0.005344411
0001c0 cb 6c 0a 3c 3d dd 83 bc 1b 06 de ba de af 17 3d
       0.00844879 -0.016096706 -0.0016939075 0.037032954
0001d0 6e e3 c1 3c 9f bd 09 bd 50 e2 60 bd 85 d6 80 bd
       0.023668017 -0.033628102 -0.05490333 -0.06290916
0001e0 d8 ff 67 3c 50 d7 ff 3c ec 2a 31 bd 30 9a 2e bd
       0.014160119 0.031230599 -0.043253824 -0.042627513
0001f0 ca 4f 9d bd e9 d6 d2 3c db 0d cc 3d 77 d5 b3 3d
       -0.07681234 0.025737243 0.0996358 0.087809496
000200 9d 04 3e 3d 00 34 10 bd 0b bd bb 3d 12 66 ba 3d
       0.04639112 -0.03520584 0.091669165 0.091014996
000210 7b 52 16 3e 68 8e 1a 3d a8 a8 5e bb ee 41 c7 3c
       0.14679901 0.037733465 -0.0033975039 0.02432343
000220 7f a8 b5 bb c4 48 83 bd 2b 9d 3e bc 50 70 65 3d
       -0.005543768 -0.06410363 -0.011634151 0.056015313
000230 56 56 85 3d c8 2c 94 3c e1 7e 7b 3c 1d bf 2b 3d
       0.06510608 0.01808776 0.0153500745 0.041930307
000240 c7 9e 18 3e a5 6a 13 3a c2 14 bc bc fb 19 82 bb
       0.14904319 0.0005623496 -0.022959117 -0.0039703823
000250 d5 2a f4 3c 6c 98 da 3d 3d d4 65 3d 00 3e 4f 3c
       0.02980558 0.106736034 0.05611061 0.012649059
000260 3f 09 af 3d 9b 66 c8 3d 65 88 ea 3c 96 08 4b ba
       0.085466854 0.097851954 0.028629491 -0.0007745115
000270 b4 f7 d4 3c bd 91 10 3e 8f 75 92 3d fa 39 40 3d
       0.02599702 0.14118095 0.07151329 0.04693029
000280 7c 01 3e 3d 5d 61 c2 3d db 3b f1 3d fd 2c 36 bc
       0.046388134 0.09491227 0.11778995 -0.0111191245
000290 a0 91 76 3c 56 b6 a3 3d 13 c4 33 3e 1f d9 15 3e
       0.015049368 0.07993762 0.17555265 0.14633606
0002a0 b2 2d 26 bc 26 ef 94 3d 0e 99 11 bd 10 84 10 3d
       -0.010142731 0.072721764 -0.035546355 0.035282195
0002b0 f1 d5 df 3d 58 dc a5 bc 0a fa 7e 3d f0 a0 c4 bc
       0.10929478 -0.02024667 0.062250175 -0.024002522
0002c0 0e 75 20 bb 52 9c d8 3d 7f 9c 5d 3d 3b 19 3c bd
       -0.0024483833 0.10576691 0.054104324 -0.0459225
0002d0 4e de 5f bd 5f 6a 08 3d 6e 9f d8 3d f6 6e 79 bd
       -0.054655366 0.03330457 0.10577284 -0.060896836
0002e0 b6 61 35 bd aa cf 49 bd 94 8c 92 bc df 2c a7 bb
       -0.044282638 -0.04927031 -0.017889298 -0.0051017846
0002f0 1c 71 e3 bd 83 41 b3 bd 1b 6b 8e bd 74 02 92 bd
       -0.11105558 -0.0875273 -0.069540225 -0.07129374
000300 71 ac e9 bd bf 7d 8f bd 80 71 da bd ed e0 0f bd
       -0.11409844 -0.07006406 -0.1066618 -0.035126615
000310 fb 46 ed bd 01 4d 28 be c5 d3 b9 bc 2b 89 fe bd
       -0.11585804 -0.16435625 -0.022683987 -0.124285065
000320 0c 66 8a 3d 59 4b c9 3d 52 fe 03 bc d7 1a e9 bd
       0.06757745 0.098288245 -0.00805624 -0.113820724
000330 15 7f 0e be 52 57 b6 3d c9 b8 b9 3d 49 73 84 3c
       -0.13915665 0.08903374 0.09068448 0.016168253
000340 e7 28 5e bc 3f f2 36 bd 58 75 ea 3c 0e 61 ea bc
       -0.013559557 -0.044664618 0.028620407 -0.028610732
000350 6b d3 a5 bd 25 96 5a 3d c2 e8 31 3e 67 88 b7 3d
       -0.080969654 0.053365845 0.17373946 0.089615636
000360 f5 e2 e2 3c c3 45 c3 3d e4 ee 37 3e ca 3b 82 3e
       0.027696112 0.0953479 0.17962223 0.2543624
000370 be 86 7b 3d c2 89 d6 3d b5 54 28 3e 08 fd 38 3e
       0.061407797 0.10475494 0.16438563 0.18065274
000380 39 bc 5a 3e f1 4d 7e bc a4 2c e9 bc 13 f7 c7 bb
       0.21360864 -0.015521512 -0.02846367 -0.0061024516
000390 5f ef 3d 3e 95 9e 04 3e 83 f8 4c bd a4 4a 3e bb
       0.18548344 0.12951119 -0.050041687 -0.0029036188
0003a0 00 c9 28 3d a7 48 17 3e a8 2a 08 3e 7b ee a2 bc
       0.041207314 0.14773808 0.13297522 -0.019889107
0003b0 51 ed 3e 3b 4e 31 ce 3d 83 12 a7 3d 0a 57 49 3d
       0.002913315 0.10067998 0.08157828 0.049155273
0003c0 cb 30 e1 bc 21 59 48 3c e8 cb 1d 3e 26 00 0b 3d
       -0.027489087 0.012228281 0.15409815 0.03393569
0003d0 13 2e fd bc c9 b8 79 bd 33 cb d1 3b 5a a2 38 3e
       -0.030905759 -0.06096724 0.006402397 0.18030682
0003e0 6d de 42 3d 3a 12 04 bd 35 6e 6e 3b 0a a2 8d 3c
       0.047575403 -0.032243945 0.0036381606 0.01728918
0003f0 8c 0d 03 bd 62 cc 7e bd 4b 6c 0e bd 75 32 09 3d
       -0.03199534 -0.062206633 -0.034771245 0.033495385

3.bias f4 [32]
000000 c5 54 93 bc a9 ca da 3c 91 77 99 3d a2 93 78 3c
       -0.017984757 0.026707964 0.074935086 0.015171917
000010 e1 2a 41 bb b6 10 10 bc e9 2a 58 3d 23 44 1a 3e
       -0.002947502 -0.008793047 0.052775297 0.15065055
000020 e7 ec b3 3d 80 a9 c7 3c ce 45 2c 3d 63 3e 87 3c
       0.0878542 0.024372816 0.04205876 0.01650924
000030 06 ab 4d 3d df 22 da bc a9 17 9d 3c f3 45 22 3e
       0.05021193 -0.026627956 0.019176321 0.15846996
000040 f1 1b 9f bd 00 f3 c4 3c 35 bb 90 39 3f 3b b7 bc
       -0.07769001 0.024041653 0.000276053 -0.022367118
000050 89 bd 37 bd 43 76 87 3c 87 eb 1e bd 92 4f e4 3c
       -0.04485849 0.016535884 -0.038798835 0.027869973
000060 68 bb 71 bd d0 bf 05 bd 1e e5 2c bc 4f af 06 3a
       -0.059016615 -0.03265363 -0.010552673 0.00051378174
000070 50 4f 44 b0 9e f6 ac aa 2a 43 f0 ba 5e ee 9d 3d
       -7.1417094e-10 -3.0724463e-13 -0.0018330563 0.077114806

7.weight f4 [10, 512]
000000 ad 56 b5 3c de 47 a5 3d 4e 93 cc 3d 40 fd 46 3d
       0.022136057 0.08070348 0.09989034 0.04858136
000010 a4 19 fd bb 60 e8 16 3d 2f 1b 90 3d 3a 8c 92 3d
       -0.007724004 0.036842704 0.07036435 0.07155652
000020 59 74 a8 bc 93 24 b9 3b 58 b4 cf 3c 49 fe 28 bd
       -0.020563291 0.005650112 0.02535455 -0.04125813
000030 12 8a 7c 3c dd 62 08 3d c1 01 a7 bb bf b5 27 bd
       0.015413778 0.03329741 -0.0050966446 -0.04094481
000040 8d 69 85 3d b2 80 c0 3c 20 45 16 3d 97 0f e2 3d
       0.06514273 0.023498867 0.036687016 0.1103813
000050 6b ad 52 3c 8b a7 bc bc 1f ac a7 3b 31 de a1 3c
       0.012858729 -0.02302911 0.005116954 0.01975927
000060 9e 62 43 bd 24 35 ab bc 09 0a 1b bd 18 4f 16 bd
       -0.04770147 -0.020899363 -0.037851367 -0.036696523
000070 ea 1c 96 bd b6 a9 67 3d 90 ff d0 3c f6 b9 63 bd
       -0.07329734 0.056558333 0.025512487 -0.055597268
000080 60 54 0c bb 0c eb 4f 3c 88 44 3f 3d 8f cf 1d 3e
       -0.0021412596 0.012690317 0.046696216 0.15411209
000090 6f 3c 40 3d fa 1e 68 bd ea 1b 83 bd 60 6a 02 3e
       0.046932634 -0.056670167 -0.064018086 0.12735891
0000a0 7a d6 48 3d 04 2a 01 bd 87 80 bd bc 74 ee 33 bc
       0.049032666 -0.03153421 -0.023132576 -0.010982145
0000b0 66 09 6d 3c 9b 94 f0 bb 12 33 d0 bd ed 46 61 be
       0.014467573 -0.007341934 -0.10165991 -0.21999712
0000c0 9e 7a 03 3c 16 23 c5 3c 13 60 5e bd 15 5e f4 3a
       0.00802484 0.024064582 -0.054290842 0.0018643761
0000d0 df 02 73 bd 53 24 91 bd 5e 6b 3f 3c 36 40 53 3d
       -0.05932891 -0.070870064 0.011683313 0.05157491
0000e0 1d 80 13 bd 85 34 90 bd 91 03 59 bc b3 55 8c 3d
       -0.03601085 -0.07041267 -0.013245479 0.06852283
0000f0 09 bb 5e bd c4 ee 05 bd a7 ce 0c bc c6 ad 7e 3d
       -0.05437759 -0.032698408 -0.008594192 0.062177442
000100 9f d0 a4 38 ae ef 4d 3a 6e bf 54 3a 70 63 c1 3a
       7.858988e-05 0.00078558445 0.00081156834 0.0014754366
000110 10 96 a8 36 44 dc 28 3a a8 9c 28 3a 19 22 c4 39
       5.0242597e-06 0.00064415135 0.0006432035 0.00037409438
000120 23 b4 62 38 5d a5 0e 3a 65 d5 f9 39 2b 84 db 39
       5.4050364e-05 0.0005441511 0.00047651972 0.00041869408
000130 1c 52 fd 38 5e b6 28 3a d8 3d 85 39 8b 1d a2 3a
       0.00012079274 0.0006435866 0.00025413814 0.0012368424
000140 45 96 fb 3c 58 a7 01 3d f1 5e fe 3c 92 59 f8 3c
       0.030711303 0.031653732 0.031051131 0.030316148
000150 ad c9 ec 3c 58 2d 00 3d ee 3d 04 3d 86 59 fc 3c
       0.02890476 0.031293243 0.032285623 0.030804407
000160 0d c6 e8 3c ad 8f fb 3c 52 42 01 3d a8 b5 f5 3c
       0.02841475 0.030708158 0.03155739 0.029993847
000170 86 56 ec 3c e2 fd f6 3c 00 a5 f8 3c f5 1c eb 3c
       0.028849851 0.030150358 0.030352116 0.028700331
000180 6e 2c 0c 3d f4 0a c1 bd 69 33 39 be c3 5f b6 bd
       0.03422206 -0.09425917 -0.18086018 -0.08904984
000190 15 93 fc bc f8 60 5a 3d 5c e7 26 3d b8 6d b7 3d
       -0.030831853 0.053315133 0.040747985 0.08956474
0001a0 92 c3 5d 3d ba 59 97 3c 27 0d 72 3d 90 11 9f 3d
       0.05414159 0.018475402 0.059094574 0.07767022
0001b0 57 dc a8 3b 51 8b 3e bc 8e 98 85 bd d4 9c dc 3c
       0.0051532197 -0.011629895 -0.06523238 0.02693025
0001c0 29 95 d9 bc 23 a6 66 3b 78 59 e8 bb 72 32 be 3d
       -0.026560383 0.003519424 -0.0070907436 0.092869654
0001d0 4a f6 a1 bd f8 72 11 3b 08 5d 98 3d 4f 6e 9d bc
       -0.07908304 0.002219377 0.07439619 -0.019217638
0001e0 4b f6 5a 3c d5 fb 89 3d 48 e6 94 3d d4 ca 53 bd
       0.013364385 0.06737486 0.07270485 -0.051707104
0001f0 37 c1 7a 3c 78 13 e2 3d ec 3a f0 3d e3 51 2d bd
       0.015304855 0.110388696 0.117299885 -0.04231442
000200 d4 94 57 3d a1 26 ca 3c c3 03 46 3d 01 8f 03 3d
       0.052632168 0.024676623 0.04834343 0.0321188
000210 af 6d 45 3d 35 27 0c 3d 9a fc 67 3d aa 60 fb bc
       0.048200306 0.03421708 0.056637384 -0.030685741
000220 68 ad cf 3c 36 ca 32 bd 3d 14 1d bd ce 13 58 bd
       0.025351241 -0.043649875 -0.03834938 -0.052753262
000230 c2 fb 89 3c 19 0f 15 bc 4f c7 10 bd df d4 29 bd
       0.01684368 -0.009097838 -0.035346325 -0.041462775
000240 2b d6 b7 3d 3b a2 56 3a 49 32 8e 3d 14 fa 84 3d
       0.08976396 0.00081876264 0.06943185 0.06493011
000250 46 79 aa 3b d5 6b 4a bd a6 82 c7 3c b1 df 32 3d
       0.005202445 -0.049419243 0.02435429 0.04367036
000260 cf ae d2 bc 68 62 1c bb 55 e2 82 bb 5a 52 2d bc
       -0.02571812 -0.0023862366 -0.003994266 -0.010578716
000270 78 be 78 bd f1 8d 93 bc 14 85 83 bc d3 82 28 bd
       -0.06072852 -0.018012019 -0.016054668 -0.04114039
000280 27 6f 08 3e 9b 95 a9 bc 5c 81 3c bd 39 b5 d3 3c
       0.13323651 -0.02070122 -0.046021804 0.02584325
000290 29 51 e0 3d 46 e4 85 3c c4 b2 4c bc 63 ac 96 3d
       0.1095298 0.0163442 -0.012493793 0.07357099
0002a0 5d b4 61 3d 66 4c 81 3c 23 33 87 bc 30 9f 31 3a
       0.05510365 0.0157835 -0.016503876 0.0006775735
0002b0 d7 f8 85 bd b7 7f a1 bd da 3a 4f bd 54 b0 d0 bd
       -0.06541603 -0.07885688 -0.050593235 -0.10189882
0002c0 23 10 9b 3d 8b 70 0f bc 0a c6 e9 bd 89 70 48 bc
       0.07571437 -0.00875486 -0.11414726 -0.012233862
0002d0 f9 b2 a0 3c e7 a1 af 3d 40 6b a8 3c 34 79 8b bd
       0.01961659 0.08575802 0.020558953 -0.06810227
0002e0 2d 2e 09 3d 9b 3d db 3b 55 71 80 3c 86 ba 3e bc
       0.033491302 0.0066906936 0.01567904 -0.01164115
0002f0 59 88 9c 3d 88 d9 fc bd 13 41 1e be 35 a3 d6 bd
       0.07643194 -0.12346178 -0.15454511 -0.10480348
000300 42 02 ee 3c 65 44 ae 3c dd 11 1b bb 9c 86 67 3c
       0.029053811 0.021272847 -0.002366177 0.0141312145
000310 47 a5 ae 3d b5 d3 06 3d 4f b8 c1 bc bd 64 fb ba
       0.08527618 0.032916743 -0.023647455 -0.0019179803
000320 06 4f 1d 3d a6 65 02 3d db 45 28 3d 33 68 19 bd
       0.03840544 0.03183522 0.041082244 -0.037452888
000330 35 6c 1d bd 4e 4a c6 bc 7f 72 fb bb 26 ae 4e bd
       -0.038433272 -0.024205353 -0.007673561 -0.05045905
000340 68 be ab bd fb da 51 bd 0a 9e a7 3d 04 31 ef 3d
       -0.083859265 -0.051234227 0.081844404 0.11679271
000350 4a f1 aa bb 08 d6 a3 bc ff 2a 43 3d 7b 62 b5 3d
       -0.005216752 -0.019999519 0.047648426 0.08856674
000360 56 29 f1 bb 7b 27 20 3d 68 e4 6a bd 1a db 6f 3d
       -0.007359664 0.03910015 -0.05734673 0.05855856
000370 ba 85 73 3d 12 7a 68 bd b5 83 d1 bd 3a 44 01 3b
       0.059453703 -0.05675704 -0.10230199 0.0019724504
000380 b6 47 59 bd d3 0a fb bd 2b 14 08 3d 78 8e c1 3d
       -0.053046905 -0.12257924 0.03322236 0.09451002
000390 5c 7c 22 3c b8 54 c8 bd 8e cb be bc 42 4c 13 3d
       0.009917345 -0.09781784 -0.023290422 0.035961397
0003a0 af bd 78 3d d6 58 ed bc 60 d1 84 3c 0a f3 84 bb
       0.06072777 -0.028973024 0.016213119 -0.004057293
0003b0 bb cb 9e 3d 6a 37 2d bd 91 55 da bc 67 ae 1e be
       0.07753702 -0.042289175 -0.02665213 -0.15496217
0003c0 83 86 9d bd 95 e4 4b bd 65 b0 ba 3d d0 4e 5c 3d
       -0.07691672 -0.04977854 0.09115676 0.0537861
0003d0 a7 0b 96 bd 9e c5 6b bd 9f 76 a1 3d 92 36 28 3d
       -0.07326441 -0.05756151 0.07883953 0.041067667
0003e0 cf 32 21 3d 89 dd 25 3c b9 a9 56 3d 0c 6d 3b 3d
       0.039355095 0.010123619 0.052407954 0.045758292
0003f0 28 ff 58 3c f8 32 d9 bc e9 a4 88 3c 45 2c 24 be
       0.013244428 -0.026513562 0.016680198 -0.16032512

7.bias f4 [10]
000000 45 3f 42 3d 35 2c 92 3c 33 27 9f 3d d0 b9 42 bd
       0.04742362 0.017843345 0.077711485 -0.047540486
000010 84 b0 cc bd b6 bc ae bd fe fa 47 3c f7 31 59 3d
       -0.09994605 -0.085320875 0.012205837 0.053026166
000020 39 dd 8f bc 37 cc d7 bb
       -0.017561542 -0.0065856236
