Moritz_folder/Notebooks/trained_weights/KMNIST/KMNIST_weights_seed=7.pth (torch_old, 127428 bytes, 6 tensors)

0.weight f4 [32, 1, 5, 5]
000000 da 16 c7 bc f4 dd 80 be a4 fa 93 bc 4b 4f fe 3c
       -0.024302889 -0.25169337 -0.01806385 0.03104367
000010 e5 53 1e be e2 89 bb 3c fd 6a 7c be 17 61 95 bd
       -0.1546169 0.022892896 -0.24650188 -0.07293909
000020 f5 81 f3 bd 06 ec 53 3d e4 d9 81 3e ae 0c bd 3b
       -0.11890022 0.05173876 0.2536155 0.005769334
000030 dd a0 49 be d5 ec 4b be 60 8f a1 bd 6a 6f f7 3d
       -0.1969027 -0.19914563 -0.07888675 0.120817974
000040 7d fa 66 3e b1 fd da bd ae f7 4c 3e b5 97 dd bd
       0.22556491 -0.10692919 0.20016357 -0.108199514
000050 87 5b 83 3e fe a0 04 3e cb 90 60 3e 82 f9 4b 3e
       0.25655767 0.12952039 0.21930234 0.19919398
000060 6f 4b 0d 3e d8 f5 e2 3d 01 37 60 3e 4f 06 c4 3d
       0.13798307 0.11082047 0.21895982 0.09571516
000070 d7 76 14 3e 67 1f 05 be ae e1 83 3e 5f 57 19 3e
       0.14498459 -0.1300026 0.25758117 0.14974736
000080 c1 fe 44 3d 78 e4 d0 3d 49 6c b4 3d 1f 4b 88 3e
       0.048094515 0.10199827 0.08809716 0.26619813
000090 65 d2 57 bd f8 7f 02 be 4b d3 7b 3d 99 9a b0 bd
       -0.052690882 -0.12744129 0.0614808 -0.08623237
0000a0 dc 06 26 3e f6 d2 f7 bd 88 49 04 be 30 b8 3c 3e
       0.16213554 -0.121007845 -0.12918675 0.18429637
0000b0 c2 29 d1 3d f3 cf 57 3d 44 2b 9b bd f9 4f d6 bd
       0.10213043 0.05268855 -0.07576612 -0.10464472
0000c0 c8 8f 6e 3d 1c d8 41 be dc 97 19 be 71 07 a3 3e
       0.05824259 -0.18930095 -0.14999336 0.31841615
0000d0 1f b5 f7 3e ce 59 52 3e 01 06 e4 bd 8d 3a 6b be
       0.48380372 0.2054207 -0.11133958 -0.22971554
0000e0 b7 58 e9 bd ef da 90 3e 31 45 d1 3e 76 24 5b 3e
       -0.11393874 0.28292033 0.408731 0.21400627
0000f0 9d 5e bf be f7 1d 42 be 75 f7 4c 3e d7 2c 3b 3e
       -0.37376872 -0.18956743 0.20016272 0.18278824
000100 ad 3b 09 3e 7a 11 9a be 5e 06 b1 be 59 d1 e7 bd
       0.13401671 -0.3009146 -0.3457517 -0.11319227
000110 10 f6 69 3e 43 30 96 3e 0c c1 55 be 7f d4 ad be
       0.22847772 0.29333696 -0.20874423 -0.33951184
000120 a6 34 39 be b0 08 d6 bd d7 c8 2a 3e 7d 3a 9d 3e
       -0.1808649 -0.10450876 0.16678177 0.30708686
000130 f4 f6 3f 3e 89 d2 58 3a 66 e3 19 3d ea 4b 8a bd
       0.18746549 0.0008271118 0.03757038 -0.06752761
000140 9d 33 74 3e 9c 05 80 3d db ff e2 3c 72 ea 6b bd
       0.23847814 0.0625107 0.027709892 -0.05759663
000150 9f 72 18 be a7 33 ef bd 2c 31 8c 3e e1 4f 8d 3e
       -0.14887474 -0.11679774 0.27381265 0.27600005
000160 04 3d 1a 3d 43 56 99 3d 31 a5 8c be d0 a2 8d bd
       0.037655845 0.07487156 -0.2746978 -0.0691582
000170 aa fb 76 3e d7 f3 a1 3d 8c 13 31 be 11 c3 87 be
       0.2411944 0.07907837 -0.17292613 -0.2651601
000180 3a df 85 be dd 24 18 3e e8 aa 29 3e 68 09 1e 3e
       -0.2614687 0.14857812 0.16569102 0.15433276
000190 38 47 a7 bc eb 40 c9 bc a3 f5 c3 bc 14 c5 ae bc
       -0.020419702 -0.024567088 -0.02392084 -0.021334209
0001a0 57 73 bf bc 07 4c bb bc fb 74 d7 bc 7b fd b0 bc
       -0.023370428 -0.022863401 -0.026300898 -0.021605244
0001b0 08 27 c4 bc 25 7f c8 bc 64 48 a7 bc 59 0a c8 bc
       -0.023944393 -0.02447469 -0.02042026 -0.024418997
0001c0 24 3d aa bc a3 c5 9c bc dc 5d a5 bc 7b 89 b7 bc
       -0.020781107 -0.01913721 -0.020186357 -0.022404423
0001d0 24 49 aa bc 68 e8 a4 bc cf 10 b1 bc 5c d8 95 bc
       -0.02078683 -0.020130351 -0.02161446 -0.018291645
0001e0 8c 37 8a bc f1 c8 b0 bc 60 02 9a bc 1c 36 a6 bc
       -0.01687219 -0.021580191 -0.01879996 -0.020289473
0001f0 48 1b 94 bc 95 15 5e be ab 0d c7 be 38 39 90 be
       -0.018079415 -0.2168792 -0.38877615 -0.28168654
000200 c8 dc 4e 3e a6 de a1 3e 9c cd bb be d2 b7 88 be
       0.20201409 0.3161518 -0.36680305 -0.26702744
000210 cb e4 38 be 78 51 9a 3e 2e 87 ad 3e 1e 4b 29 be
       -0.18056028 0.3014028 0.33892196 -0.16532561
000220 4c 2c 0e be 0e 48 74 3e 2e fe b5 3e 3d d3 8f 3d
       -0.13884085 0.23855612 0.35545486 0.070227124
000230 39 94 6d bc c4 d6 50 3e fc 30 57 3e 83 b3 c3 3d
       -0.014500671 0.20394427 0.2101478 0.095557235
000240 86 1f db bd e3 ba 34 3d ca 16 52 3e 37 fb 11 3e
       -0.10699372 0.04412354 0.20516506 0.14255987
000250 18 d1 8c 3e 70 d4 23 3d 8e 92 10 be cc d0 c5 be
       0.27503276 0.039997518 -0.14118406 -0.38635862
000260 80 a2 a7 be b6 b5 57 3e 73 fa d8 3e a9 01 88 be
       -0.32741165 0.21065411 0.42378578 -0.26563767
000270 f8 89 c5 be 43 5c 17 3d a7 7d af 3e c2 6a e6 3d
       -0.38581824 0.036953222 0.34275553 0.11250831
000280 cd 86 9a be 9a c4 9f bd 1f ae 39 bc 1e f0 10 3d
       -0.3018097 -0.07801171 -0.011333018 0.035385244
000290 40 36 84 3e 94 dc 44 be ab 25 8f 3c 9b e6 e7 3c
       0.2582264 -0.19224769 0.017474016 0.028308203
0002a0 f6 f6 a2 3e 45 e2 1d 3e 75 3d 41 3e 76 7a 5c 3d
       0.3182904 0.15418346 0.188711 0.053827725
0002b0 e3 de a6 3e 30 87 3f 3e 5f 71 65 bc cc a1 30 be
       0.32591924 0.18703914 -0.014004081 -0.1724922
0002c0 81 0d 6e be 6d 3a c8 bc 1a 2b 3a 3e ab 02 73 bc
       -0.23247339 -0.024441922 0.18180504 -0.014832179
0002d0 83 df a0 3d 22 9c 19 bc 81 de 09 3c d5 4e 2e 3e
       0.078551315 -0.009375604 0.0084148655 0.1702226
0002e0 07 a3 50 3d b4 b6 52 3d c0 9b 18 bd 3a 4a 53 3e
       0.050936725 0.05144377 -0.03725791 0.20633784
0002f0 43 c0 61 3e 7e 18 11 3e 9a 15 94 3e 9c a4 aa 3e
       0.22045998 0.141695 0.2892273 0.33328712
000300 33 63 90 3e 05 3b a2 bd 37 ec 38 3d 6b 42 bd 3d
       0.28200683 -0.07921413 0.045147147 0.09241184
000310 31 85 0f 3e 63 88 e7 bc 77 22 b1 bb 51 49 5f be
       0.14015652 -0.028263276 -0.00540572 -0.21805312
000320 ff 4d 1d 3e c9 64 93 3e 7f e1 7b 3d ff 6c 01 be
       0.15361784 0.2878783 0.061494347 -0.12639235
000330 ba 10 5a be 29 ad 7b bb 31 5e d0 3d 5d e6 19 3e
       -0.21295443 -0.0038402772 0.101742156 0.15029283
000340 62 25 c6 3d a0 e7 28 3e 0b 99 db bb cd 83 06 3e
       0.09675099 0.16494608 -0.0067015938 0.13136216
000350 91 27 da 3c 96 ee 90 3e 55 1c 2c 3e c8 ac 31 3d
       0.026630195 0.28307027 0.16807683 0.043377668
000360 fc a5 46 3e 2d eb 32 3e 10 c3 09 3e ca 4d 33 3d
       0.19399256 0.17472525 0.13453317 0.043775357
000370 3f 91 bd 3c 05 b3 10 3d 73 55 32 bd b0 31 f8 3c
       0.023140548 0.035326976 -0.043538522 0.03029713
000380 f1 7f 33 3d 08 9c 6c be f0 90 12 bd c0 3b a8 3c
       0.043823186 -0.23106396 -0.035782754 0.020536304
000390 90 73 18 be 2b de 85 be fd af 59 be c1 02 64 3c
       -0.14887834 -0.26146063 -0.2125854 0.013916672
0003a0 1c e0 86 3e f5 7f b3 3e 74 75 76 3e be e7 92 3d
       0.26342857 0.3505856 0.24068242 0.071731076
0003b0 50 67 3c 3d c6 b6 39 3d 8b a3 b3 3e 60 d8 2f 3d
       0.045996964 0.045340322 0.3508571 0.04293096
0003c0 e5 2a 8f bd eb f3 6b be a4 7a 94 be 51 ee e5 bd
       -0.06990603 -0.23042266 -0.28999817 -0.11227096
0003d0 06 b0 9c 3b 7c d5 4b 3e 47 03 32 be 67 8a c1 be
       0.004781726 0.19905657 -0.17384063 -0.37800905
0003e0 29 e7 28 be 2f 4c 3b 3e fe a2 02 3e 15 94 07 3e
       -0.1649443 0.1829078 0.12757489 0.13240083
0003f0 06 19 e4 3d 0a 67 08 3e 52 42 b7 be eb 3c 4a 3e
       0.11137585 0.13320556 -0.35792786 0.19749801

0.bias f4 [32]
000000 b4 99 8b bb 08 bb 7f ba a7 08 fe bd 9a 25 95 bc
       -0.004260266 -0.0009755348 -0.12403994 -0.018206406
000010 88 ce 0d bd 71 b6 40 ba 93 07 e7 3b 3c 7a 50 ba
       -0.03462079 -0.00073514046 0.0070504635 -0.00079527847
000020 4d 9f a3 bb 04 2a ec 3d c0 32 29 3e 1d db 9c 3d
       -0.0049933554 0.11531451 0.16523266 0.0765898
000030 a4 f6 0d bb 73 cf c1 bb 00 22 2f bb 77 9a e1 bc
       -0.0021661902 -0.0059146225 -0.0026723146 -0.027539475
000040 dc ef ea 3a 82 bc af ba 64 08 f4 ba a9 6c 91 3c
       0.0017924267 -0.001340762 -0.0018618223 0.017752009
000050 4b 99 df 3d ac 33 91 ba 68 5e 8e 3d 92 8c 45 3e
       0.1091791 -0.0011078021 0.069516 0.19291905
000060 76 9a db b9 1e c7 0f bb d3 b3 8c 3e b4 f9 18 bb
       -0.00041886017 -0.0021938751 0.27480945 -0.0023342194
000070 af dc a3 bb 66 78 12 bc 69 f6 b2 3c 58 6b c2 bb
       -0.005000673 -0.008939838 0.021846013 -0.0059332065

3.weight f4 [32, 32, 5, 5]
000000 e0 f0 16 3d 5b 40 6c ba b0 6c d4 3c f8 bd 4e 3d
       0.03685081 -0.0009012275 0.025930732 0.050474137
000010 d6 ea 66 3d 08 d5 42 3d d2 99 a3 3c e7 96 55 3c
       0.0563763 0.047566444 0.019970808 0.013036466
000020 db 39 60 3b 34 a4 1d 3d 51 fe c7 3d 30 d4 91 3d
       0.0034214172 0.038486674 0.09765304 0.0712055
000030 48 f7 d2 3c 78 e3 f9 3c 6f 47 8f 3c f6 2e 91 3d
       0.025752679 0.030503973 0.017490117 0.07089035
000040 24 7e 35 3d 88 e0 80 3d 87 71 0c 3d 8a 48 b0 bc
       0.04430975 0.06292826 0.034287956 -0.021518964
000050 c4 57 b4 3d c6 a8 87 3d 8e b8 20 3c bc 45 9c bc
       0.088058025 0.06623988 0.009809626 -0.01907622
000060 cd 07 8f bd 9b 5c 60 bd d9 a2 ab bd 96 68 5b bc
       -0.0698391 -0.054775815 -0.0838067 -0.013391634
000070 2c 6b 8f b9 01 4c d2 3c aa 79 15 bd 58 f3 bb bc
       -0.00027354935 0.025671007 -0.03649298 -0.022943184
000080 e7 0f 5f bb 73 c5 69 bb 25 01 ab 3c b8 68 f5 3c
       -0.0034036578 -0.0035670667 0.02087457 0.02995716
000090 80 86 58 3d a0 62 88 bc 65 2d ea 3c 60 5c cc 3c
       0.052862644 -0.01664859 0.028586099 0.024946392
0000a0 1e 86 89 3d d1 88 5b 3c bd 54 aa 39 c3 e5 d8 bc
       0.06715034 0.013399319 0.00032488062 -0.026476746
0000b0 fb 24 a7 bc 12 e7 72 3c 4d 13 72 3c 3d 0d 30 3d
       -0.020403376 0.014825599 0.0147751095 0.042981375
0000c0 cd 64 60 bc 22 62 3d 3c 04 4c a4 bd 00 06 b9 bc
       -0.013695908 0.011559041 -0.08022311 -0.022585869
0000d0 24 f9 b8 3c d2 9c 13 bd 48 2a cd bd 59 9a fb bd
       0.022579737 -0.036038227 -0.1001783 -0.12285299
0000e0 57 bd 89 bd fc f8 a3 3c 30 32 ba 3c 8e 88 13 3d
       -0.06725567 0.020016186 0.02272901 0.0360189
0000f0 7e a5 b3 bd b7 d6 b8 bd 30 a4 e2 3b 99 59 ac bc
       -0.087717995 -0.090253286 0.0069165453 -0.021038817
000100 e3 62 06 3d b1 4b 1b 3d 39 da a2 3c b7 36 ff 3c
       0.03280915 0.03791398 0.019879447 0.03115402
000110 7a 14 e9 3b c0 be d8 bc 5a d9 c1 3c 5b a5 ab 3d
       0.0071130367 -0.026458144 0.023663212 0.083811484
000120 67 ad 96 3d e4 b8 6c 3d 78 c5 33 bd 48 03 d6 bc
       0.073572926 0.057793513 -0.043889493 -0.026124611
000130 8f 55 96 bc ca d2 f6 3c 2f f2 c1 3c 7a af 6a ba
       -0.018351344 0.030129809 0.023675052 -0.00089525396
000140 c7 d3 45 bd af 02 33 bd 82 e4 2f bd 02 a8 59 bd
       -0.04829767 -0.04370373 -0.04294253 -0.05313874
000150 2e 1a ab bc aa bb 6c 3d 0b 68 39 3d ec 76 94 3c
       -0.020886507 0.057796158 0.04526524 0.018123113
000160 6e 0b 04 bd 70 a9 af 3c b0 f8 b7 3d 3a 40 dc 3d
       -0.032237463 0.021443099 0.0898298 0.10754438
000170 f2 0f 82 3d 92 c8 14 bd 20 50 53 bd 9d 27 f1 3c
       0.063506976 -0.03632409 -0.051590085 0.029437834
000180 1e b5 9d 3d d4 f9 d4 3d 85 cc ce bb ad fb bc bd
       0.07700561 0.103992134 -0.0063110017 -0.09227691
000190 90 d8 4d 2a 3c 5f 99 af bc c7 a6 32 3e b4 b6 2d
       1.8282793e-13 -2.7898206e-10 1.9415772e-08 2.0771048e-11
0001a0 ae 3c 13 30 ef ce 91 30 1f cf 61 b2 0b 67 7c 32
       5.356452e-10 1.0608953e-09 -1.3143818e-08 1.469176e-08
0001b0 a2 32 b7 2e ae 74 80 30 27 28 00 32 2e 49 b2 32
       8.330871e-11 9.346388e-10 7.45971e-09 2.0755206e-08
0001c0 43 c3 05 31 bb 7d d7 2d 9f 4a 93 2b d2 8b 31 34
       1.946504e-09 2.4498506e-11 1.046569e-12 1.6535276e-07
0001d0 0e 4b 25 34 cd 15 a8 30 81 5c 7d 2c ac b5 47 2b
       1.5394127e-07 1.2229805e-09 3.6004812e-12 7.095112e-13
0001e0 7c 27 44 33 32 4d d6 33 8d 35 8a 31 ca b0 68 2e
       4.5670717e-08 9.979193e-08 4.0224166e-09 5.2907713e-11
0001f0 93 0c fc 2f 5c c5 1b bd a5 b1 eb 3b ef c4 27 ba
       4.5847467e-10 -0.038030013 0.0071928077 -0.000639989
000200 11 fe e5 3c 01 de 82 3d 9c f6 46 3c 41 45 f9 3b
       0.02807525 0.0639 0.012143757 0.0076071327
000210 6d 38 2e 3d e3 10 2a 3d 9d a1 5f 3d 6b 23 34 bd
       0.04253428 0.04152001 0.054597486 -0.04397909
000220 04 8a 02 3c 65 b1 9d 3d bc 4d 13 3c e0 a2 28 3c
       0.007967476 0.07699851 0.008990701 0.010292739
000230 93 22 c0 bd 7a f7 26 bd 29 73 fa bc 1f 24 95 bd
       -0.093815945 -0.040763356 -0.03057249 -0.0728228
000240 a6 68 f1 bc 30 fe 10 bd d0 d9 ca bd 57 f0 58 bd
       -0.029468846 -0.035398662 -0.09904826 -0.05296358
000250 bf 6b 60 bd d3 33 d8 bc a9 de d1 bc db 52 92 ba
       -0.054790255 -0.0263919 -0.025618868 -0.0011163609
000260 0a 1c df 3a 06 54 ba bc b5 e4 b3 3d 5b 58 70 bd
       0.0017021906 -0.022745144 0.08783857 -0.058678012
000270 a8 9f 07 bc 83 70 ab 3d da ba f6 3a d6 bb 54 3d
       -0.008277811 0.08371069 0.0018823997 0.051936947
000280 5f 3b e0 bd 25 6d d3 bc 63 ba 5f 3d ab 5a be bc
       -0.10948824 -0.02580888 0.05462111 -0.023236593
000290 d8 a6 e6 3b e0 82 de bd 97 30 25 bd 45 69 d8 3c
       0.0070389323 -0.10864806 -0.040329542 0.026417384
0002a0 46 aa 18 bc 95 10 0b bd 97 d9 73 bd 82 77 e3 bd
       -0.00931794 -0.03395136 -0.05953368 -0.11106779
0002b0 15 ae 9c bd 90 87 4e bd 5d 94 d4 bd 15 de 4d bd
       -0.07650391 -0.05042225 -0.103798606 -0.050260622
0002c0 cf 22 61 bd 92 3e 0a 3c f2 41 43 bb 56 bb 00 bc
       -0.054964837 0.0084377695 -0.0029793945 -0.007857164
0002d0 2e cd bd 3c 64 bb 4a bc ba 89 25 bb 11 1e 51 3d
       0.023169126 -0.012373779 -0.0025259093 0.051054064
0002e0 5f de ea 3a e4 9c e8 3c d4 43 a1 3c 9e 3f 75 bb
       0.0017919055 0.028395124 0.019685663 -0.0037421952
0002f0 67 d2 3f bc 89 51 6a bc 49 aa bb bc b6 a9 e7 3c
       -0.011707879 -0.014301666 -0.022908347 0.028279167
000300 ed df 6a 3c fd 26 5b bc 7c fc 5e 3d 03 90 4d 3d
       0.014335615 -0.013375995 0.054440007 0.05018617
000310 5b 08 22 3c 48 5e 73 3c 26 f0 bb 3c 1a 4a 14 bc
       0.009889687 0.014854021 0.02294166 -0.00905087
000320 60 eb 24 bd 22 af 1c bd 20 3a e4 bc 34 b1 65 3c
       -0.040263534 -0.038252957 -0.027859747 0.014019299
000330 95 47 89 bc dc 3f 92 bc b7 2f ac bb fa c9 c6 bc
       -0.016757766 -0.017852716 -0.0052547115 -0.024266232
000340 9d b9 1f 3d d3 60 61 3d e3 fe c5 3c 3b f9 d0 bc
       0.038995374 0.05502398 0.024169391 -0.025509467
000350 4a 2c be 3b bb 46 8e 3c b9 e9 48 bc 0a 09 72 3c
       0.0058036195 0.017367711 -0.012262755 0.014772663
000360 ab ed 3d bc 96 96 c0 3c 08 52 e2 3c 21 86 71 3c
       -0.011592309 0.023509305 0.027627006 0.0147414515
000370 28 7d cf 3c ab fb c8 ba 9f 32 c2 bb 48 70 fd bb
       0.025328234 -0.0015333792 -0.0059264447 -0.0077343322
000380 fd 79 75 bd 96 68 39 3d 19 e0 00 3d d4 28 0b 3d
       -0.05993079 0.045265757 0.031463716 0.033974484
000390 74 89 7a bc 37 7f 2e 3d 35 f3 db 3d 6c d1 74 3d
       -0.01529156 0.04260179 0.107397474 0.059770033
0003a0 d0 b8 95 bb 05 39 35 3d b0 a0 c2 3c 81 5a 46 3d
       -0.0045691505 0.04424383 0.023758262 0.048426155
0003b0 a6 53 7a 3d 96 b2 1f 3c 87 39 3d 3d 17 f5 d1 bc
       0.06111493 0.009747168 0.04619744 -0.025629563
0003c0 6e 67 bb 3d 11 bf ac 3d 67 dd a7 3d 9c 1d 22 3b
       0.09150587 0.084348805 0.08196526 0.0024736887
0003d0 ee 70 13 3b 3a 3a 85 3d 47 2a fc 3d d5 20 d5 3d
       0.0022497731 0.065052465 0.12312751 0.10406653
0003e0 bb d6 6e 3d c6 44 09 3d 22 e1 0a be 98 59 f5 bd
       0.05831025 0.033512853 -0.13562444 -0.11979979
0003f0 69 f2 93 bd ce f1 4d bc 8c 3c 57 bd 65 31 fc bd
       -0.072239704 -0.012569858 -0.052547976 -0.12314109

3.bias f4 [32]
000000 8c 3a a5 bd 66 86 f2 b9 3f f5 e1 bc b3 16 03 3c
       -0.080678076 -0.00046257972 -0.027582763 0.008001017
000010 e1 16 6d 3b 38 a8 ad bc b3 44 b5 bc 6d 14 88 b9
       0.0036176967 -0.021198377 -0.022127485 -0.0002595516
000020 b9 ee 2b bb da 12 4d 3d 4e 88 33 ba 65 03 0d bd
       -0.002623482 0.050066806 -0.0006848619 -0.034427065
000030 e4 fb 1b bd 9d 91 25 3d 97 d7 88 ad fb 4a 25 3c
       -0.03808202 0.04042207 -1.5557151e-11 0.0100886775
000040 6d e9 f5 3c 4e be 2c 3d e4 a4 da bc 3a 7a 3f b8
       0.030018533 0.042173676 -0.026689954 -4.565178e-05
000050 c6 19 00 bb e7 2f bc bc 83 a5 5b bd 97 17 c8 3c
       -0.0019546612 -0.02297206 -0.05362464 0.024425311
000060 32 c7 de bc 79 38 81 bd f0 b7 22 bd b6 c0 9f b9
       -0.027194593 -0.063095994 -0.039726198 -0.00030470424
000070 66 15 96 bc 85 2a 29 bc bc 66 ab b9 ea f3 e4 b8
       -0.01832075 -0.010325079 -0.00032692205 -0.0001091732

7.weight f4 [10, 512]
000000 e7 ab 72 3d 05 00 94 3c e2 b6 4a bd 32 ca 6e bd
       0.05924597 0.018066416 -0.049490817 -0.058298297
000010 4d 8b aa 3d c3 ed af bc 88 c8 50 bd 04 dc db bc
       0.08327351 -0.021475678 -0.05097249 -0.02683831
000020 ca 10 d9 3d fc 13 80 bd 54 c3 10 3a 59 3e 5c bb
       0.105989054 -0.06253812 0.000552227 -0.0033606498
000030 67 97 11 3d 99 3d 47 bb f0 71 ed bc 04 f9 94 bc
       0.03554478 -0.0030401705 -0.028984994 -0.018185146
000040 97 23 fd bd 69 e2 8e bd a1 3b 14 bd a2 78 89 3d
       -0.12360304 -0.06976778 -0.03618968 0.06712462
000050 d6 75 01 bd ae ec 10 bc 8e cd 37 3c 0d 91 c5 bc
       -0.031606518 -0.008845491 0.011218442 -0.024117017
000060 ba f3 3c 3d 72 86 99 bd 66 60 03 bd de b9 21 3c
       0.046130873 -0.074963465 -0.032074355 0.009870974
000070 5a 18 01 bd 66 58 d9 bc 3f ce 19 3c 45 2b c4 3c
       -0.031517364 -0.02653141 0.009387552 0.023946414
000080 60 e7 6f 3d 96 9a 31 3d c3 4c df ba b8 a0 49 37
       0.058570266 0.043360315 -0.0017036427 1.2017954e-05
000090 8a 5c 8a 3d 23 de 73 bc 75 ee ba bc 1c 85 89 bd
       0.06755932 -0.0148845045 -0.022818783 -0.06714842
0000a0 57 92 d4 3d 28 6d 52 bc 33 eb 48 bd 34 7f 65 bb
       0.103794746 -0.012843408 -0.04905243 -0.0035018446
0000b0 82 86 57 bd 86 3d ac bc 1c be d4 3c d2 a8 cd bc
       -0.05261851 -0.02102543 0.025969557 -0.025104914
0000c0 f7 ac dd 3d ed 17 39 3d b3 ba 84 3d 2a 09 48 3d
       0.10824006 0.045188833 0.064809225 0.048836865
0000d0 75 37 9d 3c 02 3e a0 3c e3 d4 cf 3c a8 3f c3 bd
       0.019191483 0.019560818 0.025370067 -0.09533626
0000e0 bc 6d 66 3d f7 2e ed 3c 7a 69 9c bc da 1c 2e bd
       0.056256995 0.028953059 -0.019093264 -0.042507984
0000f0 01 19 ca bc f1 ee ab 3c cc 4e 14 3b 8f f9 22 3d
       -0.024670126 0.02098796 0.0022629974 0.03978878
000100 b9 65 e1 bd b9 3f 02 be 26 6b 4f bc 94 3d 4d 3b
       -0.1100573 -0.12719621 -0.0126598235 0.003131722
000110 1d 00 e4 3c a3 1b 81 bd dc a8 02 bd 50 a9 52 3d
       0.027832085 -0.063040994 -0.031899318 0.051431
000120 ed b9 19 bc 71 58 0c 3d 13 65 aa 3d 69 1d 0a bb
       -0.009382707 0.03426403 0.083200596 -0.0021074659
000130 e3 99 98 bd 67 bb 3a 3d 0e a2 89 bb cb 95 b1 bd
       -0.074512266 0.045588877 -0.0042002266 -0.08671149
000140 f2 f1 2d bd 2b 9a 5e bc 4b a4 f6 bd dc 8b 3a 3c
       -0.042467065 -0.013586561 -0.12043055 0.011385884
000150 48 78 c0 bb 85 9a d2 bd a3 0b 66 bd 16 9e 15 3d
       -0.0058737136 -0.102833785 -0.05616344 0.036527716
000160 0d 25 e6 3b 7f 95 69 bd 8b fc ef 3c 6a 2d d3 3c
       0.0070234598 -0.057027336 0.029295227 0.025778491
000170 62 b3 33 bc 6f 09 11 3d 9f 28 bc 3c 17 4e 9f 3d
       -0.010968061 0.035409387 0.022968588 0.07778566
000180 16 b4 91 3d ae 3c ce 3c 77 8f 10 bd 0c 06 01 3d
       0.07114427 0.025175419 -0.03529307 0.031499907
000190 da 96 ba 3d 36 6c c9 3d 8c f5 44 3c 96 77 14 3c
       0.09110804 0.09835093 0.012021434 0.009061715
0001a0 62 9d 6a bc 9c 70 05 3d dd 75 30 3d 2e fe 62 bc
       -0.01431975 0.032578096 0.043081153 -0.0138545465
0001b0 67 ac 08 bd 4e 78 f0 bb ac 24 59 3d d2 87 e5 3a
       -0.03336754 -0.00733856 0.05301349 0.0017511791
0001c0 58 33 42 ba 8e db 0e ba ba 0b bd ba e3 a9 0e bb
       -0.00074081635 -0.00054495863 -0.001442305 -0.002176874
0001d0 ea d5 51 bb 89 c0 04 bb 97 d5 47 bb d0 fa 9d bb
       -0.0032018372 -0.0020256361 -0.00304923 -0.004821159
0001e0 85 4c 67 bb 0b 8d 0f bb 34 28 b3 bb cc cc f5 bb
       -0.0035293412 -0.0021904137 -0.005467439 -0.0075012203
0001f0 a9 50 08 bb 7d d7 68 bb 7b 1a a9 bb 6d 4f eb bb
       -0.002080003 -0.0035528832 -0.0051606274 -0.007181099
000200 e2 94 f9 3d 66 ad 02 3b fb 00 2e bc 60 bc 12 3b
       0.121866 0.001993978 -0.010620351 0.0022390112
000210 91 2a 65 3d a7 0f f4 bc e4 6a 24 bd 64 5c 32 3d
       0.055948798 -0.02979262 -0.040141 0.04354514
000220 6c 78 97 bd 09 97 6c bd ea b6 fd bb e9 94 09 bd
       -0.073960155 -0.057761226 -0.0077427523 -0.033589277
000230 1e 1c ad 3b c3 5f 7c bd d3 cf b3 bd 24 e6 3b be
       0.005282893 -0.061614763 -0.08779874 -0.1834951
000240 67 cf a3 bc 5a 9f 1c 3d ea fa 54 bd 0c c8 58 bd
       -0.019996358 0.038237907 -0.051997103 -0.052925155
000250 f2 c4 0d be 51 98 98 3d b3 73 ee bd 7c 43 01 bd
       -0.1384466 0.07450927 -0.116431616 -0.0315585
000260 11 e8 2c bd 69 50 05 3e 25 4c ae 3d 3d 2e b8 bc
       -0.042213503 0.13018955 0.08510617 -0.022482986
000270 c7 99 98 3c 0a 7e 94 3d 0d c6 00 3c 16 43 ef 3b
       0.018628014 0.072506025 0.007859719 0.0073016984
000280 d1 88 20 bb ad b4 c9 ba 17 07 da b9 3a a3 a5 ba
       -0.0024495611 -0.0015388929 -0.00041585483 -0.0012637146
000290 00 1c 0a bb 52 92 06 bb e1 b2 9c ba 33 a8 0b bb
       -0.0021073818 -0.002053399 -0.0011955166 -0.0021309971
0002a0 6e 4d 00 bb f9 1e 1d bb 10 03 ff b9 d9 e2 f0 ba
       -0.0019577402 -0.002397476 -0.00048639672 -0.0018378153
0002b0 db 0d d7 ba 2a 7b 16 bb a9 d9 29 bb 5b 6c d6 b8
       -0.0016407327 -0.0022961595 -0.002591709 -0.00010224498
0002c0 46 8c 00 3c fa 79 ed 3a ff 40 80 3c 86 21 93 bd
       0.007845944 0.0018118017 0.015655993 -0.071841285
0002d0 a7 97 51 bc 65 c7 e4 bc 6b 33 b2 3b e3 b9 df 3b
       -0.012792504 -0.02792711 0.0054382584 0.0068275793
0002e0 4e 66 b5 3d 6b 68 f4 3b 8f 3d 50 3c 35 7d ba bc
       0.08857404 0.0074587367 0.012709989 -0.022764781
0002f0 bd 75 a5 bd 4a 71 08 be 14 cb 91 bd b8 48 82 bd
       -0.080790974 -0.13324466 -0.07118812 -0.06361526
000300 35 54 86 3d 82 da 51 3c 15 7b 30 bd bd f2 5e 3d
       0.0655903 0.012808444 -0.04308613 0.054430712
000310 08 3d ee 3d 66 d8 5c 3d bd 8c 53 bd 33 37 d0 bd
       0.116327345 0.05391731 -0.05164789 -0.101667784
000320 58 3b 95 3d b8 29 76 3d fa ad ee 3c 6d b1 b2 bd
       0.072867095 0.06009838 0.029135693 -0.087252475
000330 0c 59 1a 3c 5f 9f 12 bc ab c9 44 3c cc 50 7c bd
       0.0094206445 -0.00894913 0.012010972 -0.06160049
000340 9d 3a 0f be 81 d9 8c 3b 38 30 fc bc 8d 42 86 3d
       -0.13987203 0.0042983894 -0.030784711 0.06555662
000350 78 de 1e be 69 76 e2 bd e3 3c 7a bd e2 28 57 3d
       -0.15514553 -0.11057741 -0.061093222 0.052529223
000360 36 c0 11 be 78 9a 85 bd bd 7a f5 39 31 ef a0 3d
       -0.14233479 -0.06523603 0.0004682149 0.07858122
000370 a4 00 4f bd 27 6f b0 3c 6f a6 6b 3d 47 5c eb 3d
       -0.05053772 0.021537377 0.05753177 0.1149221
000380 b4 81 02 80 24 a5 06 00 04 12 00 80 76 fd 04 80
       -2.302e-40 6.10254e-40 -6.463e-42 -4.58267e-40
000390 24 34 5a 83 bc 0a 02 00 ad e6 05 80 b7 db 00 80
       -6.4124297e-37 1.87522e-40 -5.41928e-40 -7.8819e-41
0003a0 14 13 01 80 1b 26 08 80 65 10 05 00 04 b8 08 00
       -9.868e-41 -7.48354e-40 4.65059e-40 8.00696e-40
0003b0 37 fb 09 80 99 07 08 80 05 92 0d 80 23 54 0e 80
       -9.16638e-40 -7.3741e-40 -1.246243e-39 -1.31588e-39
0003c0 f6 79 64 bd b4 c0 1b 3d 2c f0 0e 3d 93 ef 37 bd
       -0.055780374 0.038025573 0.034897014 -0.04490621
0003d0 3f 4a d6 bc a4 a0 d5 bc 45 63 16 bd db d2 15 bd
       -0.02615845 -0.026077576 -0.036715765 -0.03657804
0003e0 d9 03 5e 3d a9 be 46 bc cd 1e 82 bc 6c 82 5f 3c
       0.05420289 -0.012130418 -0.015883828 0.013641935
0003f0 9b da 68 3d d1 ea 94 bc ca 38 51 bc 43 2b 83 bc
       0.056849103 -0.018178375 -0.012769887 -0.01601184

7.bias f4 [10]
000000 6f 36 30 bc 9e a8 0a 3d d2 f6 8a bc d9 71 ac 3c
       -0.0107551655 0.033852212 -0.016963396 0.02105038
000010 6c 18 a2 bd 31 4a 49 bd 9b eb 12 3d 7c a0 1d 3d
       -0.07914814 -0.04914302 0.035869222 0.038483128
000020 74 ec c9 3c 80 2e eb bb
       0.024648882 -0.007177174
