Moritz_folder/Notebooks/trained_weights/KMNIST/KMNIST_weights_seed=1.pth (torch_old, 127422 bytes, 6 tensors)

0.weight f4 [32, 1, 5, 5]
00000000: c322 0e3e 147e c6bd 6a3e f2bd 997b 9abd
00000010: 3124 9ebe a1fc 643e 72e2 c43d 1d54 143e
00000020: 9396 153d a288 83bd 8dee 203e eee1 423e
00000030: 9c76 853e d562 ef3d c649 403c 06d8 acbd
00000040: aaae 0b3d 63f4 003e 31d1 8e3e 8554 c63d
00000050: a38e 8dbe 67f3 b3be ddc2 44be 3c8c bcbd
00000060: 65f1 debb 0c55 e73d ee88 483e 8e66 803d
00000070: a6e4 9ebe 321a ebbd 8474 ea3d da8f a03e
00000080: c765 0a3e 5389 7dbe 5613 9dbe eba5 cebb
00000090: 8450 a73e a552 423d 6125 6abd 09e0 83be
000000a0: 74e3 7a3e b860 ba3d d108 653e b54d a2bd
000000b0: ebf9 52be 3669 3e3e 359d 053d 1942 163e
000000c0: b6b3 49bd 20ad 8fbd 3fc4 bbbe ef6e 71be
000000d0: 0ea7 c8bc 84c7 68bc 0e64 863e 1e3a 82bd
000000e0: c3a2 bfbd b4ed d2bd 891f 5d3e 0928 0a3e
000000f0: 8604 05be 82f7 153e b74d 543e 94bd 923e
00000100: 4dec cebd a3bd 2e3d 64c5 e13d b1f6 103e
00000110: d0b7 8ebd 6a3b 54be 2eed 093e 32a0 233d
00000120: c3fc ba3d 5186 c2bd 89c0 e3bd 197e 773c
00000130: f76a 02bd 801b 683d 2958 84bd ed28 6d3e
00000140: 6463 1fbe 529e 8abe c80b 48bd a07e 603d
00000150: 5585 653e e9c8 55be 33ed 92be d5a9 a43d
00000160: 5b46 5b3d 5d88 393e a734 20be e538 41be
00000170: b27b ab3d fb92 bb3d 6881 94bd 1d7f 74be
00000180: c3b7 103d 597b 813d 25a0 cabd d1b0 d2bd
00000190: 6779 3b3e 66de ee3c 36f1 b73d f931 ae3c
000001a0: 4edf 05be 43c0 ddbd d0b0 773e 7a6e a83c
000001b0: e9fc d33d 6d93 c83c 1bb1 c23d 3208 6f3e
000001c0: 23c2 5f3e 421d eabd 9e5a 19bc 0c65 263e
000001d0: 7b28 843e e919 5e3e cd8d 0bbe 4349 0ebe
000001e0: bb45 91bd 7f41 0e3e cb17 8b3e dbdf eabd
000001f0: c227 5e3d d3cc b6be 49ac b8be cad2 b2bd
00000200: 1e22 713e 92dd a33e 3a3f 77be adc7 ec3c
00000210: 666f 453e eb8f 5b3e f54f 603e 21c2 2f3e
00000220: 9bb6 473e 3a31 633d 593b f6bd ff2b bfbd
00000230: fe8a 3abd 5a58 60bd 2200 29be dc41 a23d
00000240: 1ef6 0f3e 9590 3ebd a814 f03c 665c 453d
00000250: 974e 433e 6b9a 5c3e 6df3 03be b2e5 983e
00000260: c6ff 3e3e 7ae6 793c 62f1 cdbe a6c8 b6be
00000270: f587 f0bd b809 053e bc52 523e 1b98 93be
00000280: 35b5 c1be 1897 c1bd 048b 153e 43e0 803e
00000290: e753 3dbe 02f0 9cbd 30de 14be b51c f43c
000002a0: 12b0 773d 4d97 28bc ade3 753d 68d6 373e
000002b0: d595 253e 5b3d 853e ec24 c13e c2d4 693e
000002c0: 83c0 0b3e 10d1 1e3d 44c8 babd 8218 3f3d
000002d0: 71c1 923b d45a 9dbd 6715 8dbe e687 6dbe
000002e0: 9a27 7dbe c671 563e 471b 76be 0d91 a2be
000002f0: 0009 42be 9cd7 51be fb98 e53d 14aa afbc
00000300: 20ba 15bd ea79 5d3c e1eb dd3d 7481 04be
00000310: 3a1b 413e cdf8 903e 428e 953e 2ef4 3bbd
00000320: dad2 fa3a 7ec1 f6bd efd2 113e b376 363d
00000330: a0cc 433e 9f22 d5bc 27ec 23bd 916b 8fbd
00000340: 6463 f23d e13f 673e b463 7a3d ca43 a73d
00000350: a237 57be e817 253e 512a ad3e f53e 683e
00000360: 49bd 553e 538e 18be 980e 44bd 8b31 ba3e
00000370: 52c9 afbd 3d6b 3c3e 5b9e 44be 297d 05be
00000380: ead9 733e 3ea2 5abe c357 a43c e101 b43e
00000390: cf7e 9e3e 8137 8b3e b1b2 cfbc 46c2 0fbe
000003a0: 223e a83e 3805 043e d676 993b 3dc9 733d
000003b0: 868a 2bbe 2ef5 453e b2a9 993e c092 c7bc
000003c0: b923 5fbe 352f 4cbe 6665 bfbb 4103 623e
000003d0: a102 be3d 6ee5 64be 2a33 e0be 0402 98be
000003e0: a09c b9bc 2cf0 843e 07c4 a13d c5fc 16bd
000003f0: 1ded 783c 1180 b53d b00f 443d 1771 b9bd
0.13880448 -0.09692016 -0.11828311 -0.07543106 -0.30886987 0.22361995 0.096135035 0.14485212
0.036520552 -0.06422545 0.15716 0.19031498 0.26067054 0.116887726 0.011736339 -0.08439641
0.03410212 0.12593226 0.27893975 0.096840896 -0.27647886 -0.3514664 -0.1921496 -0.09206435
-0.006803679 0.11295518 0.19583485 0.06269561 -0.3103382 -0.11479606 0.11448005 0.3135975
0.13515387 -0.24759416 -0.30678815 -0.0063064 0.32678616 0.047442097 -0.057164554 -0.25756863
0.24500829 0.09100479 0.22366644 -0.07924978 -0.20603149 0.18594822 0.032620627 0.14673652
-0.04924365 -0.07015443 -0.3667316 -0.23577474 -0.02449372 -0.0142077245 0.2624821 -0.06358741
-0.09357216 -0.102992445 0.21594061 0.13491835 -0.12990007 0.14645198 0.20732771 0.28660262
-0.101036645 0.04266132 0.110239774 0.14156605 -0.06968653 -0.2072579 0.13469383 0.039947696
0.09130242 -0.09498275 -0.111207075 0.015105748 -0.03184029 0.05666685 -0.06462128 0.23160143
-0.15565258 -0.27073914 -0.04883936 0.05480826 0.22414143 -0.20877422 -0.28696594 0.080402054
0.053533893 0.18118425 -0.15645085 -0.1886936 0.083732024 0.09158894 -0.07251245 -0.23876615
0.0353315 0.06322355 -0.098938264 -0.10287631 0.1830803 0.029158782 0.08981554 0.021264063
-0.13073465 -0.10827687 0.24188542 0.020560492 0.10350973 0.02448436 0.095064364 0.2334297
0.21851401 -0.11431362 -0.009359984 0.16249484 0.25812134 0.21689571 -0.13628311 -0.13895135
-0.07093378 0.13892172 0.2716659 -0.11468478 0.054237135 -0.35703143 -0.36068943 -0.08731611
0.23548171 0.32004982 -0.24145213 0.028903807 0.19280776 0.21441619 0.21905501 0.17163898
0.19503252 0.055466868 -0.120230384 -0.093345635 -0.04554271 -0.05477176 -0.16503957 0.07922718
0.1405873 -0.046524603 0.029306725 0.04818382 0.19072948 0.21543281 -0.12885828 0.29862744
0.18652257 0.015252704 -0.40223223 -0.35699958 -0.11744682 0.12991989 0.20539373 -0.28826985
-0.37833562 -0.09452647 0.14603812 0.25171098 -0.18489037 -0.07662965 -0.14537883 0.029798845
0.060470648 -0.010289979 0.06003158 0.17952883 0.16170438 0.26023373 0.37723482 0.22835067
0.13647656 0.038773596 -0.09120229 0.04665423 0.0044786264 -0.0768334 -0.2755539 -0.23196372
-0.24722138 0.20941839 -0.24033843 -0.3175129 -0.18948746 -0.20492405 0.11210819 -0.021443404
-0.036554456 0.013517836 0.10836006 -0.12940007 0.18858042 0.2831482 0.29210097 -0.045887165
0.0019136325 -0.120486245 0.14240621 0.044546794 0.19121027 -0.026017485 -0.040020134 -0.070029385
0.118353635 0.22582962 0.06113024 0.081672266 -0.21017316 0.16122401 0.33821347 0.22680266
0.20872988 -0.14898042 -0.04786548 0.36365923 -0.08583321 0.18400283 -0.19201033 -0.13036026
0.23813596 -0.21350953 0.02006138 0.35157683 0.30956122 0.27190784 -0.025353761 -0.14038953
0.32859904 0.12892616 0.004683356 0.059518088 -0.16752061 0.1933181 0.3001228 -0.024361968
-0.21790971 -0.19939883 -0.005840945 0.22071554 0.09277845 -0.22353145 -0.43789035 -0.29689038
-0.022657692 0.25964487 0.078987174 -0.036862154 0.015193251 0.08862317 0.047866523 -0.09054773

0.bias f4 [32]
00000000: b8e9 0fbc 57c1 363c 60b4 59bc 4459 523e
00000010: ee4a 07bc a918 9cbb 8a59 79bb 03b9 093e
00000020: f5a7 13bc 1c78 7fbb ec0e 53bc 2e67 9539
00000030: e3b2 243c 2689 123d e2ec b6bb 3851 c4bb
00000040: 8f12 013e c51a c73d df1f 5abc 5610 d4bb
00000050: 7abf aa3e 8e7e f33d 3085 1fbb 2aa1 07bc
00000060: 6cc2 89bc c2db 1dbb 4b13 33bb 977b ac3c
00000070: de2d 3cbd 649b 9fbb ba18 40bc 9f60 f83d
-0.00878375 0.011154494 -0.013287634 0.20541865 -0.008257611 -0.004763682 -0.0038047754 0.13449483
-0.009012212 -0.0038981503 -0.012881976 0.0002849637 0.010052416 0.035775326 -0.005582438 -0.0059911273
0.12604736 0.09721903 -0.013313263 -0.006471674 0.3334921 0.11889373 -0.002434086 -0.008278171
-0.01681634 -0.0024087285 -0.0027324732 0.021055026 -0.04594218 -0.004870819 -0.011724645 0.12127804

3.weight f4 [32, 32, 5, 5]
00000000: 9e3c ebbd 8304 babd b760 f0bc 0b6a efbb
00000010: 7b85 2ebb ed31 ffbd 4a55 65bd 503e acbc
00000020: 3d45 e639 bc4e b5bc d8d8 3f3d d742 403d
00000030: 1b97 30bc 268c 52bd 4a55 00bd 9991 103e
00000040: 44b1 e93d 213b 933d b3aa 1fbd 061d d7bc
00000050: c81a 043d 5340 ca3d 6b32 083e 5624 cc3d
00000060: 98fd cc3c 96a1 fbbd 5c7e 65bd b9ba 57bd
00000070: 1d8d d03c 0995 323b 1a3b e8bc 7bc9 ef3c
00000080: dcc7 ddb8 73f9 aa3c 0d73 4dbb 2861 413c
00000090: b375 c63c ce43 593d 3efe 04bd 99c2 083c
000000a0: 4b42 f03c 02fc 443c 8ec3 623d 78cd 27bc
000000b0: 7596 22bc 8771 0cbd ad1a 3abd 2f9c b33c
000000c0: 6c4b ee3b deca 08bc 6f5f 8a3b 9a70 0dbc
000000d0: 3b9f b0bc 7af9 e9bc ff8f 79bc 91ff 5b3d
000000e0: a6e3 a1bb c2c6 d8bc 2b9f 40bc b6a2 67bc
000000f0: b5c8 7d3d b567 c03b 27c0 87bc 4e19 32bc
00000100: 3954 0fbd c1ff 163c d7c3 05bd 71cc febb
00000110: b3f5 18bd 7f54 a3ba abf2 9bbd 562d c5bc
00000120: 44c2 c5bb 9da8 cbbb 7570 e03c 7d31 043d
00000130: 2b8f bcbc 226c 28bd 7fab c63b 8a36 58bc
00000140: c6e7 253d 12b5 08bd 272c 15bc cfbe 7e3d
00000150: 38a8 253c 4713 3fbd a20d 91bd 1685 1e3d
00000160: bee3 6c3d a78c 3e3d 910e 88bd d8a9 543c
00000170: e057 b4bc d7b8 ddbc ecb6 023d bad6 7d3d
00000180: c84b be3d ea1b aa3c 85c6 9fbd 0719 82bd
00000190: 5720 b5bd b3fe 77bc 6e35 69bd 9333 c43b
000001a0: 580c 043d 68a0 6f3c 364f bebc adf9 0fbb
000001b0: f803 26bd 095a 283d c6f2 af3d 1d25 463c
000001c0: cd2e 433d d866 0ebd 8ff8 4dbc eba7 483d
000001d0: 4e32 493b a636 813d ebc5 be3c 5e46 eabb
000001e0: 1018 34bd 17d2 763c de3f a23c c952 163d
000001f0: b10e 253d 9bf9 c23c a4d0 38bc 856a fbbc
00000200: c124 dd3c 19d0 dcbc d33f 5ebc 9fc0 f0bc
00000210: 9724 853b 1f8f 5c3d 9d6a 42bb dcfd ab3c
00000220: d4e1 3f3d 20b6 efbb f2b9 5a3d 16b2 6d3a
00000230: c184 c0bc ff23 9a3c d2b0 003d 37cb 7e3b
00000240: d800 163c 037f 8bbd 5f4f a33c 1353 893c
00000250: c551 903c 2258 ba3d d50d 6ebd 4a6b bc3b
00000260: d728 a8bd 1de9 9d3c 9285 6ebc 1a62 4c3c
00000270: 2ed1 c4bc fa11 b4bd 7e72 6f3d 998c 4e3d
00000280: a984 ecbc c384 17bd aa02 3abd 8621 323d
00000290: 8e40 883d a52c d0bd 7c8b ce3b 36a4 943d
000002a0: 2b73 b93c 7ce3 a63d 79f1 edbd 2a27 213c
000002b0: 07eb b23d 8078 f9bb 6cb9 0f3d 8fee 83bd
000002c0: dfd7 34bd 18ba b1bb dc91 37bd 85f1 2abc
000002d0: d6f6 903d 187f 933c 86c2 62ba b87b a3bd
000002e0: 334f e8bc 53f9 613c deeb 8d3d 1eb7 093d
000002f0: 0e30 41bd fe56 41bd b3ab 7a3c b877 8cbb
00000300: b930 223d 9e48 5b3d 527b c7ba f156 aabc
00000310: bbdb d7bd bd3c bbbc 1ff0 cabc 46bd 03bc
00000320: 5ebe f6bc e320 99bd c397 b93c 83e9 4b3c
00000330: 1d48 d539 9ff9 c6bc 9550 56bd 1c5a bf3b
00000340: 1f5f 913c 2c60 5e3b 6e46 d2ba b26f 183d
00000350: b6f3 943c 33d1 843d a689 e4bc 8dc0 033d
00000360: 0f64 553d a322 b83c 64f8 193d dedc 5fbc
00000370: 357e c33c 9371 793d 8d84 5c3d 8023 fd3c
00000380: ab6b cc3d 5714 b3bd dabd b4bd 89d1 9bbc
00000390: ac55 d43d 8613 78bc 1e46 fbbd 2c58 9bbd
000003a0: 3a51 b4bd 678a 553d 2626 ec3b bbc2 9bbd
000003b0: ada5 7cbd bae0 8dbd ee55 403d 5777 943d
000003c0: 3cfe 70bc 33d4 303d e7b0 c53c 2a0b 61bd
000003d0: 64e8 863c 2702 133d 0bb5 d53d 321e c03d
000003e0: 578b 6d39 208c 8b3c 00a6 9cbc e423 ddbc
000003f0: f93d 4ebc 96d5 0ebc d2c8 0fbd 591b 8ebc
-0.11486171 -0.09082892 -0.029342992 -0.0073063425 -0.0026629854 -0.124606945 -0.05598954 -0.021025807
0.00043920605 -0.02213227 0.046837658 0.046938743 -0.010778214 -0.051403187 -0.031331338 0.14118041
0.11410764 0.07189012 -0.03898115 -0.026258957 0.032252103 0.0987555 0.13300483 0.09967868
0.025023267 -0.122866794 -0.05602871 -0.052668307 0.025457913 0.0027249476 -0.028348494 0.029270878
-0.00010575328 0.0208709 -0.0031349093 0.011802949 0.024226045 0.05304318 -0.032469027 0.008347177
0.029328486 0.012022974 0.055362277 -0.010241859 -0.009923567 -0.034287956 -0.045435596 0.02192506
0.0072721746 -0.008349149 0.0042228024 -0.008632803 -0.021560302 -0.028561343 -0.015232085 0.053710524
-0.004940468 -0.026461963 -0.011756699 -0.014137914 0.061958987 0.005871738 -0.016571118 -0.010870291
-0.03499243 0.00921625 -0.03265747 -0.007775836 -0.037343692 -0.0012461095 -0.076146446 -0.02406947
-0.006035121 -0.0062151686 0.027397374 0.03227376 -0.023017487 -0.04111875 0.0060629244 -0.013196597
0.04050424 -0.033375807 -0.009104765 0.062193688 0.010110907 -0.046649244 -0.070826784 0.03870114
0.05783438 0.046520855 -0.06643403 0.012979947 -0.022014558 -0.027065678 0.03191273 0.061972357
0.09291798 0.020765264 -0.078015365 -0.0635243 -0.08844059 -0.015136409 -0.05693572 0.0059875934
0.032238334 0.014625646 -0.02323113 -0.0021968887 -0.04053113 0.04110149 0.08591227 0.012093809
0.047652055 -0.03476605 -0.012571468 0.048988264 0.003070015 0.063092515 0.023287734 -0.0071495017
-0.04396826 0.015064738 0.019805845 0.036700044 0.040297214 0.023800662 -0.011280213 -0.03069044
0.026995065 -0.026954697 -0.013565022 -0.029388724 0.0040631997 0.05384743 -0.0029665597 0.020995073
0.046846226 -0.007315412 0.053399988 0.00090673694 -0.023500802 0.018815992 0.03141863 0.003887845
0.009155475 -0.06811335 0.019935308 0.016763246 0.017617116 0.09098841 -0.05811866 0.0057500945
-0.082109146 0.019276196 -0.014558213 0.012474561 -0.024025526 -0.08792491 0.058458798 0.050427053
-0.028871851 -0.036991846 -0.045412697 0.043489 0.06652938 -0.10164765 0.006303249 0.07257883
0.022637924 0.08148858 -0.11618323 0.009835998 0.08736234 -0.0076132417 0.03508894 -0.06441986
-0.044151183 -0.0054237954 -0.044816837 -0.010433559 0.0707833 0.018004939 -0.0008650202 -0.07982582
-0.028358078 0.013792354 0.06929754 0.0336219 -0.04716497 -0.047202103 0.015299725 -0.0042867325
0.039597247 0.05353605 -0.0015219247 -0.02079341 -0.10539957 -0.02285611 -0.024772702 -0.008040732
-0.030120071 -0.07476976 0.022655373 0.01244581 0.00040680254 -0.02428895 -0.052322943 0.0058395993
0.017745553 0.0033931835 -0.0016042718 0.037215896 0.018182617 0.06485214 -0.027897667 0.032166053
0.052097376 0.022477454 0.0375904 -0.013663499 0.023863891 0.06089933 0.053837348 0.030900717
0.099814735 -0.08744114 -0.08825274 -0.019020813 0.10367903 -0.0151413735 -0.12269233 -0.07585177
-0.08804555 0.052133944 0.007206696 -0.07605501 -0.06168144 -0.06927629 0.04695695 0.07249325
-0.014709052 0.04317112 0.024132205 -0.054942288 0.016468234 0.035890725 0.10434922 0.09380759
0.0002265399 0.01703459 -0.019122124 -0.026994653 -0.012588018 -0.008717915 -0.035103627 -0.017347025

3.bias f4 [32]
00000000: 6ab4 84bc b068 613d 3d8a ddbb 3960 41bd
00000010: 78d6 f4bc 4c9d 24bc 3e22 ab3b 0823 883c
00000020: 323d bcba 51a5 833c 77b9 a9bd 5c39 f3bb
00000030: 3b89 b23c 8bd7 4d3c de15 7dbc f369 34bd
00000040: bfc2 ee3b ea82 673a 0f7b 2abc c0c5 81bc
00000050: 4450 293c e3e8 c2bc cbc7 5fbd 6689 e13c
00000060: 5a71 67bd 8aca 723c acc1 77bc c439 5a3d
00000070: b810 81bc a888 53bc 177e b13b bb0a b33c
-0.01619931 0.05503148 -0.006760864 -0.047210906 -0.029887423 -0.010047268 0.005222588 0.016618267
-0.0014361499 0.01607004 -0.08287328 -0.0074226093 0.021793952 0.0125635965 -0.015447108 -0.044046354
0.007286399 0.00088314584 -0.010405316 -0.015841365 0.010334078 -0.02379269 -0.054633897 0.027531337
-0.056504585 0.014818797 -0.015121859 0.053277746 -0.015755042 -0.012910999 0.0054166424 0.021855703

7.weight f4 [10, 512]
00000000: f068 563d 8c43 6b3c 3b33 13bd 9f20 0b3d
00000010: 4040 173c 3527 7fbc 3d71 fcbc a687 50bc
00000020: 654f 5a3c 828d 16bd 4535 123d bb76 34bd
00000030: df53 4f3d d861 3abd 8960 d9bb e3f6 f0bc
00000040: 386b 323d 3236 1b3d 10cf 5abd 9950 f9bd
00000050: 855d 913d dd75 343d 3c5d 48bd 26c1 93bd
00000060: 99bc 3d3d 57b7 c4bb 2596 4ebd 0035 c0bd
00000070: cdf2 adbd 3f83 ad3d 9cb7 2fbc 5fa4 a7bd
00000080: a702 223c b94e 5c3d 6e23 1dbc bd15 ec3c
00000090: 2ab9 bb3d eab3 863d 17e1 e9bc 1029 e23d
000000a0: ca6e f0bb 82ba bfbb 252b 8c3d a8fa 413d
000000b0: b1de 7dbd e0b4 82bd 0b6c 2d3d 9812 fe3c
000000c0: edff a73d 74c1 833d 15d4 213b 1c02 9dbc
000000d0: 69f3 d23d e62c 553d 9076 653d ed45 0abd
000000e0: c6bb 8d3c 07f3 2e3d 2eb4 d6bc 2011 03bd
000000f0: d0bb 5f3c a642 a9bd 491d 6cbd 99a3 e6bd
00000100: aba9 68bc 2a89 d6bd bd7a 93bd fac8 e13b
00000110: e1b7 a63d 35b3 363d 9cf7 53bd f5fb 02be
00000120: ebad 983d 77d6 533d 3394 0dbd 4980 a5bd
00000130: a2e8 4f3d b7e5 56bd 7530 b23c 5ddf a8bc
00000140: 01fb b53d 7507 033d 7fd9 91bd f11b b8bb
00000150: 5d8e ad3d 9fe1 c3bb 47f9 92bc d14a 88bc
00000160: 3bbb 943d 91fc 8f3d 6595 df3c 1aa7 35bc
00000170: da0f a73d 44db 3c3c 35aa 123d 8e7f 30bd
00000180: 439b 95bc 746b 0fbc 5ffe 80bd d309 0bbc
00000190: 369e eabb 56c0 a1bd 8d1a 503d daa9 81bc
000001a0: 1643 fe3b f0d1 74bc e34d 833d cd97 103d
000001b0: 8567 2dbc 2b02 6dbd dcaf a1bc 241a 8cbd
000001c0: 22df 9c3c 31ea 383d 0a7a 64bd 2c92 64bd
000001d0: 997e e63c c849 993d 54ab b83c db52 b0bb
000001e0: 1740 153d 8b83 5c3d a5ea 083d e7b5 023d
000001f0: c37a 7fbd 1536 4b3d 6327 16bd 5b87 53bd
00000200: b428 523b e123 6f3b bbf9 203b 2b2c 5dba
00000210: 0018 5d3b bb30 3c3b 53f1 473b 8db3 3e3b
00000220: 2fb9 253b 2f32 d23a b80a 853b 80ec ba3b
00000230: 3314 7e3b b58d 8a3a 042d ef3a 6022 983b
00000240: 1913 043d 430d 133c 7294 5a3d ab52 1f3d
00000250: de2a 1a3c 7a6d 7d3d a85c 343c 0603 c7bd
00000260: 36c1 69bd 6443 db39 5874 143d 8943 e8bd
00000270: a90c 4cbd a12a 40bd f0d9 2ebd 61bc 06bd
00000280: 2ed2 823c 1dc0 e0bc 75c7 80bd 7599 6d3c
00000290: abde 543d 9bf7 a8bd 5f7d 89bd 222a f5bb
000002a0: b54b 07bc 195f 31bd 0a2f 00bd ec75 d13c
000002b0: e543 7ebd 2f7c 85bc 43cb 853d 4990 663d
000002c0: 7d36 e3bd dffe 49bd 9d1f fbbc 4a01 c63d
000002d0: 3d35 6ebd ac87 07be 6791 9abd 84d8 ab3c
000002e0: 8953 bab9 aba5 64bd a262 483b 09dc b13b
000002f0: b335 eebc 288a 943d 69a3 6d3d 86f3 983d
00000300: eca5 b7bc 870e d83d 3b68 0c3d 16c9 37bb
00000310: 6bc2 4dbc c790 993d 674e 12bc 4e90 e3bb
00000320: 6ee5 e83d 2ba4 793c 266f 26bd 2019 24bc
00000330: 7455 c33a c6b8 1a3b 626a afbc dce4 07bc
00000340: c569 96bd e24e f6bd 92c5 49be 12f0 abbc
00000350: 2cba efbd 86e3 09be f44b b2bc 2191 66bc
00000360: 0fc9 0abe bce0 58bd d3bb 2d3d ebd3 603c
00000370: daea cabc f64a acbd 548e 3c3d 5b31 b83c
00000380: 7fc5 243d 5c02 06bd 63cc 33bd 94bb d33c
00000390: d07d 21bd 8be5 033c f7f7 2dbd 5614 013d
000003a0: ae1c f43b dbb5 49bd 0209 b2bc f6bf 933d
000003b0: e760 093c 4fd9 75bd e6e6 fa3b c460 2a3d
000003c0: 171a e23d 9b95 81bd 9dd2 67ba a078 b93c
000003d0: dbf3 853d b9fa d73a d964 0b3d 3142 503b
000003e0: 80b3 8d3c a90a 393d 4eb5 febc f555 c9bc
000003f0: 8904 843d 7cda 8d3c 7c58 3f3c a373 4b3b
0.05234617 0.014359366 -0.03593753 0.033966657 0.009231627 -0.0155733125 -0.030815715 -0.012727654
0.013324593 -0.036756046 0.035695333 -0.044058543 0.050617095 -0.045503467 -0.0066338223 -0.0294146
0.043559283 0.03789348 -0.053420126 -0.12173576 0.070979156 0.044057716 -0.04891704 -0.072145745
0.04632244 -0.006003301 -0.050436158 -0.09385109 -0.08493576 0.08472299 -0.010724928 -0.08185648
0.009888328 0.053786013 -0.009590967 0.02881896 0.091661766 0.06577285 -0.028549714 0.11042988
-0.007337426 -0.005851091 0.06844167 0.047358185 -0.061979953 -0.063821554 0.042339366 0.031014726
0.08203111 0.06433383 0.002469306 -0.019166045 0.10300333 0.05204477 0.056021273 -0.033758093
0.017301451 0.042712238 -0.026208963 -0.031998754 0.013655618 -0.08264665 -0.057645116 -0.112616725
-0.014200608 -0.10475381 -0.07201145 0.0068904134 0.08140541 0.0446045 -0.05174981 -0.12791426
0.07455047 0.0517182 -0.034565162 -0.08081109 0.050758965 -0.052465167 0.021751622 -0.02061432
0.08885766 0.031989533 -0.07121562 -0.0056185653 0.08474419 -0.005977824 -0.01794113 -0.016637238
0.07262274 0.07030595 0.027292917 -0.011087203 0.0815732 0.011526886 0.035806853 -0.043090396
-0.018262511 -0.008753646 -0.062985174 -0.008486229 -0.0071599735 -0.07898013 0.05080657 -0.015828062
0.007759462 -0.014942631 0.0641134 0.03530102 -0.010583763 -0.057863396 -0.019737177 -0.068409234
0.019149367 0.045145217 -0.055780448 -0.055803463 0.028136538 0.07484776 0.022542633 -0.005380971
0.036438074 0.053836387 0.0334269 0.031911757 -0.062372934 0.049612124 -0.036658656 -0.051642757
0.0032067718 0.0036489891 0.0024562913 -0.00084370625 0.003373623 0.002871557 0.003050883 0.002909872
0.002528738 0.0016036684 0.0040601157 0.0057044625 0.0038769364 0.0010570796 0.0018247669 0.0046427697
0.032244775 0.00897533 0.053364225 0.038897198 0.009409634 0.061871983 0.011008419 -0.097173735
-0.057069026 0.00041821145 0.036243767 -0.11341006 -0.04981676 -0.046915654 -0.04268831 -0.032894496
0.015969362 -0.027435357 -0.062880434 0.014501919 0.051970165 -0.08250352 -0.06713366 -0.0074818293
-0.008257796 -0.043303583 -0.03129486 0.025568925 -0.062076468 -0.016294567 0.0653291 0.056289945
-0.11094377 -0.04931533 -0.030654723 0.096682146 -0.05815624 -0.13235348 -0.075472645 0.020977266
-0.00035538923 -0.055822056 0.0030576368 0.0054278416 -0.02907834 0.07252914 0.05801717 0.074683234
-0.022417985 0.10549646 0.03427909 -0.002804344 -0.01255856 0.07498317 -0.008929825 -0.0069446927
0.11371885 0.015236895 -0.040633343 -0.010015756 0.0014902786 0.0023608669 -0.021413032 -0.00829431
-0.07344393 -0.120267645 -0.19704273 -0.020988498 -0.11705431 -0.134657 -0.021764733 -0.014072687
-0.1355326 -0.0529487 0.04241545 0.0137224 -0.02477019 -0.08412735 0.046034172 0.022484472
0.04022741 -0.032717094 -0.04389609 0.02584628 -0.039426625 0.008050333 -0.042472806 0.031513534
0.007449708 -0.049245697 -0.02173281 0.07214348 0.00838492 -0.060021695 0.00765692 0.04159619
0.110401325 -0.06327363 -0.00088433345 0.022640526 0.06540652 0.0016477919 0.034031723 0.0031777734
0.017297506 0.045176182 -0.031092312 -0.02457712 0.064461775 0.017316096 0.011678811 0.0031044267

7.bias f4 [10]
00000000: ba7e b53c d908 1cbd 9c5c 3dbd d0e3 dfbb
00000010: 2066 78bd a483 93bd ce2e 573d 9d6b 983c
00000020: 73a3 633d 1ce5 133d
0.022155154 -0.038094375 -0.046230897 -0.0068325773 -0.06064427 -0.07202843 0.05253487 0.018606002
0.0555758 0.036107168
