Moritz_folder/Notebooks/seed_experiments/EMNIST_weights_seed=9.pth (torch_old, 127500 bytes, 6 tensors)

0.weight f4 [32, 1, 5, 5]
0	0x3d696140	0.05697751
1	0xbd59cba9	-0.05317274
2	0x3cb464e3	0.022020763
3	0x3df648c6	0.12025599
4	0x3df955e3	0.12174585
5	0x3e29f5f0	0.16597724
6	0xbd409bee	-0.047023706
7	0x3e28c1e0	0.16480207
8	0xbd563f8d	-0.0523067
9	0xbd967d3d	-0.07348106
10	0x3e21413c	0.15747541
11	0x3ca129d0	0.019673258
12	0xbe1ef252	-0.15522125
13	0xbe265d86	-0.16246614
14	0xbd83328d	-0.06406126
15	0xbb8b9110	-0.004259236
16	0x3cdd8d19	0.02704482
17	0xbd1b835b	-0.037967067
18	0xbcf5ad75	-0.029989937
19	0x3c8447a3	0.01614744
20	0x3d3f4970	0.046700895
21	0x3e259ef7	0.16173922
22	0x3e5a7c09	0.21336378
23	0x3df9f960	0.12205768
24	0xbccb6360	-0.02482766
25	0xbdd1fe4e	-0.10253583
26	0x3e291af8	0.16514194
27	0x3e15f517	0.14644276
28	0x3e5c65a2	0.21523145
29	0x3d58de8d	0.052946616
30	0x3d56849c	0.05237256
31	0x3dbfa423	0.093574785
32	0x3e4e08d6	0.20120558
33	0x3e3ad7f5	0.18246444
34	0x3dbc63ee	0.091987476
35	0xbd0f0760	-0.034919143
36	0xbd74be7c	-0.059751973
37	0x3da0338c	0.07822332
38	0x3e153dde	0.14574382
39	0xbcb77807	-0.0223961
40	0x3dfc3bfc	0.123161286
41	0xbdb9b38e	-0.090674505
42	0x3e0b1f19	0.13586082
43	0x3d8143aa	0.06311734
44	0xbe178cbf	-0.14799784
45	0x3d328eb7	0.043593135
46	0xbdb361ee	-0.08758913
47	0x3e12c77e	0.14333913
48	0x3dcdb47e	0.10044192
49	0xbe54fde3	-0.20799975
50	0x3dd653f3	0.10465231
51	0x3dc43ed9	0.095823
52	0x3e48a2dd	0.19593377
53	0x3e480105	0.19531639
54	0x3c4d4bf2	0.012530314
55	0xbe08d150	-0.13361096
56	0xbd2054af	-0.03914326
57	0x3d597912	0.053093977
58	0x3bc17dcb	0.0059048883
59	0x3e32dccc	0.1746704
60	0xbe5c8c80	-0.21537971
61	0xbdbb245d	-0.09137795
62	0xbca84044	-0.020538457
63	0x3e8e5176	0.27796525
64	0x3e202307	0.15638362
65	0xbe9e2396	-0.30886525
66	0xbe4a78c5	-0.19772632
67	0xbd9edda4	-0.07757118
68	0x3c94abae	0.01814827
69	0x3e9ba941	0.30402568
70	0xbd7133b5	-0.058887202
71	0xbe4d5350	-0.20051312
72	0xbe60bd00	-0.21947098
73	0x3e81f56b	0.25382552
74	0xbcaa0163	-0.020752614
75	0xbc9c47ea	-0.01907726
76	0xbdebdd56	-0.11516826
77	0xbec5d5b8	-0.38639617
78	0x3cbb56b8	0.0228685
79	0x3e90509f	0.2818651
80	0xbc8159b0	-0.015789837
81	0xbe12c859	-0.14334239
82	0xbeb53187	-0.3538935
83	0xbe02fdc0	-0.1279211
84	0x3ded9ed7	0.11602562
85	0x3e58bd1b	0.21165888
86	0xbcdfa4e1	-0.0273003
87	0xbed4b80a	-0.4154666
88	0xbd9202a0	-0.07129407
89	0x3e0d656e	0.13808224
90	0x3e903a03	0.2816926
91	0xbd8b3b73	-0.067984484
92	0xbe9a28f8	-0.30109382
93	0xbddb7d34	-0.1071724
94	0xbc5bcae1	-0.013415069
95	0x3d26849e	0.040653817
96	0x3e1e7f64	0.15478283
97	0xbe911c0f	-0.2834172
98	0xbe768009	-0.24072279
99	0x3d8d384f	0.06895506
100	0x3e1b5a1d	0.15171094
101	0x3e80531b	0.25063404
102	0xbca05238	-0.019570455
103	0xbc36b46d	-0.011151415
104	0xbe18330c	-0.14863223
105	0x3dc1d5d6	0.09464614
106	0x3da8850a	0.082285
107	0xbd825801	-0.06364442
108	0x3dc4a73f	0.09602212
109	0xbd468840	-0.048469782
110	0xbd20a061	-0.03921545
111	0xbcff43da	-0.031160284
112	0xbc387b30	-0.011259839
113	0xbc21c17e	-0.009872792
114	0x3c64ab68	0.013956882
115	0x3da9b870	0.08287132
116	0x3d838684	0.06422141
117	0x3e646712	0.22304943
118	0xbc267674	-0.010160077
119	0x3cc0095d	0.023441965
120	0xbe46f691	-0.19429995
121	0x3e17f38b	0.14838998
122	0x3e014b0d	0.12626286
123	0x3db58aa9	0.08864338
124	0xbe3403c3	-0.1757956
125	0x3e706500	0.23476028
126	0xbc83f260	-0.016106784
127	0xbd67e77a	-0.056617238
128	0xbd458844	-0.048225656
129	0xbe95ce80	-0.2925911
130	0x3e89aafb	0.2688826
131	0xbae2d1a8	-0.0017304914
132	0xbe471b3d	-0.19443984
133	0xbe7dea35	-0.24796374
134	0xbe7c0660	-0.24611807
135	0x3e9252bc	0.28578746
136	0x3e5269ce	0.20548174
137	0xbdfc7c5a	-0.12328406
138	0xbd417c6c	-0.0472378
139	0xbc1061fe	-0.008812426
140	0x3e01d05d	0.1267714
141	0x3e4d6c5d	0.20060869
142	0xbe0766e5	-0.13222845
143	0x3d96c057	0.07360905
144	0x3d96883d	0.07350204
145	0x3dcd257e	0.10016917
146	0x3d915e3d	0.07098053
147	0x3c1e03de	0.009644477
148	0xbc01c377	-0.007920138
149	0xbdbbc39f	-0.09168171
150	0xbcb83ea9	-0.022490816
151	0xbddeb6b8	-0.108746946
152	0xbe459299	-0.19294204
153	0xbda1b6c5	-0.07896189
154	0xbe4a163e	-0.19735047
155	0xbe8f649c	-0.28006446
156	0xbe2baed9	-0.16765918
157	0xbe8c090a	-0.27350646
158	0xbe93b4f7	-0.28849003
159	0xbe323c62	-0.17405847
160	0xbe769f21	-0.2408414
161	0xbe2ad78d	-0.16683789
162	0xbd9c6d23	-0.07638004
163	0x3bfc48af	0.0076990942
164	0x3d2cb897	0.042168226
165	0x3d3de8ce	0.046364598
166	0x3db1b123	0.08676364
167	0x3e701407	0.2344514
168	0x3df5b9ea	0.11998351
169	0x3e01616a	0.12634817
170	0x3df2e3f4	0.11859885
171	0x3e05f33b	0.13081066
172	0x3dd1af27	0.10238486
173	0x3dcfb3e8	0.10141736
174	0x3e91e0fa	0.28491956
175	0xbd11a91d	-0.03556167
176	0x3e2db452	0.16963318
177	0x3e6adc4c	0.22935599
178	0x3ec269cb	0.3797134
179	0x3ea0ef0a	0.31432372
180	0xbe737322	-0.23774388
181	0xbe87064e	-0.26371998
182	0xbe1d8bb4	-0.15385324
183	0x3c79efb2	0.015254902
184	0x3e2bc582	0.16774562
185	0xbe6f74b1	-0.23384358
186	0xbe6fbe70	-0.2341249
187	0xbe8df2ca	-0.27724296
188	0x3e225ff1	0.15856911
189	0x3eb44ecc	0.35216367
190	0x3cdd68b3	0.027027464
191	0xbe05e98b	-0.13077371
192	0xbea5121c	-0.3224038
193	0xbe0276bb	-0.12740605
194	0x3dbc91b4	0.09207478
195	0x3e03240b	0.12806718
196	0xbcf0cd46	-0.029394757
197	0xbd95c789	-0.07313449
198	0xbe54ddd6	-0.20787749
199	0x3e156f54	0.1459325
200	0xbe0ce6ff	-0.13759993
201	0x3e03a6fa	0.12856665
202	0x3e389f5d	0.18029542
203	0x3cc116d1	0.02357045
204	0x3d97c556	0.07410686
205	0x3e0ae451	0.13563658
206	0x3d94aebc	0.072598904
207	0xbe092625	-0.13393457
208	0xbe07702d	-0.13226385
209	0xbd48b4fe	-0.049000733
210	0x3e4d4aec	0.20048112
211	0x3deb16d2	0.11478962
212	0xba5b4da7	-0.0008365758
213	0xbd8cc007	-0.06872564
214	0x3de1ceef	0.110257976
215	0x3d41564e	0.047201447
216	0x3db7c493	0.089730404
217	0x3d4dfc6f	0.050289568
218	0x3c744faa	0.0149115715
219	0x3e3512f6	0.17683014
220	0xbe17e369	-0.14832844
221	0xbe873ad4	-0.2641207
222	0xbc666799	-0.014062786
223	0xbdc1c8b7	-0.094621114
224	0xbd894d49	-0.06704194
225	0x3d09d8b0	0.033653915
226	0xbdb1e2ac	-0.08685812
227	0xbe2d2799	-0.16909637
228	0xbe5ccd40	-0.21562672
229	0x3e4b982c	0.19882268
230	0x3da32c9e	0.079674944
231	0x3e20bd89	0.15697302
232	0xbda09c66	-0.07842331
233	0xbe86d682	-0.2633553
234	0x3e11e53a	0.14247599
235	0x3e78aa7e	0.24283788
236	0x3d6cd408	0.057819396
237	0xbeb2f646	-0.34953517
238	0xbe9a6958	-0.30158496
239	0x3e108fa5	0.14117296
240	0x3e8d0226	0.27540702
241	0x3dd3150c	0.10306749
242	0xbe9a6c8a	-0.30160934
243	0xbe77aacc	-0.24186248
244	0x3e7101f1	0.23535897
245	0x3e93fae3	0.2890235
246	0xbe13d6d4	-0.14437419
247	0xbd35cd25	-0.044385094
248	0xbe26c7ec	-0.16287202
249	0x3d284f3e	0.041091196
250	0xbd94ca02	-0.072650924
251	0x3d5f024a	0.054445542
252	0x3e0a95fa	0.13533774
253	0x3d9ca38f	0.07648384
254	0xbdcf30e7	-0.10116749
255	0xbd2da8c7	-0.042397287

0.bias f4 [32]
0	0xbd0a1603	-0.0337124
1	0xbcd6c97e	-0.026219126
2	0xbda1bfd8	-0.078979194
3	0x3e958cf6	0.29209107
4	0xbba83894	-0.0051336978
5	0xba915c89	-0.00110902
6	0x3e39dfe6	0.18151817
7	0x3dc9f180	0.098605156
8	0xbdc874cd	-0.09787903
9	0x3db4484a	0.088028505
10	0xbc7a47f4	-0.015275944
11	0x3bf80065	0.0075684064
12	0xbd409f07	-0.04702666
13	0xb99080fc	-0.0002756192
14	0x3ba27142	0.004957349
15	0xbe0b6f10	-0.13616586
16	0xbcde6caf	-0.027151434
17	0xbd8e21ed	-0.069400646
18	0xbd4a9da4	-0.049466744
19	0xbda51b65	-0.08061866
20	0xbc4ac2bb	-0.012375529
21	0x3de7c547	0.113169245
22	0x3e7ca518	0.24672353
23	0xbbabe42e	-0.005245707
24	0x3b6c3fa1	0.0036048668
25	0xbcb319d6	-0.021862905
26	0xbd644b88	-0.055736095
27	0xbd22720a	-0.039659537
28	0xbbab8219	-0.0052340147
29	0xbca96778	-0.02067922
30	0xbc58f742	-0.013242545
31	0x3dc7ea0c	0.09761438

3.weight f4 [32, 32, 5, 5]
0	0xb2cdc703	-2.3955641e-08
1	0xb67c35a6	-3.7582154e-06
2	0xb75341c6	-1.2591894e-05
3	0xb4ec288d	-4.398793e-07
4	0xb6071563	-2.0129016e-06
5	0xb66bb68d	-3.5123987e-06
6	0xb78b678c	-1.6618309e-05
7	0xb74f77f0	-1.2366087e-05
8	0xb68e2057	-4.2356946e-06
9	0xb73ab871	-1.11294075e-05
10	0xb711fb29	-8.701151e-06
11	0xb780a2d8	-1.533462e-05
12	0xb75a4ac8	-1.3011224e-05
13	0xb71244e7	-8.718321e-06
14	0xb6347731	-2.6891469e-06
15	0xb6c3fee2	-5.841125e-06
16	0xb7012075	-7.696556e-06
17	0xb69f258c	-4.7429403e-06
18	0xb4c79437	-3.717448e-07
19	0x22ca4794	5.4827996e-18
20	0xb5a29dae	-1.2115831e-06
21	0xb3673c80	-5.3838903e-08
22	0x96af050f	-2.8275967e-25
23	0x1784aaa5	8.573377e-25
24	0x17275aa7	5.407503e-25
25	0xb68496d9	-3.9514675e-06
26	0xb54b0676	-7.5632795e-07
27	0x986bc09d	-3.0470283e-24
28	0xb443ae94	-1.8224301e-07
29	0xb7dd7d71	-2.6403666e-05
30	0xb72fae77	-1.0471434e-05
31	0xb729e0f3	-1.012556e-05
32	0xb830619b	-4.2052572e-05
33	0x37a72606	1.9925657e-05
34	0x335cf3ea	5.144458e-08
35	0xb7564fcd	-1.2773974e-05
36	0xb9a9d319	-0.00032391472
37	0xb8446b68	-4.683007e-05
38	0xb8f36c37	-0.000116072995
39	0xb7c560f7	-2.3529383e-05
40	0x386571aa	5.4703713e-05
41	0xb87ba8a1	-6.000011e-05
42	0xb8e3f6a2	-0.000108701424
43	0xb68a7a0c	-4.1269286e-06
44	0xabf6476d	-1.7499176e-12
45	0xb84ce8ba	-4.8854134e-05
46	0xb5abe5f0	-1.2807413e-06
47	0x1eb04cfb	1.8666563e-20
48	0x1ec4d2d5	2.0839505e-20
49	0x1da82ac2	4.451344e-21
50	0x1722a172	5.2548796e-25
51	0x96d1bfbc	-3.3886773e-25
52	0x172384f8	5.283597e-25
53	0x973fa444	-6.192276e-25
54	0x95eec8cc	-9.6444236e-26
55	0x9730f966	-5.718345e-25
56	0x16e2fcb0	3.6671737e-25
57	0x1741a116	6.256498e-25
58	0x97a9301e	-1.0933516e-24
59	0x176a8c3c	7.578648e-25
60	0x15e5f75e	9.288264e-26
61	0x17225f28	5.2465127e-25
62	0x177f4398	8.248026e-25
63	0x170da345	4.576563e-25
64	0x17953334	9.641825e-25
65	0x17920639	9.4366e-25
66	0x97563fba	-6.9227564e-25
67	0x17982c47	9.833947e-25
68	0x178db190	9.156735e-25
69	0x17678d4c	7.4818467e-25
70	0x15bd0882	7.6349915e-26
71	0x17e719f6	1.4934579e-24
72	0x17d72a32	1.3904701e-24
73	0x174c63b5	6.6041803e-25
74	0x16eb9602	3.8060966e-25
75	0x95f4c484	-9.886086e-26
76	0x97e21d21	-1.4612261e-24
77	0x9b6006a9	-1.8530998e-22
78	0x174589c9	6.382804e-25
79	0x9593a0a2	-5.962626e-26
80	0x15c92166	8.123595e-26
81	0x15ba6c45	7.529562e-26
82	0x96731049	-1.9634522e-25
83	0x975a8371	-7.06055e-25
84	0x1663417a	1.8357575e-25
85	0x968c8f16	-2.270852e-25
86	0x169dc78a	2.5490645e-25
87	0x96028a1c	-1.0544896e-25
88	0x9f465e38	-4.2006067e-20
89	0x9ef5070e	-2.5943302e-20
90	0x1683d4f2	2.129858e-25
91	0x16de1f7b	3.5885901e-25
92	0xad2e7ed5	-9.918917e-12
93	0xb0813044	-9.399703e-10
94	0xae011a21	-2.935441e-11
95	0xb0adfcbe	-1.265924e-09
96	0xb1ce0a23	-5.9965415e-09
97	0xb1c31db4	-5.678624e-09
98	0xaf69c295	-2.1260356e-10
99	0xa828e226	-9.3749115e-15
100	0x179e3940	1.0224963e-24
101	0x9ebcb55e	-1.9980286e-20
102	0xa5d07e8a	-3.6167995e-16
103	0x989e0b67	-4.0853556e-24
104	0xa4d753a2	-9.3383066e-17
105	0xa5fb93cf	-4.3641718e-16
106	0xb3c27a39	-9.056061e-08
107	0xb28e8946	-1.65934e-08
108	0x9f4e368a	-4.366731e-20
109	0x232dc03b	9.419055e-18
110	0xb2041dc3	-7.690178e-09
111	0xb3231484	-3.7970054e-08
112	0xaf9cab32	-2.8497876e-10
113	0xac89f406	-3.9208662e-12
114	0xac594fff	-3.0881961e-12
115	0xac38806e	-2.6219265e-12
116	0xa7dbf1f3	-6.1047032e-15
117	0xaa243ea4	-1.4587859e-13
118	0xaab91e11	-3.2883464e-13
119	0x9b25a639	-1.370219e-22
120	0x230f77e4	7.777433e-18
121	0x97c735cd	-1.2873655e-24
122	0x9b6f0cf4	-1.9773802e-22
123	0x9717f8c7	-4.9104733e-25
124	0x97fe41b1	-1.6430948e-24
125	0x17844595	8.547865e-25
126	0x9e6414f3	-1.2074552e-20
127	0xb0714a93	-8.7781266e-10
128	0x16ee0121	3.8451686e-25
129	0x172a3196	5.499255e-25
130	0x96bfc8ac	-3.0984356e-25
131	0xaf87bccf	-2.4690514e-10
132	0xb009f281	-5.018493e-10
133	0x1593d4aa	5.970835e-26
134	0x176b2571	7.5979853e-25
135	0x16930452	2.3751857e-25
136	0x176aa865	7.582202e-25
137	0x1755326c	6.8887653e-25
138	0x1712208f	4.721624e-25
139	0xa62f09f6	-6.072882e-16
140	0x978cbb4a	-9.094566e-25
141	0x97b276ed	-1.1533001e-24
142	0x1b20ea4e	1.3310598e-22
143	0x21646b5b	7.739149e-19
144	0x9afdfc75	-1.05046214e-22
145	0x1d49daf2	2.671532e-21
146	0x22be6506	5.1606566e-18
147	0x977b65a1	-8.123075e-25
148	0x17953c52	9.644126e-25
149	0x97695e14	-7.5405104e-25
150	0xb145141c	-2.8678704e-09
151	0xad35b61b	-1.0329094e-11
152	0xb442808e	-1.8114426e-07
153	0xb46466b5	-2.127152e-07
154	0xaee284fc	-1.0300913e-10
155	0xb3904232	-6.7175634e-08
156	0xb1568aa6	-3.121991e-09
157	0xb1534258	-3.0742253e-09
158	0x1c835b44	8.692444e-22
159	0x175a6bd7	7.057571e-25
160	0x22381b47	2.495109e-18
161	0x16e68731	3.7243822e-25
162	0x96cc43eb	-3.300084e-25
163	0x179a2398	9.961002e-25
164	0x164c4362	1.6500251e-25
165	0x17204efa	5.179847e-25
166	0x171b55c7	5.0191467e-25
167	0x977d9357	-8.193468e-25
168	0x2207c471	1.8399907e-18
169	0xa825b9a0	-9.199591e-15
170	0x1985aaf8	1.3820931e-23
171	0xaa02d749	-1.1621011e-13
172	0xad5e670a	-1.2642118e-11
173	0xaa9be8b8	-2.7695012e-13
174	0xa48adae3	-6.021877e-17
175	0xad3ffd5d	-1.0913351e-11
176	0xa70b4ac1	-1.933065e-15
177	0x22875226	3.66788e-18
178	0xae2a1c4c	-3.8678657e-11
179	0xb0a40bd7	-1.1935936e-09
180	0xabd82061	-1.535671e-12
181	0x1764713d	7.38137e-25
182	0x9d69dbf2	-3.0951002e-21
183	0xa830eb93	-9.821045e-15
184	0x9787ea53	-8.783322e-25
185	0xa8f6ffc6	-2.742241e-14
186	0x1474d488	1.2360766e-26
187	0x178ab806	8.964495e-25
188	0x1a902762	5.962063e-23
189	0x97a0eba7	-1.0399245e-24
190	0xb20f8e91	-8.356111e-09
191	0xaeb454d3	-8.20052e-11
192	0xadaf01f2	-1.989606e-11
193	0xb330b906	-4.114647e-08
194	0xafd7b8cb	-3.9239575e-10
195	0xb3311fd0	-4.1239957e-08
196	0xb51b24d9	-5.779562e-07
197	0xb1f64fdf	-7.1686226e-09
198	0xaece40dd	-9.3793175e-11
199	0xab0caa0e	-4.997399e-13
200	0x16c5f432	3.1981175e-25
201	0x96e86691	-3.754635e-25
202	0x14eb8230	2.3780286e-26
203	0x16e44ab6	3.6882536e-25
204	0x1629c8b5	1.3715043e-25
205	0x172474ba	5.313859e-25
206	0x17253a5e	5.3388045e-25
207	0x96ff67f5	-4.1263078e-25
208	0x16e8ff8c	3.7642894e-25
209	0x98eeca35	-6.1725735e-24
210	0x1725a6b2	5.3524774e-25
211	0x16706be4	1.942109e-25
212	0x96c1fd96	-3.1340867e-25
213	0x94b188d0	-1.7926396e-26
214	0x95f2c7d9	-9.8058326e-26
215	0x95a9e374	-6.8617414e-26
216	0x9702d8e7	-4.2279035e-25
217	0x168a18bf	2.231072e-25
218	0x17338190	5.800155e-25
219	0x16e9f236	3.7796037e-25
220	0x96cf5755	-3.3497768e-25
221	0x972a0df1	-5.494756e-25
222	0x9718b024	-4.933617e-25
223	0x17702740	7.7597723e-25
224	0x153ea866	3.8503037e-26
225	0x970aa66c	-4.480026e-25
226	0x166f6236	1.9337256e-25
227	0x978d98b0	-9.150455e-25
228	0x97379449	-5.931765e-25
229	0x16a77c4a	2.7058743e-25
230	0x96a6911d	-2.6910326e-25
231	0x15fc09db	1.0179754e-25
232	0x178f5cfa	9.264629e-25
233	0x176a14e5	7.563585e-25
234	0x96474088	-1.6095454e-25
235	0x96b840a4	-2.9767597e-25
236	0x174775a4	6.444885e-25
237	0x9782d912	-8.455849e-25
238	0x976db165	-7.6802734e-25
239	0x972ff013	-5.6848566e-25
240	0x174dd2f2	6.6505323e-25
241	0x15fc29f4	1.0184818e-25
242	0x172c930c	5.5761797e-25
243	0x97602901	-7.243006e-25
244	0x175bfa2e	7.107849e-25
245	0x971fb86c	-5.1608444e-25
246	0x970ebb39	-4.6118983e-25
247	0x9622933f	-1.3132718e-25
248	0x1718e146	4.9398184e-25
249	0x97445a58	-6.3445045e-25
250	0xb546f61a	-7.411887e-07
251	0xb621501f	-2.4037506e-06
252	0xb22771b0	-9.746529e-09
253	0xb0391650	-6.7334316e-10
254	0xb5a96d57	-1.2623303e-06
255	0xb69e475e	-4.717075e-06

3.bias f4 [32]
0	0xba137e6a	-0.0005626442
1	0x3dc8370c	0.09776124
2	0xbc910a07	-0.017704977
3	0xbd4aba57	-0.049494114
4	0xbcd262c5	-0.025681863
5	0xbb9f39a1	-0.004859165
6	0x3a0d7fd2	0.000539777
7	0xbd531e8a	-0.051542796
8	0xbd8dd278	-0.06924909
9	0xbd3669c2	-0.044534452
10	0x3cc2523f	0.023720859
11	0xbd2df08f	-0.042465743
12	0xbbd7d2bf	-0.006586402
13	0xb934d56b	-0.00017245642
14	0x3a9a30ee	0.001176385
15	0x3c7f4e70	0.015582666
16	0xbc882838	-0.01662074
17	0xbd270dfd	-0.040784825
18	0xbcc88065	-0.024475286
19	0xbd12134b	-0.03566293
20	0x3d67a4a4	0.056553498
21	0x3c1f6570	0.009728774
22	0x39247e15	0.00015687228
23	0x3ce32684	0.027728327
24	0xbbe361f6	-0.006939168
25	0xbd2b4cda	-0.04182134
26	0xbd1cd651	-0.038290326
27	0xbd78d5de	-0.060750835
28	0x3d9858c1	0.074388035
29	0xbd16e28a	-0.03683714
30	0x3bab49b0	0.00522729
31	0xbc3aab28	-0.011393346

7.weight f4 [10, 512]
0	0x159c8443	6.321657e-26
1	0x1614023a	1.1956047e-25
2	0xb200613d	-7.47269e-09
3	0x9616d192	-1.2183032e-25
4	0x19dbaf10	2.2714776e-23
5	0xade81c3c	-2.6387885e-11
6	0x16b88188	2.980855e-25
7	0xae4b29d1	-4.6193997e-11
8	0x220670c7	1.822009e-18
9	0xaa869c8d	-2.391181e-13
10	0xb3a8b52b	-7.856064e-08
11	0x966c29a4	-1.9077068e-25
12	0x3481758b	2.4113646e-07
13	0xb0e25a8a	-1.6469397e-09
14	0xa6131fcd	-5.104397e-16
15	0xaabd92dc	-3.3675048e-13
16	0x3c87275b	0.016498258
17	0xbcb762a4	-0.022385903
18	0x3df3636a	0.11884196
19	0x3d2b8c0b	0.041881602
20	0xbcdb6703	-0.026782518
21	0x3b04eba2	0.002028205
22	0xbdbd107b	-0.09231659
23	0xbe224fa5	-0.15850694
24	0xbbf0449e	-0.0073323986
25	0x3c873faf	0.016509859
26	0x3d28f70f	0.04125124
27	0xbe2b775b	-0.16744749
28	0xbd84bd84	-0.0648146
29	0x3dd225d7	0.102611236
30	0x3d9535ed	0.07285676
31	0xbdb1e4b6	-0.08686201
32	0xbd674363	-0.05646075
33	0x3d20feb1	0.039305393
34	0xbdea7125	-0.11447362
35	0xbcce103c	-0.025154226
36	0xbd03eb8f	-0.032207068
37	0xbccdb38e	-0.025110032
38	0xbe008030	-0.125489
39	0xbcbeb6f7	-0.023280604
40	0x3b3e261d	0.0029014417
41	0x3c2f158f	0.010686292
42	0xbcb9b172	-0.02266762
43	0x3a8a0d8f	0.0010532605
44	0x3d2c9def	0.042142805
45	0xb9ff061a	-0.00048641936
46	0xbcee3071	-0.029075833
47	0x3cdeaf0a	0.027183075
48	0xbd0abdb3	-0.033872318
49	0xbc9c25a3	-0.019060915
50	0x3cc6cb37	0.024266822
51	0x3999e958	0.0002935629
52	0xbccea6e5	-0.025226066
53	0xbce94dff	-0.028479574
54	0xbcd00103	-0.025391107
55	0x3cf95c12	0.03043941
56	0x3d1741c1	0.036927942
57	0xbccc5e79	-0.024947392
58	0xbd7df4f3	-0.06200118
59	0xba93eaac	-0.0011285148
60	0x3b955635	0.004557396
61	0xba86b1b8	-0.0010276353
62	0x3d1d9e06	0.03848078
63	0x3d211641	0.039327864
64	0x3c682dbc	0.01417106
65	0xbca88f56	-0.02057616
66	0xbd7cc237	-0.061708655
67	0xbbfeace1	-0.0077720736
68	0x3c6cb596	0.01444759
69	0xbcf16810	-0.029468566
70	0xbd9ee3dd	-0.07758305
71	0xbd60b941	-0.054864172
72	0x3d187abd	0.037226427
73	0xbd3405e6	-0.043950938
74	0xbd654bfa	-0.05598066
75	0x3d6220b4	0.05520697
76	0xbd36911c	-0.04457198
77	0xbc6f4f84	-0.01460636
78	0xbc74a34a	-0.014931509
79	0x3dc8da95	0.09807316
80	0x3c2b4784	0.010454062
81	0xbccc6ee9	-0.02495523
82	0x3cc79804	0.024364479
83	0xbc1a1a5d	-0.0094057
84	0x3b157edf	0.0022811217
85	0x3d81f89c	0.063462466
86	0xbcdbea07	-0.026844991
87	0x3c2c0d0a	0.010501156
88	0x3d78e88c	0.06076865
89	0x3d3f2374	0.04666467
90	0xbc68a158	-0.014198624
91	0xbcc3fdc4	-0.023924716
92	0x3d519a86	0.051172756
93	0xbcfc52b3	-0.030801153
94	0xbd2116e2	-0.039328463
95	0xbcd86b55	-0.026418367
96	0x3d4385b2	0.047734924
97	0x3cea36a9	0.028590517
98	0xbcafc46e	-0.02145597
99	0xbc04416c	-0.008072238
100	0xbc00a8dc	-0.007852759
101	0xbd357409	-0.044300113
102	0x3d2093a3	0.039203297
103	0x3d135487	0.035969283
104	0xbd1ff82c	-0.039055035
105	0xbd8d023c	-0.06885192
106	0x3b61122e	0.0034343111
107	0x3daa377a	0.083113626
108	0xbce49cc4	-0.027906783
109	0xbbd89c75	-0.006610448
110	0xbd2e493f	-0.04255032
111	0xbd4fac38	-0.05070135
112	0xbceb55f2	-0.028727505
113	0x3c2e5c06	0.010642057
114	0x3c354af5	0.011065234
115	0x3cc7f599	0.024409102
116	0xbc7712b3	-0.015080142
117	0x3d1f0dfd	0.0388317
118	0xbc03b3c2	-0.008038463
119	0x3c6fff53	0.014648276
120	0xbc5d139c	-0.013493445
121	0x3d24f18a	0.040269412
122	0xbd863f5b	-0.06555053
123	0xbd2f679d	-0.042823423
124	0x3cba603a	0.022750963
125	0xbd287b84	-0.04113342
126	0xbd9fb0f3	-0.07797422
127	0xbcc3e4e6	-0.023912858
128	0xbc46cb8e	-0.012133492
129	0xbd409f38	-0.047026843
130	0xbd180aab	-0.03711955
131	0x3d0f9632	0.035055347
132	0x3cc3fc3b	0.023923984
133	0xbd127df5	-0.035764653
134	0x3cd54ed2	0.026038561
135	0xbd40650e	-0.046971373
136	0x396cbc24	0.00022576802
137	0x3d09f022	0.033676274
138	0x3d7f1256	0.062273346
139	0x3b93162c	0.004488727
140	0x3d8d198e	0.0688964
141	0x3d473938	0.048638552
142	0x3cf971cd	0.030449772
143	0x3ce6b40c	0.028162025
144	0xbc9a004c	-0.01879897
145	0xbbccf218	-0.0062544458
146	0x3c11ea08	0.008905895
147	0xbb8b6975	-0.004254515
148	0xbd316e0b	-0.043317836
149	0xbd863f56	-0.06555049
150	0x3c280b02	0.010256531
151	0x3b76bd1a	0.0037649334
152	0xbc461c06	-0.012091642
153	0x3bb4ad06	0.00551379
154	0xbcd9c180	-0.026581526
155	0x3da5608d	0.08075056
156	0xbc15a069	-0.009132483
157	0x3d2844a6	0.041081093
158	0xbd47a717	-0.048743334
159	0xbc7263dd	-0.014794317
160	0xbdbc5134	-0.09195176
161	0xbcee9454	-0.029123463
162	0x3d117251	0.03550941
163	0x3df04e9a	0.11733742
164	0xbd7d5280	-0.061846256
165	0x3d1d1d3a	0.03835795
166	0x3d4eb87a	0.0504689
167	0x3c93f0f0	0.018059224
168	0x3c05db46	0.008169955
169	0x3d200b10	0.03907305
170	0x3a90c254	0.0011044242
171	0xbc82d4d3	-0.015970623
172	0x3ce9b556	0.02852885
173	0x3cc21430	0.023691267
174	0x3d287de1	0.041135672
175	0xbcd3210d	-0.025772596
176	0xbd00a737	-0.03140947
177	0x39a85e0b	0.00032113525
178	0x3cf95901	0.030437948
179	0x3cac2f04	0.021018513
180	0xbd5ba024	-0.05361952
181	0x3c1a69c8	0.009424634
182	0x3cc8e9c9	0.02452554
183	0x3cda326f	0.026635377
184	0x3c9e4bfb	0.01932334
185	0x3d2f91c9	0.04286364
186	0x3c2a6eaf	0.010402366
187	0xbdb2f73f	-0.08738565
188	0x3da68d42	0.081324115
189	0x3d2c8e4d	0.042127896
190	0xbbedbed4	-0.0072554145
191	0xbc9934b3	-0.018701887
192	0x3cf6790b	0.030087015
193	0x3d8a3ea3	0.06750228
194	0x3c1d445b	0.009598817
195	0xbd34113e	-0.043961756
196	0x3bb218f1	0.005435102
197	0x3aa772e2	0.0012775327
198	0xbd114cfc	-0.03547381
199	0x3c5f58da	0.013632024
200	0x3c5a87b3	0.013338017
201	0xbd33d28d	-0.04390197
202	0x3d3287cf	0.04358655
203	0xbb99ed8a	-0.0046975063
204	0xbd325b0c	-0.04354386
205	0xbd248641	-0.040167097
206	0xbc0c2da4	-0.008555803
207	0x3cca05c6	0.024660956
208	0xa4b234c0	-7.7284557e-17
209	0x26f1bd09	1.6773972e-15
210	0x28f3736e	2.7028479e-14
211	0x282ddd43	9.651408e-15
212	0xa5d72c7a	-3.7326693e-16
213	0xa7df5b76	-6.1994096e-15
214	0xa9984738	-6.7625105e-14
215	0x283a7fa0	1.0352748e-14
216	0x31d0a184	6.071959e-09
217	0xa8e2ac84	-2.5165857e-14
218	0xaae0429a	-3.9836607e-13
219	0xa7f6a8b3	-6.846162e-15
220	0x31e8f22d	6.779621e-09
221	0x292ca6fa	3.83365e-14
222	0xa927900a	-3.7206383e-14
223	0x2d2ef2cb	9.944666e-12
224	0xbc418741	-0.011812032
225	0x3dbb0009	0.09130866
226	0x3d74011c	0.05957137
227	0x3d0f3af5	0.034968335
228	0xbcf928cc	-0.030414961
229	0x3d0fcbbb	0.035106402
230	0x3d20da7a	0.039270855
231	0x3ceb9f1d	0.028762395
232	0xbd0e945e	-0.034809463
233	0xbd0bd749	-0.03414086
234	0xbcfb9c66	-0.030714225
235	0x3cc8d74e	0.024516728
236	0xbda013bc	-0.07816264
237	0xbd94b9e9	-0.07262022
238	0x3d3c03f1	0.045902196
239	0x3d974e71	0.073880084
240	0xbdb78682	-0.08961202
241	0x3dfb060f	0.12257015
242	0x3dbad240	0.09122133
243	0x3da3b550	0.07993567
244	0xba017ca0	-0.000493953
245	0x3d9981d7	0.07495468
246	0xbca59cf7	-0.020216448
247	0xbbedc934	-0.0072566513
248	0x3cd06965	0.025440881
249	0xbcb55f2f	-0.022140114
250	0xbe23c667	-0.15993653
251	0xbd31464e	-0.04327994
252	0xbd5d5f9d	-0.054046262
253	0xbd39632e	-0.0452606
254	0x3d37e01f	0.044891473
255	0x3cdc32b8	0.026879653

7.bias f4 [10]
0	0x3d1a885e	0.037727706
1	0x3c2c34d3	0.010510641
2	0x3bf45c89	0.00745732
3	0xbce039a3	-0.027371233
4	0xbc6b88fd	-0.014375922
5	0xbc27b514	-0.0102360435
6	0x3c6da2bb	0.01450413
7	0x3c896a10	0.016774207
8	0xbbf1e7ff	-0.0073823924
9	0xbd050ba6	-0.032481812
