Moritz_folder/Notebooks/trained weights/MNIST_weights_seed=7.pth (torch_old, 127500 bytes, 6 tensors)

0.weight f4 [32, 1, 5, 5]
000000 17 8e 26 bd d8 71 64 be 0d 5c 09 be 78 0d 9b bd
       -0.04066285 -0.22309053 -0.13414021 -0.07570928
000010 ac 4a fb bd 12 47 cb 3c 6f 7c 6b be 5f e5 31 be
       -0.12270102 0.024814162 -0.22996686 -0.17372654
000020 09 a7 37 be 92 ff 47 3d 17 fa 8e 3e 6a 0e 86 3d
       -0.17934813 0.048827715 0.27925178 0.06545718
000030 32 df ad bd fe 87 12 be 52 66 cc bc 4d 17 c6 3d
       -0.08489837 -0.1430969 -0.024951134 0.09672413
000040 94 3d 6d 3e 56 27 68 bb 6e 90 6b 3e 54 35 cd bd
       0.23168021 -0.0035423837 0.23004314 -0.10019937
000050 d4 54 5d 3e bf fb f9 3d 6b 6a 7c 3e 42 a5 3f 3e
       0.2161439 0.1220622 0.2464997 0.18715385
000060 4e 81 b5 3d 77 7b 1c 3d e5 7e 2f 3e 1a 1e d1 3d
       0.088625535 0.038203683 0.1713825 0.102108195
000070 2f f3 10 3e 2e 0d ea bd b0 e8 3f 3e 37 21 11 3e
       0.14155267 -0.11428295 0.18741107 0.14172827
000080 8b 58 a1 3d 59 ce 6c 3d 98 0e 7b 3d 72 c7 57 3e
       0.07878216 0.057813976 0.061293215 0.21072176
000090 3c 87 bc bc b8 8f 00 be 06 6e 06 bd d7 42 c7 bd
       -0.023013704 -0.12554824 -0.03281977 -0.097295456
0000a0 01 10 b6 3d fe a8 f6 bd 47 2b 13 be 1e 23 c0 3d
       0.08889771 -0.120439515 -0.14371978 0.09381698
0000b0 fe 63 05 3e a4 81 f6 bc f3 90 c7 bd 49 84 01 be
       0.13026425 -0.030091114 -0.09744444 -0.12648119
0000c0 19 de 14 bd 36 b4 53 be 71 b1 78 bd 0b 7b 92 3e
       -0.03634462 -0.20674214 -0.060716096 0.286095
0000d0 45 9f b3 3e 1a d5 e4 3d cc a6 d7 bd 01 07 f8 3c
       0.3508245 0.111734584 -0.10529861 0.030276777
0000e0 f3 70 0a 3b e9 8a 37 3e ce de a2 3e 5d cf 4e 3e
       0.0021124452 0.17924084 0.3181061 0.2019629
0000f0 d4 90 fc bd 7b a4 8c bd 02 e6 9c 3d 49 b3 8a 3c
       -0.12332311 -0.0686731 0.07661058 0.016931193
000100 86 74 82 3d 6c 0b 54 be 4b c2 a4 be 19 85 6f be
       0.06369881 -0.20707482 -0.32179484 -0.23390616
000110 9a d1 0a 3d fa 0b 32 3e da aa 3a be 0c 13 60 be
       0.033891298 0.17387381 -0.18229237 -0.21882266
000120 b8 fb ac bd b2 3b 37 be ce 52 84 bc 92 0a 26 3e
       -0.08446449 -0.17893866 -0.016152766 0.1621497
000130 32 4d b2 3d 34 ab 91 3d e0 25 7c 3c 3b 18 18 be
       0.0870613 0.071127325 0.0153898895 -0.14852993
000140 47 ad 1d 3e 0c e1 2b bd 51 2c 15 3d 23 0a 57 bd
       0.15398131 -0.04196267 0.036419217 -0.0524999
000150 d9 b6 3b be 5a b2 b0 bd f8 fa 49 3e 9c 73 6e 3e
       -0.1833147 -0.08627768 0.19724643 0.23286289
000160 81 92 6b 3d dd 67 9c 3d 17 0f 52 be fc 82 af bd
       0.057512764 0.07636998 -0.20513569 -0.08569905
000170 95 9a 2a 3e ac 34 48 3d 0f 2f 1e be 19 3b 5a be
       0.16660531 0.048878357 -0.15447639 -0.21311606
000180 db 11 42 be 23 cf d5 3d af 12 d8 3d 5d 10 f6 3d
       -0.18952124 0.10439899 0.105504386 0.1201484
000190 2c 89 90 b5 8b da ba b6 a9 26 aa b7 1a c2 4e b8
       -1.0768758e-06 -5.5686737e-06 -2.0283582e-05 -4.9295e-05
0001a0 d0 db f8 b7 23 32 4e b6 64 83 65 b7 4d 26 ea b7
       -2.9666262e-05 -3.0725575e-06 -1.3680055e-05 -2.7912809e-05
0001b0 24 42 72 b8 07 1f 1b b8 de 8c 74 b6 cd 88 50 b7
       -5.7758894e-05 -3.6983776e-05 -3.6440829e-06 -1.24296175e-05
0001c0 61 73 9b b7 f2 2b 04 b8 df 5f 89 b7 f4 a5 ce b6
       -1.8531167e-05 -3.151218e-05 -1.6376316e-05 -6.158598e-06
0001d0 3c db 14 b7 45 f8 31 b7 2b d5 6b b7 2d dc 43 b7
       -8.872532e-06 -1.0607827e-05 -1.4056724e-05 -1.1674169e-05
0001e0 87 3a 33 b5 fe f3 00 b6 55 50 15 b6 46 f8 74 b6
       -6.6767865e-07 -1.9215508e-06 -2.224949e-06 -3.6503347e-06
0001f0 36 70 19 b6 88 fc 50 be 5e 6d 93 be 7b 42 4e be
       -2.2864092e-06 -0.20408833 -0.28794378 -0.20142548
000200 b0 ba e4 3d f9 8e 36 3e c1 17 9e be 83 c1 2c be
       0.1116842 0.17827977 -0.30877498 -0.16870694
000210 df bd 0c be 85 c1 61 3e 78 86 95 3e df d1 7a be
       -0.13744305 0.22046478 0.29204154 -0.24494122
000220 5d 56 75 be ed df 32 3e 69 7a a4 3e 53 64 c8 3d
       -0.23958726 0.17468233 0.32124642 0.0978476
000230 9e bf 65 be 02 ed e5 3c 90 a8 0d 3e d5 71 c6 3d
       -0.22436377 0.028067116 0.13833833 0.096896805
000240 be 6c 4c bd 0a 5d 17 be 0a 5e 81 3d cb 8b a2 3d
       -0.049908392 -0.14781585 0.06316765 0.0793682
000250 86 17 72 3e a7 d8 64 3d 27 f3 37 be 4c 18 8a be
       0.23641786 0.05587068 -0.17963849 -0.26971662
000260 4e 20 4d be 8f dc 14 3e ef 9f 8d 3e 87 5d 5f be
       -0.20031855 0.14537261 0.27661082 -0.21813022
000270 ac 1f 77 be 8e 05 6e 3d 27 ca 83 3e e3 9f 20 3d
       -0.24133176 0.058110766 0.25740167 0.03921498
000280 35 07 6b be 1e 44 67 bd 34 0b 72 bc 3a 15 fb 3b
       -0.22951968 -0.056461446 -0.014773179 0.0076624425
000290 8b 62 81 3e 97 5e 77 be e3 74 6e bd e2 a4 93 bb
       0.25270495 -0.24157177 -0.05821694 -0.0045057395
0002a0 43 b6 8a 3e 1e 65 29 3e a8 d8 32 bc a1 51 ee bd
       0.2709218 0.1654248 -0.010915913 -0.11636663
0002b0 c8 6a 62 3e e3 5f 06 3e 79 20 99 3b 65 83 cc bc
       0.22111046 0.13122515 0.0046730605 -0.024964998
0002c0 31 e1 37 be 99 4b 7f bd 66 8f bc 3d 61 13 a6 bc
       -0.17956997 -0.062327955 0.092070386 -0.020272912
0002d0 fd f4 b6 3d 61 b8 b4 3b 68 cc 89 bb 5b 0a ee 3d
       0.089334466 0.0055151437 -0.0042052753 0.11623069
0002e0 5a df af 3c c8 dd 69 bd ec 9f 60 bd b3 0a 48 3e
       0.021468807 -0.057096273 -0.054840013 0.19535331
0002f0 43 14 35 3e 7c 1a 89 3d 32 68 1b 3e 00 48 98 3e
       0.1768351 0.066945046 0.15176466 0.29742432
000300 39 ca 86 3e 27 ed fb bd 85 47 98 bb 96 cf 7e 3d
       0.2632616 -0.123010926 -0.0046471977 0.062209688
000310 17 8e 06 3e 14 94 ae bc cf 49 c6 3b 4c 7c 54 be
       0.1314014 -0.021310844 0.006051279 -0.2075054
000320 d2 e2 02 3e 32 80 75 3e 8b 7e 97 bd 08 3f 8b be
       0.12781838 0.23974684 -0.07397183 -0.27196527
000330 36 2c 8f be 08 56 81 bd f6 bb cc 3c c6 c3 ce 3c
       -0.27963418 -0.06315237 0.02499197 0.025239836
000340 03 c8 16 3d 97 58 26 3e 0e ee b9 bd be 86 96 3d
       0.03681184 0.16244732 -0.090786085 0.07349919
000350 a7 72 eb bb 74 32 9b 3e ec 69 27 3e 9a e5 66 bb
       -0.0071852985 0.3031193 0.16349 -0.0035232068
000360 f5 da 3b 3e e3 ef 0c 3e e7 5d cd 3d 7e 86 ad bc
       0.18345244 0.13763385 0.10027676 -0.021182295
000370 e2 83 27 3d 93 55 b8 3c 54 fa 16 be 1a 0a 3d bd
       0.040897258 0.022501742 -0.1474393 -0.04615221
000380 92 93 03 3d f5 a6 62 bd ea 51 81 3d d7 31 df bc
       0.032123156 -0.055335004 0.06314452 -0.027245445
000390 86 71 0f be 39 93 d9 bd 96 b4 b3 bd 9a 7c 2b 3e
       -0.1400815 -0.106237836 -0.087746784 0.1674675
0003a0 ac 74 9c 3e 25 ac af 3e ae 63 a0 3e 09 3a e7 3d
       0.30557764 0.34311023 0.3132605 0.11290366
0003b0 fe ae 39 3e 1e 0b 00 3e 95 23 95 3e 11 e6 4b 3d
       0.1813316 0.12504241 0.2912871 0.049779955
0003c0 d8 fa 05 be 20 f6 1b be bd f0 73 be 19 91 7d be
       -0.1308397 -0.15230608 -0.23822303 -0.24762382
0003d0 69 42 a1 bd cc 82 bf bb 73 e5 83 be e5 c6 b7 be
       -0.07873995 -0.0058444496 -0.25760993 -0.35893932
0003e0 c9 0e 5d be fb 77 16 3d 88 d4 9f 3d ca c1 b3 3d
       -0.21587671 0.036735516 0.07804209 0.08777197
0003f0 e1 c7 1d 3e 52 e1 ba 3e 66 8d 29 3d 2d 5d 6f 3e
       0.15408279 0.3650003 0.041394614 0.23375387

0.bias f4 [32]
000000 ea 99 00 3a 3d fc 83 bb 76 9b 54 bd fd 11 65 bc
       0.00049057475 -0.004027872 -0.05190607 -0.0139813395
000010 a3 f9 f2 ba 93 69 d4 bc 8c a4 1a bd 8c 35 bc bc
       -0.0018537532 -0.025929248 -0.03775458 -0.022974752
000020 73 33 5c bd 7d a2 cd 3d 6e 01 36 3d b3 04 d8 3d
       -0.053760003 0.10040758 0.044434957 0.10547771
000030 04 99 d1 bb 0a 0a 0e bc 4b 0a 17 ba bd 53 2f be
       -0.0063964147 -0.008669386 -0.00057617266 -0.17121787
000040 5c 7e 3e bb c0 13 b9 3d 57 07 da bb b4 52 48 3c
       -0.0029067015 0.0903697 -0.006653707 0.012226749
000050 16 ab f5 3d 2e 39 83 bc b2 78 40 ba ae 34 3c 3e
       0.11995523 -0.016018476 -0.0007342204 0.1837947
000060 a5 35 bd ba 71 77 27 ba 49 83 88 3e 05 3e 63 bd
       -0.0014435543 -0.00063883426 0.26662663 -0.05547907
000070 9e 4b 97 3d b4 ef 4f bd c8 6d 48 bc 81 e6 a4 3d
       0.0738747 -0.050765708 -0.012233205 0.08051778

3.weight f4 [32, 32, 5, 5]
000000 be 77 87 bc 44 3c a8 bd 70 ef a9 bd 63 a6 43 bd
       -0.01653659 -0.0821462 -0.08297622 -0.0477661
000010 e7 a5 3d bd 96 5b 46 3d 1d c7 d4 3c a4 88 59 bd
       -0.046300795 0.048427187 0.02597385 -0.053108826
000020 a9 81 61 bd 5e 95 7c bd ec a8 cb 3d c6 0a 01 3e
       -0.055055294 -0.061665885 0.09944329 0.12601766
000030 db 03 a1 3d 9f f3 ae 3d d2 ed 19 3d 19 2d 27 3d
       0.078620635 0.08542561 0.03758032 0.040814493
000040 c7 21 87 3d d8 fa a9 3d bf fc b5 3d b2 34 27 3d
       0.065982394 0.08299798 0.08886098 0.04082174
000050 c7 9b 0d 3c b6 42 89 3d 37 ff 89 3d ab 47 cc 3d
       0.008643097 0.06702177 0.067381315 0.09974607
000060 35 2e 34 3d 5d a4 38 bd 93 e4 ab bd 15 cb 36 bd
       0.04398938 -0.045078624 -0.083932064 -0.044627268
000070 df ef 64 ba 04 a5 6b 3d 92 ec ae bd 1f 23 dc bd
       -0.00087332533 0.057530418 -0.08541216 -0.10748886
000080 8d 17 87 bd fe d5 b4 bc 44 3d 04 bc d1 58 88 bd
       -0.06596289 -0.022074696 -0.0080712475 -0.066575654
000090 88 25 90 bd 3a d7 db bd 62 e4 a8 bd d0 17 90 bd
       -0.070384085 -0.107344106 -0.082466856 -0.07035792
0000a0 ee 95 29 3c 71 13 48 3b 73 0c eb bc 35 51 47 bd
       0.010350687 0.0030529166 -0.02869246 -0.04866143
0000b0 b9 52 fe bb 77 c8 72 bb e9 24 4b 3c 66 91 35 3d
       -0.007761326 -0.0037045756 0.012398937 0.044328116
0000c0 9f 68 75 3c a3 46 1b 3d ea 86 47 3d 5e e2 88 3c
       0.014978557 0.03790916 0.04871265 0.016709503
0000d0 6d e8 ce 3c 0a 4c 20 3d 97 5e 7c 3d 5a 58 0c 3d
       0.025257314 0.039135017 0.061613645 0.034263946
0000e0 4e 30 f6 3c a3 5f c9 3d 56 a3 fa 3d 66 e0 c4 3d
       0.03005233 0.098326944 0.12238185 0.09613113
0000f0 27 d7 c6 bc f3 c6 8e 3c 1c 64 d6 3c 3f 0b 77 3c
       -0.024272515 0.01742885 0.026170783 0.015078365
000100 6d 90 5b bc bc 26 a8 3d d8 35 9f 3d 68 c0 a3 3d
       -0.013401133 0.08210513 0.07773942 0.07995683
000110 0d b1 77 3d db de b1 bc 86 36 6d 3d 1e 76 5d 3d
       0.060471583 -0.021712711 0.057913326 0.054067723
000120 8e c8 3a 3d 1d ad c4 3c 61 d4 1b 3c 5c 97 50 bd
       0.04560142 0.024008328 0.009511084 -0.050925598
000130 df ed 1f bd 10 2c ff 3a 65 58 db 3c 2e 32 c5 3c
       -0.03904521 0.0019468088 0.026775548 0.02407178
000140 8d 1b 54 bd cd 38 86 bd f9 15 53 bd b2 98 07 bc
       -0.051784087 -0.06553803 -0.051534627 -0.0082761515
000150 db 9d 53 3c 05 db 80 3b bc 75 18 ba 22 48 fd bc
       0.012916054 0.003932359 -0.00058158836 -0.030918185
000160 0b ee 1d bd 17 07 88 bc 62 2d 41 3d d9 bd 5e 3d
       -0.038557094 -0.016604943 0.04716242 0.05438027
000170 a7 b3 d3 3c 0d f9 97 bc dc 7f 69 bc e7 ac 0e 3d
       0.0258425 -0.018551374 -0.014251675 0.03483286
000180 b7 47 89 3d dd 86 62 3d 5e 77 c1 3c 24 c7 25 bd
       0.06703132 0.055304397 0.023616489 -0.04047312
000190 99 35 aa 15 b4 d4 2e 95 6b bc b6 14 12 25 ce 94
       6.8747015e-26 -3.5306813e-26 1.8451621e-26 -2.0815306e-26
0001a0 dd 17 71 15 e3 08 a3 15 e2 41 41 95 95 83 3a 15
       4.8688387e-26 6.5849196e-26 -3.9028012e-26 3.76662e-26
0001b0 38 af 72 95 9a aa 42 15 79 29 ba 96 81 a5 41 15
       -4.9009734e-26 3.931257e-26 -3.0076094e-25 3.91066e-26
0001c0 bc a2 27 14 6c d7 91 95 5a 42 bc 15 98 74 9d 1a
       8.463439e-27 -5.890491e-26 7.603728e-26 6.5122045e-23
0001d0 b8 91 fb 99 d7 05 9f 18 b2 79 82 96 a2 18 aa 95
       -2.6011647e-23 4.1106433e-24 -2.1079433e-25 -6.8701317e-26
0001e0 e4 6f 03 9a 70 25 b0 1b 67 91 16 99 5a 92 a7 96
       -2.718055e-23 2.914095e-22 -7.784182e-24 -2.7072666e-25
0001f0 f4 76 cc 15 8a 3e 0b be 52 29 25 bd 73 ee 88 3d
       8.258262e-26 -0.13598076 -0.04032261 0.066861056
000200 00 a6 81 3d b6 08 9c 38 a4 4a d4 bd 80 37 c9 bd
       0.0633049 7.440282e-05 -0.10365799 -0.09825039
000210 91 d6 34 bd fc a1 23 bd 67 c8 13 bd 46 2d b9 bd
       -0.04414994 -0.039949402 -0.03607979 -0.09041838
000220 42 e5 9d bd 24 30 8e bd 83 08 38 bd 5f 7e fd bc
       -0.07709743 -0.06942776 -0.044929992 -0.030944047
000230 58 d7 62 bc ba 70 63 bd ef 9d 85 bd f2 3d 50 bd
       -0.013845287 -0.055527426 -0.06524264 -0.050840326
000240 fd 30 ec bb 2c 30 a5 3c 09 ec e9 bc c0 f7 46 3c
       -0.0072079883 0.020164572 -0.028554933 0.012144029
000250 14 5d 0d 3c a9 2b e0 bc 3a 98 ee bd 46 ce 60 bd
       0.008628149 -0.027364569 -0.11650129 -0.054884218
000260 56 7d a4 3d 00 5a 51 3d a5 3f f4 3c c8 25 ed bd
       0.080317184 0.05111122 0.029815504 -0.11579472
000270 91 41 94 bd 3e 82 22 3b 5f 40 1c bd 52 81 94 bc
       -0.07239068 0.0024796869 -0.038147327 -0.018128071
000280 14 7e 91 bd 7b 9a 8e bd bd d6 44 bd f8 fa 4e bd
       -0.071041256 -0.069630586 -0.048056353 -0.05053231
000290 4a 92 d5 bc a0 53 ba bc b4 52 30 bd 9d 4e bb bb
       -0.026070733 -0.022744954 -0.04304762 -0.0057161585
0002a0 e6 f5 01 3b 8b e3 83 3c 1b fa 6e 39 01 e8 23 bd
       0.0019830405 0.016099712 0.0002279062 -0.040016178
0002b0 3e 05 06 bc 54 29 a3 3b dc 48 94 bd 0a 3f f3 bd
       -0.008179961 0.004979292 -0.07240459 -0.11877258
0002c0 25 8b 12 be b0 c6 90 bd a4 31 8e 3b b2 98 a2 3c
       -0.14310892 -0.07069147 0.0043394137 0.019848201
0002d0 e2 60 dd bd ff 59 e0 bd 72 a0 00 be 18 78 98 bd
       -0.108094946 -0.109546654 -0.12561205 -0.07444781
0002e0 88 11 93 bd 7a 36 87 bc 02 b1 9e 3b 84 14 82 bd
       -0.07181078 -0.016505469 0.0048428783 -0.06351569
0002f0 6a 04 81 bd 81 8b 10 bd aa dc 4e 3b c9 9e 5e 3d
       -0.0629967 -0.03528929 0.0031564631 0.054350648
000300 7f 5e ab 3c 79 c9 25 3c 26 8c 4f 3d e9 f4 73 3c
       0.020919083 0.010118836 0.050670765 0.014889934
000310 64 ce ee 3c 1c 2c 9a 3c 0c 1a 07 3d 4e 75 2b 3d
       0.02915115 0.018819861 0.032983825 0.041859917
000320 5c 36 a5 bd 20 2a 71 bd ca c6 f0 bc 93 4d af 3b
       -0.08067009 -0.058878064 -0.029391665 0.0053498237
000330 f4 9a 2a 3d c1 b2 b6 bd 92 a8 f4 bd 9c 74 c6 bd
       0.04165168 -0.08920813 -0.11946215 -0.0969021
000340 45 df 0f bd 8a 94 64 bc e1 d4 24 3c b0 f1 0e bd
       -0.035125036 -0.01395143 0.01006052 -0.03489846
000350 c1 1e 65 bd c3 b0 69 bd 4c 23 60 bd b6 54 eb 3b
       -0.055937532 -0.05705334 -0.05472116 0.007181729
000360 87 cb f5 3c c6 c1 3e 3d 18 f9 92 38 c5 11 23 bd
       0.030004276 0.046571516 7.00822e-05 -0.03981187
000370 4d a7 40 3c 78 bb ac 3c c1 20 60 3c 22 2d 36 3c
       0.011758638 0.021085486 0.013679684 0.011119159
000380 bb a9 83 bc da a8 c7 3c 29 3e 66 3c d7 32 3f 3d
       -0.016072145 0.024372507 0.014052906 0.046679344
000390 35 49 38 3c ca 17 54 3d ea d4 87 3b 73 42 db 3c
       0.011247923 0.0517805 0.0041452544 0.026765084
0003a0 ff 01 a1 3d 14 44 d4 3d 89 c8 30 3d 0f 93 d4 3c
       0.07861709 0.10364547 0.043159995 0.02594903
0003b0 60 93 dd ba 85 4c bc bc 41 f0 12 bd dc 5f 91 bd
       -0.0016904883 -0.022985706 -0.035873655 -0.07098362
0003c0 6e 37 82 3d 7f fa 6d 3d ac b8 a4 3d fd a7 32 3d
       0.063582286 0.05810022 0.08043036 0.043617237
0003d0 19 4e 1e bc 8d bd 30 3d 64 85 7f 3d f8 a7 10 3d
       -0.009662175 0.04314952 0.06238307 0.035316437
0003e0 bd bc 81 3c d0 05 3b 3c e8 33 71 bc 84 f2 83 bd
       0.015837068 0.01141496 -0.014721848 -0.064427406
0003f0 0e 5f 4c bd 39 79 bc bc eb ef 85 3d a8 d4 38 bd
       -0.04989534 -0.023007022 0.06539901 -0.04512468

3.bias f4 [32]
000000 45 6c 59 3b 57 4c 9c bb 45 f7 36 3c 25 9f e1 3c
       0.0033176106 -0.0047698426 0.011167352 0.027541706
000010 f6 b6 53 bc d3 32 10 ba 3b e1 25 bc 58 a2 65 b9
       -0.012922039 -0.00055007375 -0.0101245 -0.0002189962
000020 eb ce 9e b9 b3 41 27 3b e0 d7 e5 3c 88 75 9b bb
       -0.00030290274 0.0025521338 0.028057039 -0.0047442354
000030 eb 93 10 bd a0 c3 de bc 51 d6 22 bb 96 95 3e bb
       -0.035297316 -0.02719289 -0.002484698 -0.002908086
000040 e2 76 10 bd 63 9f c0 3c da 5c 91 bc 2b 4a 3f 3d
       -0.035269625 0.023513502 -0.01774447 0.04670159
000050 f6 7c 6a 3c 12 9d 94 3b 25 73 2b 3c 5c 28 53 3d
       0.01431202 0.004535326 0.010464464 0.05155216
000060 18 83 ec bc 2e e4 46 bd 23 24 ed bc a3 28 72 bc
       -0.028871104 -0.048557453 -0.028947895 -0.014780196
000070 30 98 32 bc a9 d4 fb bc 47 51 9f 3a 0c 40 96 b1
       -0.010900542 -0.030741053 0.001215496 -4.372856e-09

7.weight f4 [10, 512]
000000 40 54 0b 3d 1e 94 70 3d 48 36 22 3d 29 29 cd 3c
       0.034015894 0.058735006 0.039602548 0.02504404
000010 3e d7 df bc 1f 7a 80 bd 4b 0a 14 bd 47 e6 af 3d
       -0.027324315 -0.06273293 -0.03614263 0.08588844
000020 b0 ff 18 be 15 bc 49 bd 70 c3 72 3d 37 54 3b 3d
       -0.14941287 -0.049251635 0.059268415 0.04573461
000030 9f 80 05 be a8 ec 9d bd 92 d4 4f 3c d3 4b 9c 3d
       -0.13037346 -0.07711154 0.012684958 0.0763165
000040 63 3f af bc b6 0e cf bc 35 bc 70 3d c5 2a ad 3d
       -0.02139253 -0.02527557 0.05877324 0.08455423
000050 a7 6a 89 bd f5 6e 67 bd 52 c9 00 3d fc e1 ad 3b
       -0.067097954 -0.0565023 0.031441994 0.0053064805
000060 d5 66 3f 3c 84 90 88 bc ac 2c cc bd 20 3e 46 38
       0.011682232 -0.016670473 -0.09969458 4.7264737e-05
000070 7b dc a4 3d ca b5 5c 3d 00 f2 0a bd db 90 5c bd
       0.08049866 0.053884305 -0.033922195 -0.053849082
000080 0a 01 b5 3b f2 06 d2 3c 0c d0 ca 3d 50 f1 97 39
       0.0055238055 0.025638077 0.09902963 0.00028980756
000090 40 ee 1a 3d 54 01 f7 bc 74 9b 61 bd 15 76 76 bc
       0.03782487 -0.030152 -0.055079892 -0.015042801
0000a0 77 97 fe bb a2 7f 73 ba 07 41 ca bc 3d 7b 34 3c
       -0.007769521 -0.0009288733 -0.02468921 0.01101571
0000b0 83 58 d9 bb ab 54 24 3d f8 47 1a 3d 10 d9 1d bd
       -0.006632866 0.04011981 0.03766629 -0.038537085
0000c0 30 eb 12 3d 2f 03 18 3d f2 47 07 3d eb ca 74 3b
       0.035868824 0.03711241 0.033027597 0.0037352394
0000d0 f4 e0 d3 bb 65 c9 99 3d 5a 95 a8 3c 35 60 31 bd
       -0.0064660255 0.07509116 0.020579029 -0.04330464
0000e0 4a 29 70 3d 2d 63 8b 3d 71 c1 8b bd 7c 24 7f 3d
       0.058633126 0.06806026 -0.068240054 0.062290654
0000f0 52 a7 11 bc 31 31 3e 3c 19 62 55 bd 2c 35 5a 3d
       -0.00888999 0.011608408 -0.052095506 0.053273365
000100 07 72 aa bd c6 cf 6e bd 63 3b 8f 3d 93 60 26 3e
       -0.0832253 -0.058303617 0.06993749 0.16247778
000110 a5 59 80 bd 25 11 53 3c 3e 05 5d 3d 39 ac ac 3d
       -0.06267098 0.012882506 0.053960077 0.08431286
000120 a9 48 dc bc 2a 04 30 bd 0e f7 10 3d 70 ad 1d bc
       -0.026890116 -0.04297272 0.03539186 -0.00962387
000130 bd 8c 04 3d 25 3a a6 ba 18 28 06 be ff 4e db bd
       0.03236078 -0.0012682123 -0.13101232 -0.10708427
000140 0a ed b9 38 07 63 9c 39 5d 6e e1 38 eb a7 50 39
       8.8656394e-05 0.0002982842 0.00010749393 0.0001989898
000150 37 3d 8a 39 6e 4a 29 3a 45 66 17 38 b3 6a 06 39
       0.0002636702 0.0006457929 3.609645e-05 0.00012818984
000160 cb 28 8c 3a 98 f6 5f 3a 68 e4 5e 3a ea 89 0d 3a
       0.001069331 0.000854352 0.0008502663 0.0005399274
000170 c4 ee 13 3a 63 0e a1 39 dc 9b 05 39 63 78 dd 38
       0.0005643184 0.00030719032 0.0001274193 0.00010560525
000180 c2 2b 85 bd 8a 12 fc 3c 57 e5 77 3d 13 c2 e3 ba
       -0.06502487 0.030770559 0.06052145 -0.0017376564
000190 bd 51 51 3c 12 7f 8f 3c b1 74 2d bd 2c 59 e1 3c
       0.012775836 0.017516647 -0.042347614 0.02750834
0001a0 80 19 f3 bd 92 f3 f6 bd f2 c0 bc bd 62 83 f1 bd
       -0.11870098 -0.12058176 -0.09216489 -0.117926374
0001b0 df 21 74 bc 37 d6 41 bc 28 93 ee 3b b4 83 ca bb
       -0.014900654 -0.011830858 0.007280726 -0.006180251
0001c0 fb f5 85 37 e5 2e 84 38 b4 23 91 39 13 d4 71 39
       1.596938e-05 6.302985e-05 0.00027683156 0.00023062555
0001d0 11 9a 50 38 07 9c 76 3a 23 e4 8b 3a 96 6a f1 39
       4.973455e-05 0.0009407405 0.0010672848 0.00046046515
0001e0 4d ad 5f 3a 65 c5 95 3a fa 8b e6 39 6f 15 84 39
       0.0008532599 0.0011426626 0.0004397331 0.0002519297
0001f0 1d d0 35 39 6a 0b 62 39 78 17 8d 39 52 7d 46 39
       0.00017339033 0.00021557292 0.000269111 0.00018929437
000200 06 94 4a 3d f7 63 8f 3d 7d 04 45 3c ea ee eb bd
       0.049457572 0.07001489 0.012024996 -0.115201786
000210 25 a7 18 3d 93 ca 3a bb 43 c1 1e be 00 9b a5 bd
       0.037268776 -0.0028502091 -0.15503411 -0.080862045
000220 07 7f 96 bd 86 6b 8a bd 9b 5c 07 3d 6e 97 87 3d
       -0.07348447 -0.0675879 0.0330473 0.0662068
000230 2d e1 f1 bc 7c 5a 37 3d d1 99 14 3d 5c 2a 13 3d
       -0.029526317 0.044764027 0.036279503 0.03592907
000240 34 9d 85 bc 2a 22 62 bc 48 40 17 bd a9 29 82 bd
       -0.016310312 -0.013802091 -0.036926538 -0.06355602
000250 74 d9 eb bb 48 2d b4 bd af 17 50 bd b7 c4 cc bd
       -0.0071975533 -0.08797699 -0.050803836 -0.09998458
000260 4e 76 96 bd 90 15 d9 bc fe 1f 08 3d 17 02 82 bd
       -0.073467836 -0.02649954 0.033233635 -0.06348055
000270 7c 3b 96 bc ce 21 67 3c 54 df 0b 3e d4 fc d7 3d
       -0.018338911 0.014107181 0.13659412 0.1054627
000280 50 37 71 bd ca 20 32 3d cd 3e 5f 3d 92 11 86 bd
       -0.05889064 0.0434883 0.05450325 -0.0654632
000290 43 3a d5 bb f8 a9 8d 3c 6c 51 7d bd 2d f1 be bd
       -0.0065071895 0.017292961 -0.061845228 -0.093233444
0002a0 92 e9 c0 bd 64 10 ed 3c 56 11 65 bd fe ee c5 bd
       -0.0941955 0.02893848 -0.055924736 -0.09664725
0002b0 e6 62 bc bc e9 38 b8 3d 50 f1 d1 3d f9 28 eb 3c
       -0.022996377 0.0899523 0.10251105 0.02870606
0002c0 d3 0f fb bc 6c 35 15 3d 60 3f 96 bb 95 3f dd 3c
       -0.030647194 0.0364279 -0.0045851916 0.027007857
0002d0 23 20 42 3c 27 da 1e bd 72 c5 57 bd d4 e3 b0 3b
       0.011848482 -0.038782265 -0.052678533 0.005398253
0002e0 ea 36 83 3d 79 ba 55 3d fd 57 d6 bc 3d d1 16 bd
       0.064069584 0.052179787 -0.026165003 -0.03682064
0002f0 61 a8 5d 3d 68 77 b1 3c 44 b3 e9 bd df 0a ca 3b
       0.054115657 0.021663383 -0.11411145 0.0061658467
000300 07 09 af bc e7 13 7f bd 3d 06 14 3d b5 68 ab 3d
       -0.02136661 -0.06227484 0.03613876 0.08369581
000310 68 74 eb bb 17 03 46 3d 0e c7 03 3d 88 5a 8b bc
       -0.0071855076 0.04834279 0.032172255 -0.017010942
000320 e7 bf 75 ba 6a 73 d6 bb ec 94 79 bd cc 72 a7 bd
       -0.0009374604 -0.00654452 -0.06093304 -0.08176193
000330 a1 2b 56 3d 13 7b 82 3c 88 58 74 bd 11 56 3d be
       0.0522877 0.015927827 -0.059654742 -0.18489863
000340 16 e8 bb bb a8 a4 2e 3c 7f 27 68 bc 9b 3c 10 3d
       -0.005734454 0.010659374 -0.014169573 0.035214048
000350 60 3e f5 39 68 0a 8e bc 8f fe 22 bd 8e e0 c7 3d
       0.00046776515 -0.017338946 -0.039793547 0.09759627
000360 9c e7 47 3c da 44 b4 bc f5 27 58 bc b8 c1 9b 3d
       0.012201216 -0.022005487 -0.01319312 0.07605308
000370 b0 9b 99 3c 85 bc 21 bd 74 e4 c0 bd 6e 8a cf 3b
       0.018750995 -0.039486427 -0.09418574 0.006333641
000380 ed b7 69 3a a7 c3 d2 3a 10 e5 ad 3a 03 c0 87 3a
       0.00089156517 0.0016080037 0.0013267118 0.0010356907
000390 3f fb 22 3b c1 42 22 3b 18 3c fa 3a 90 ae 96 3a
       0.0024868993 0.0024759027 0.0019091396 0.0011496115
0003a0 a5 22 c4 3a 20 c5 77 3a 12 ed db 39 a0 79 98 3a
       0.0014963938 0.0009451676 0.00041947566 0.0011632927
0003b0 85 e5 90 3a eb 95 4b 3a 2f 70 7b 3a e0 f7 d6 3a
       0.001105473 0.0007766175 0.0009591607 0.0016400777
0003c0 cd 82 1f bd bd d4 73 3d 0b 86 38 bc c4 cc 75 bc
       -0.0389431 0.059529055 -0.011262427 -0.015002433
0003d0 44 25 74 3d 01 6e 61 3c cf 16 ca 3b d7 14 80 3d
       0.05960585 0.013759137 0.00616727 0.06253975
0003e0 84 be 22 3d 0b 6f 50 3d 32 f9 dd bc 0f be 01 3d
       0.03973247 0.05088715 -0.027096365 0.031675395
0003f0 ce a7 25 3c f4 cf f0 3b 40 8d 35 bd f8 a8 01 3c
       0.010110809 0.0073490087 -0.04432416 0.00791382

7.bias f4 [10]
000000 78 c1 5c 3c ba cc 92 3d c1 ec 33 bd 72 3a 91 bc
       0.013473861 0.07167955 -0.043926958 -0.017728064
000010 7a 1b 10 bd 1e b2 bf 3b 3f 4c 63 bb 93 9c a4 bb
       -0.035182454 0.0058500906 -0.0034682897 -0.005023548
000020 b8 92 0b 3d 49 f4 c0 bc
       0.03407547 -0.023553984
